Models/simulations/I-c/T_12_R_9_model.pt (torch, 4255 bytes, 4 tensors)

weight f4 [10, 35]
0.42370054 0.050623406 0.2700842 0.001009474 0.011130163 -0.002286587 -0.7224212 -1.2659395
-1.2221366 -0.56116873 -0.69909793 -0.82092124 0.9576823 0.7333912 0.9145393 6.24136e-05
-0.00017251955 0.00019411302 -0.0001934789 -3.1399744e-05 -0.0001297034 -6.497839e-05 0.00014420538 5.2762334e-07
-0.00010410756 0.00010999813 -0.00017708605 0.00010577598 2.6626018e-05 9.406278e-05 0.00011676039 6.1310915e-05
-6.284636e-05 9.53539e-05 2.6612688e-05 -0.00011655013 0.0001921436 0.00014462192 0.00013031425 0.00019840141
-9.880893e-05 -9.119247e-05 0.00020136527 6.483917e-05 0.00015119267 0.000115626855 -6.2519e-05 -0.0001317964
3.2667056e-05 0.00015995793 -3.468388e-05 3.568022e-05 0.00017792867 9.818745e-05 -0.00016844047 9.656834e-05
-0.00016456157 -0.0001295145 0.00015226015 -6.0697537e-05 -0.00015678095 0.00010569616 2.0077481e-05 7.920651e-05
8.238046e-05 0.00014979522 -8.078801e-05 -0.00019287453 7.797041e-05 -0.00017686335 -1.243129 -1.3348085
-1.7324764 0.0007218261 -0.040911477 -0.3028741 0.0037549713 0.0026229436 -0.02815825 -0.7512687
-0.7767111 -1.0808953 0.79154533 0.625454 0.6885541 0.00013514687 7.971887e-05 0.00013523918
0.00016302105 7.801062e-05 0.00019569085 -0.000114568946 -0.00017486453 0.0001905113 0.00010613489 -7.03558e-05
0.000162997 2.015251e-05 -4.745784e-05 7.362045e-05 -2.8906521e-05 4.0376588e-05 -9.5457435e-05 9.428187e-05
0.00015465975 0.34320712 0.69846296 0.4622146 1.3247572 1.069207 1.0206165 -0.14981842
-0.38749704 -0.43736374 -0.0895631 0.0015024001 -0.47146448 0.0011145017 -0.04377322 0.20935297
3.8558122e-05 -2.793182e-06 -0.00014865525 -3.5521007e-05 0.00016923308 -0.0001736387 4.7718146e-05 -1.0249656e-05
-0.0001269035 -3.8333266e-05 0.00017897844 -4.506865e-05 0.00014848946 0.000104925915 0.00012016531 1.2900273e-07
0.00013991004 -3.3813732e-05 9.020962e-05 -8.47629e-05 0.38574252 0.58024997 0.5604667 -0.25943655
-0.4171558 -0.9156089 -0.045590255 -0.0040132427 0.0035281284 0.5302063 0.17081141 0.10512334
-1.4812201 -1.719239 -1.5848857 0.00010229295 -1.0414427e-05 1.141362e-05 0.00018523565 0.00011878226
0.00015668872 -0.00019509172 0.0001602671 -0.00018178973 -7.8729674e-05 0.00016377422 -5.6070727e-05 -0.00013941826
-0.00015400417 4.8272283e-05 -0.00019967683 6.674162e-05 6.191504e-05 7.349324e-05 9.08747e-05 0.0005371913
0.1447921 -0.012409372 0.8799809 1.1513383 0.5416884 -0.7881721 -0.3675441 -0.05176053
1.1609029 0.9347242 0.9234979 0.27007172 0.4455514 0.17456429 0.00019194487 -6.6003195e-05
-4.6535715e-05 7.571945e-05 -0.00013768733 -0.00016098026 -0.00015279205 0.00011023201 -0.00014707222 0.0001887252
-2.0094303e-05 -0.00019078022 0.00018607675 -6.157906e-05 -0.00016768336 0.0001491316 9.283122e-05 -7.3051095e-05
9.051933e-05 -0.00014126523 0.5727155 0.7191832 -0.00058363617 -0.12726007 -0.2542058 -0.0012221679
-0.64558333 -0.7412624 -0.9115992 -0.005189094 6.626694e-05 0.0017074613 -0.021824084 0.00024494284
0.00075939205 1.3627199e-05 3.3737015e-05 0.00018457325 -0.0001645221 6.320217e-06 -0.0001052865 0.000113292845
-7.214406e-05 0.00010640094 0.00017572321 0.00015559712 0.00019771165 0.0001712225 0.00019129193 0.00013323188
4.505503e-05 -9.144902e-05 -0.00012980973 -0.0001589117 -9.065798e-05 1.1765852 1.0191188 1.2575482
-0.16691962 -0.058153175 -0.04141764 -0.039129473 -0.124201186 0.00343032 -1.2892832 -1.199714
00000000: 47ef d83e 7d5a 4f3d 7a48 8a3e 5450 843a
00000010: 4a5b 363c 90da 15bb 99f0 38bf 4e0a a2bf
00000020: f96e 9cbf c1a8 0fbf 15f8 32bf e527 52bf
00000030: ab2a 753f 87bf 3b3f 3f1f 6a3f 0ce4 8238
00000040: 5de6 34b9 d18a 4b39 99e0 4ab9 38b3 03b8
00000050: fe00 08b9 0245 88b8 d635 1739 00a2 0d35
00000060: 5254 dab8 ccae e638 2db0 39b9 0cd4 dd38
00000070: f05a df37 9243 c538 42dd f438 0c94 8038
00000080: 62cc 83b8 bcf8 c738 503e df37 606c f4b8
00000090: 287a 4939 a7a5 1739 f7a4 0839 f909 5039
000000a0: a437 cfb8 963e bfb8 9425 5339 44fa 8738
000000b0: 7989 1e39 b27c f238 a21c 83b8 d432 0ab9
000000c0: fc03 0938 61ba 2739 8879 11b8 58a7 1538
000000d0: 5d92 3a39 fce9 cd38 659f 30b9 bc84 ca38
000000e0: 298e 2cb9 49ce 07b9 06a8 1f39 7c95 7eb8
000000f0: 9165 24b9 32a9 dd38 106c a837 ac1b a638
00000100: acc3 ac38 5912 1d39 bc6c a9b8 5d3e 4ab9
00000110: 0c84 a338 6574 39b9 da1e 9fbf 01db aabf
00000120: c9c1 ddbf ee38 3d3a cb92 27bd 5012 9bbe
00000130: f715 763b b1e5 2b3b 21ac e6bc 2553 40bf
00000140: 8ad6 46bf c75a 8abf b7a2 4a3f c11d 203f
00000150: 1545 303f 36b6 0d39 be2e a738 fece 0d39
00000160: a1f0 2a39 a299 a338 5d32 4d39 bc44 f0b8
00000170: d75b 37b9 fdc3 4739 bc94 de38 fc8b 93b8
00000180: 2dea 2a39 300d a937 780d 47b8 ae64 9a38
00000190: 487c f2b7 085a 2938 5230 c8b8 32b9 c538
000001a0: 292c 2239 d8b8 af3e 78ce 323f 64a7 ec3e
000001b0: a591 a93f c6db 883f 90a3 823f 006a 19be
000001c0: 0366 c6be 24ee dfbe dc6c b7bd 2fec c43a
000001d0: cb63 f1be 7914 923a 8c4b 33bd a060 563e
000001e0: 78b9 2138 8072 3bb6 57e0 1bb9 64fc 14b8
000001f0: 2974 3139 c912 36b9 f824 4838 f0f5 2bb7
00000200: 6611 05b9 08c8 20b8 29ac 3b39 1808 3db8
00000210: d6b3 1b39 ac0b dc38 4201 fc38 0084 0a34
00000220: d1b4 1239 38d3 0db8 ec2e bd38 bcc2 b1b8
00000230: 0b80 c53e 438b 143f bf7a 0f3f ded4 84be
00000240: 7295 d5be 5865 6abf d9bc 3abd 8581 83bb
00000250: 2c38 673b 9abb 073f 30e9 2e3e e84a d73d
00000260: 9f98 bdbf 0610 dcbf 89dd cabf 1c86 d638
00000270: a0b9 2eb7 207d 3f37 d13b 4239 be1a f938
00000280: cf4c 2439 8991 4cb9 5f0d 2839 cf9e 3eb9
00000290: ac1b a5b8 cfba 2b39 7c2d 6bb8 ce30 12b9
000002a0: 2e7c 21b9 f877 4a38 5760 51b9 a2f7 8b38
000002b0: 62d8 8138 6220 9a38 fc93 be38 4cd2 0c3a
000002c0: 6144 143e ae50 4bbc 6e46 613f 0e5f 933f
000002d0: 17ac 0a3f a6c5 49bf be2e bcbe d902 54bd
000002e0: 7798 943f 164a 6f3f 5c6a 6c3f d746 8a3e
000002f0: 501f e43e fbc0 323e cf44 4939 326b 8ab8
00000300: 582f 43b8 92cb 9e38 2960 10b9 cfcc 28b9
00000310: ce36 20b9 5c2c e738 6637 1ab9 89e4 4539
00000320: 3090 a8b7 2d0c 48b9 991d 4339 0224 81b8
00000330: 29d4 2fb9 3660 1c39 62ae c238 0233 99b8
00000340: 32d5 bd38 9920 14b9 7c9d 123f 641c 383f
00000350: 29ff 18ba 7750 02be 4327 82be 2631 a0ba
00000360: f344 25bf 5fc3 3dbf 915e 69bf 4709 aabb
00000370: cbf8 8a38 e5cc df3a 6cc8 b2bc ac6b 8039
00000380: f011 473a 60a0 6437 d880 0d38 018a 4139
00000390: 9183 2cb9 4012 d436 42cd dcb8 a297 ed38
000003a0: 0c4c 97b8 9223 df38 5742 3839 c927 2339
000003b0: d150 4f39 318a 3339 8995 4839 29b4 0b39
000003c0: 78f9 3c38 52c8 bfb8 891d 08b9 89a1 26b9
000003d0: a21f beb8 589a 963f 7c72 823f 57f7 a03f
000003e0: faec 2abe 0632 6ebd 8ba5 29bd 3a46 20bd
000003f0: 315d febd 38cf 603b 3b07 a5bf 3a90 99bf

bias f4 [10]
0.03756143 -1.1024394 0.16177058 -0.50724053 0.19488028 -0.23631425 -0.22285073 -0.27087453
-0.31041995 -0.056659065
00000000: 04da 193d bc1c 8dbf 30a7 253e 84da 01bf
00000010: b28e 473e 5dfc 71be fb32 64be 11b0 8abe
00000020: 5def 9ebe 5613 68bd

weight f4 [15, 10]
-0.24780041 0.0007216257 1.5978264 0.0381443 -1.686923 -1.1833458 -1.0242132 -0.0020806754
1.1102475 -0.024026712 -0.0014998612 -0.0096479375 1.5640647 -0.0004895709 -1.1749291 -0.6026838
-0.8649707 -0.0009820766 1.7259196 -0.004211699 0.018096061 -0.009182868 0.7157979 -0.00040925754
-1.5862852 -1.2873486 -0.865652 0.0031882138 1.3302253 0.0009110411 -0.0017569428 -0.0013545015
-8.995127e-05 -0.32198775 1.5477992 -1.1165274 0.7618756 1.8430716 0.0009847565 -0.0011302019
0.000181884 0.0019338126 -0.42525432 7.04375e-05 1.4784977 -1.6067631 0.5813312 1.8144746
-0.00027364498 0.9623316 -0.00010393199 0.011184438 -0.19165048 -5.635229e-05 1.1349589 -1.8447069
0.31115797 1.4672735 0.00012934697 -0.0007141002 0.00016957535 -1.927634e-05 1.4086902 -0.62371916
-0.72610116 -0.4268785 0.000118834636 5.616012e-05 0.049330875 1.3166393 0.33079672 0.0006958288
1.2180452 -0.939434 -1.0485505 -0.6544292 0.00026844122 0.0021163863 0.21822576 0.45342398
-0.00052514445 0.002430287 1.7714777 -0.8798837 -0.6183449 -0.2649811 -1.3446232e-05 3.286259e-07
1.3689649e-05 0.65889156 2.6436648 -0.008597004 -0.006508737 1.923735 0.0014443895 0.724649
0.0007208243 1.1830033 -0.038445935 -0.00020355568 1.4664603 0.0003070561 -0.00057553087 2.0753136
-0.62107027 0.54351145 0.09941619 1.2417117 -0.45359698 0.00040007438 1.6006213 -0.026802273
-0.31549653 2.0750864 -1.069528 0.07021992 0.29121014 1.1472931 -0.6912681 -0.0011081297
0.9999049 0.004705762 1.31858 0.022781039 -0.23811522 7.709169e-05 0.00055082096 -0.13001154
-0.111655556 1.2139174 0.009410406 -0.0001526713 1.1394734 -0.0006720022 -0.83829993 9.346762e-05
0.0002829823 -0.0011806246 -0.00039304647 1.5630713 1.1435091 0.0003572731 1.4760677 -0.002111732
-0.18487185 -0.00022615388 -2.2589957e-06 -0.002072117 -0.06513188 0.66425943
00000000: 64bf 7dbe 7b2b 3d3a 9385 cc3f 333d 1c3d
00000010: 18ed d7bf e077 97bf 6b19 83bf f15b 08bb
00000020: 971c 8e3f abd3 c4bc fe96 c4ba 6212 1ebc
00000030: 4633 c83f 8c56 00ba 1464 96bf 7c49 1abf
00000040: b86e 5dbf 06b9 80ba efea dc3f 4b02 8abb
00000050: 313e 943c bd73 16bc 883e 373f 9e91 d6b9
00000060: 650b cbbf d7c7 a4bf 5f9b 5dbf 5af1 503b
00000070: d344 aa3f efd2 6e3a 3849 e6ba 8789 b1ba
00000080: 38a4 bcb8 94db a4be 491e c63f 5fea 8ebf
00000090: 480a 433f c5e9 eb3f f212 813a 4823 94ba
000000a0: 1db8 3e39 fc77 fd3a efba d9be d8b7 9338
000000b0: 6a3f bd3f 6aaa cdbf 1fd2 143f b440 e83f
000000c0: 0278 8fb9 5d5b 763f 10f6 d9b8 ef3e 373c
000000d0: 0640 44be d05b 6cb8 5546 913f 5b1f ecbf
000000e0: 1950 9f3e 9ecf bb3f 50a1 0739 7432 3bba
000000f0: 09d0 3139 a0b3 a1b7 f64f b43f 0fac 1fbf
00000100: c4e1 39bf d28f dabe dc36 f938 788d 6b38
00000110: 2c0f 4a3d a387 a83f 305e a93e 4868 363a
00000120: e8e8 9b3f bf7e 70bf e736 86bf ac88 27bf
00000130: 92bd 8c39 12b3 0a3b 9376 5f3e 3027 e83e
00000140: d9a9 09ba 7345 1f3b c8bf e23f 0f40 61bf
00000150: da4b 1ebf 9aab 87be 2097 61b7 006e b034
00000160: 98ac 6537 1ead 283f ce31 2940 73da 0cbc
00000170: 3e47 d5bb f33c f63f ab51 bd3a 9982 393f
00000180: b3f5 3c3a a76c 973f 7c79 1dbd 9071 55b9
00000190: f9b4 bb3f 5ffc a039 39df 16ba f0d1 0440
000001a0: 76fe 1ebf 9123 0b3f b79a cb3d 69f0 9e3f
000001b0: dd3d e8be 13c1 d139 29e1 cc3f 7190 dbbc
000001c0: c388 a1be 37ce 0440 4be6 88bf 76cf 8f3d
000001d0: 7f19 953e 80da 923f f2f6 30bf aa3e 91ba
000001e0: c4f9 7f3f cb32 9a3b 3bc7 a83f 4d9f ba3c
000001f0: 7ad4 73be 49ac a138 f864 103a bf21 05be
00000200: abab e4bd a561 9b3f 1b2e 1a3c 6416 20b9
00000210: 44da 913f 4e29 30ba d39a 56bf 0c04 c438
00000220: 3e5d 9439 30bf 9aba ce11 ceb9 b812 c83f
00000230: 825e 923f 6250 bb39 c9ef bc3f fc64 0abb
00000240: 0c4f 3dbe b823 6db9 4099 17b6 5bcc 07bb
00000250: dd63 85bd e80c 2a3f

bias f4 [15]
-0.0015665758 0.23670985 0.2418783 0.0015869641 -0.0031287894 -0.19307664 -0.5325151 -0.43892366
-0.4788691 1.297214 1.2574157 1.2341356 -0.30212048 0.00080130686 -0.38243756
00000000: 9055 cdba 1164 723e f2ae 773e ae01 d03a
00000010: 600c 4dbb e2b5 45be e952 08bf 9aba e0be
00000020: 552e f5be 1c0b a63f fff2 a03f 28f8 9d3f
00000030: 89af 9abe cb0e 523a dbce c3be
