Models/simulations/I-c/T_12_R_11_model.pt (torch, 4255 bytes, 4 tensors)

weight f4 [10, 35]
000000 95 eb 0c 3d c0 c0 0b ba 6a c5 d3 bb 6f fd e7 ba
       0.034404356 -0.0005331151 -0.0064627426 -0.001769943
000010 4e 7b cc 3d be f3 8b bb 78 18 83 3d 62 11 11 bb
       0.09984456 -0.0042709997 0.064011514 -0.0022135605
000020 78 e1 ed bd 55 9a 23 c0 e4 aa f2 bf 71 95 0f c0
       -0.116152704 -2.5562947 -1.8958402 -2.2434962
000030 25 8a 65 3c cd 05 c8 3e 40 d6 7b 3d 5d e7 24 39
       0.014009987 0.39066926 0.06148362 0.00015726448
000040 57 56 16 b9 9c 59 dc b8 91 01 29 39 6c 5c cb b8
       -0.00014337279 -0.000105071085 0.0001611768 -9.697009e-05
000050 6c 5c e2 b8 57 de 2b b9 f0 75 76 b7 48 8c fa b7
       -0.00010793735 -0.00016390659 -1.4690202e-05 -2.9867646e-05
000060 0c f4 8b 38 35 e2 3b b9 29 40 43 b9 d7 af 50 b9
       6.673494e-05 -0.00017917978 -0.0001862055 -0.00019901931
000070 52 04 c7 38 00 cf dc 35 99 a2 01 39 a2 3f a3 b8
       9.489864e-05 1.6451522e-06 0.00012362971 -7.784298e-05
000080 f9 c1 2e 39 6c 9b b3 38 ae ec e8 38 4e b5 88 bc
       0.00016666194 8.564335e-05 0.00011106707 -0.016688015
000090 72 c8 76 3e 83 22 b1 3e fd 53 d2 be 7a b0 c7 be
       0.24099901 0.34596643 -0.41079703 -0.39001828
0000a0 fe b6 8b be 2f 09 db bf 85 42 c2 bf 50 25 f5 bf
       -0.2728805 -1.7112178 -1.517655 -1.9152012
0000b0 91 21 45 3a 84 ae ff be 88 56 b5 bd d3 5f 8d be
       0.00075199554 -0.49937832 -0.08854395 -0.2761217
0000c0 35 1b ea be 86 1c 20 bf 5c 1a d3 b8 c8 a8 02 38
       -0.45723882 -0.62543523 -0.00010066174 3.1151605e-05
0000d0 d1 58 40 39 9c a9 dd 38 f2 e3 ee 38 10 aa 29 b7
       0.00018343634 0.000105696934 0.000113911825 -1.0112781e-05
0000e0 04 42 47 b8 2e 83 04 39 ae 24 b8 38 59 a6 16 39
       -4.750678e-05 0.00012637369 8.780636e-05 0.00014367084
0000f0 d1 cb 0c b9 f8 cf 00 b8 0c 10 bc 38 02 d4 c9 38
       -0.00013427368 -3.0711264e-05 8.9675275e-05 9.6239164e-05
000100 cc c2 d7 b8 b8 2c 4a b8 32 19 94 38 81 cd 01 b9
       -0.00010288283 -4.82022e-05 7.061883e-05 -0.00012378955
000110 6c 54 8c 38 cc 6e 93 38 e6 39 d2 3b 5c ae b6 39
       6.691445e-05 7.030144e-05 0.0064155934 0.00034843653
000120 ac 45 1a be b3 e8 99 bf 92 f2 94 bf ed 0f 77 bf
       -0.1506564 -1.2024139 -1.1636527 -0.96508676
000130 97 9a 37 3f 3f e2 25 3f 00 99 ca 3f f9 cd 48 3e
       0.7172026 0.6479835 1.5827942 0.19609822
000140 c8 1c 0b bf 2a fe df b9 ca cb 23 b9 ba 30 19 3a
       -0.5434079 -0.00042723241 -0.00015620809 0.00058437476
000150 7d 1c a5 bd 7c 6d 65 b8 57 06 2e 39 ae 8c d5 38
       -0.08062074 -5.469982e-05 0.00016596295 0.00010182835
000160 c9 c9 04 b9 f8 3a 93 b7 9c 69 dc b8 d7 f5 2e b9
       -0.00012663672 -1.7551225e-05 -0.00010510089 -0.00016685516
000170 05 6e 37 39 fe 15 0e 39 57 76 02 39 29 6e 50 b9
       0.00017493225 0.00013550368 0.00012441851 -0.00019877464
000180 20 03 7e 37 40 ea 30 36 81 0d 0d 39 31 f6 1b b9
       1.5140307e-05 2.6362395e-06 0.00013451838 -0.00014873665
000190 42 55 f1 b8 05 a8 2c 39 5e 96 19 b9 be 9e 8b b8
       -0.00011507656 0.0001646579 -0.00014647233 -6.6576045e-05
0001a0 36 f0 01 39 9c 33 44 b8 fe 77 11 3e 56 80 95 be
       0.00012391884 -4.6778106e-05 0.1420593 -0.29199475
0001b0 01 14 0f 3e a4 63 d9 bb 22 14 d8 39 dc cf 26 3c
       0.13972475 -0.0066341925 0.0004121373 0.0101813935
0001c0 58 a4 d4 bc 46 28 4e be 8f 5f 4c 3e b6 95 1b bb
       -0.025957271 -0.2013255 0.19958328 -0.0023740358
0001d0 d3 9b a0 bd b3 12 0a 3f 0d e9 20 3f 13 39 b2 ba
       -0.07842221 0.5393478 0.6285561 -0.0013597332
0001e0 12 0b d7 38 12 5f f6 b8 ac a7 fd 38 2e 6c 02 b9
       0.00010254061 -0.00011747902 0.000120952114 -0.00012438066
0001f0 f2 e7 ff 38 28 d7 02 38 29 d8 42 39 ac 93 9a b8
       0.00012202551 3.1194795e-05 0.00018581808 -7.370798e-05
000200 f9 ab 23 39 fc 33 fd 38 5f dd 42 b9 50 e4 ef 37
       0.00015608956 0.00012073663 -0.00018583749 2.8597336e-05
000210 f2 6b 92 b8 d1 db 2f 39 a1 6e 33 b9 81 44 1a 39
       -6.981929e-05 0.00016771189 -0.00017111983 0.00014712104
000220 30 70 c0 b7 22 c1 e1 b8 5f 7d 17 b9 01 92 0e 39
       -2.2940425e-05 -0.0001076481 -0.00014447187 0.00013596566
000230 a9 92 0d bf b5 bf 8a bb d0 fc 2d bf e1 ab f2 be
       -0.5530191 -0.004234279 -0.67963886 -0.47396758
000240 2c 14 8a 3b b3 dd ae be 36 d7 b7 3f cb 76 76 3f
       0.0042138305 -0.34153518 1.4362552 0.96275014
000250 e3 6b 14 3f 7d be 3b bb f0 a1 38 3a b9 db 55 be
       0.5797712 -0.0028647475 0.00070431735 -0.20884599
000260 5c d9 ff be db 3a b5 be 61 9d 94 bf 6c ec d3 b8
       -0.4997052 -0.35396466 -1.1610528 -0.00010105301
000270 20 8d 5e b7 d6 7b 14 39 c9 16 34 b9 01 be 46 b9
       -1.3265089e-05 0.00014160512 -0.00017174626 -0.00018953533
000280 02 bd dd b8 35 1c 34 b9 cc 9c 99 b8 9c bb bc 38
       -0.00010573307 -0.00017176646 -7.324814e-05 8.9994835e-05
000290 5d 4e 2f b9 92 d5 d8 b8 ae 90 c2 38 f9 9b 15 b9
       -0.00016718493 -0.00010339463 9.2775896e-05 -0.00014267852
0002a0 02 03 a0 b8 e4 1f 78 b8 98 fd 50 b8 fe 51 23 39
       -7.629955e-05 -5.9157508e-05 -4.9827242e-05 0.00015575436
0002b0 01 0a 0f b9 f9 4f 51 39 57 0e 22 b9 70 5c 48 b8
       -0.0001364127 0.00019961585 -0.00015454866 -4.7769805e-05
0002c0 2d 36 16 be 86 71 24 bb a0 55 0b bf f4 b4 8c be
       -0.14669104 -0.002509208 -0.5442753 -0.27481806
0002d0 33 72 1c bf 20 8b f4 39 b9 d3 6a 3a d4 70 d4 3d
       -0.61111754 0.00046642963 0.0008957941 0.10373083
0002e0 40 fe 5a bf dc 87 27 bf 13 8c c0 be de 7f e0 3f
       -0.85544205 -0.6544168 -0.37606868 1.7539022
0002f0 27 e4 eb 3f 79 e9 ec 3f ae 94 d4 38 48 ef 20 b8
       1.8429002 1.850875 0.000101366415 -3.836982e-05
000300 f0 d2 9f 37 02 b3 9f 38 12 73 e5 b8 bc 12 e9 38
       1.9052502e-05 7.6150536e-05 -0.000109410044 0.00011113795
000310 35 a0 32 39 66 38 06 39 92 0b a4 b8 89 99 26 b9
       0.00017035085 0.00012800246 -7.8222845e-05 -0.0001588819
000320 24 76 61 38 70 2e 8a b7 ce 00 22 b9 a8 f0 34 b8
       5.3754207e-05 -1.6472506e-05 -0.00015449824 -4.3139473e-05
000330 d1 7a 1d b9 90 d6 d5 37 62 40 8a b8 62 66 af 38
       -0.0001501844 2.5491492e-05 -6.592345e-05 8.3637206e-05
000340 f9 23 1b b9 02 d9 e6 b8 8c 7d e8 bf 44 30 fc bf
       -0.00014795353 -0.000110076755 -1.8163314 -1.970223
000350 c2 a3 b6 bf bf ed 68 3e 9d fe 51 3d 44 cc b2 3e
       -1.4268725 0.22746943 0.05126821 0.34921467
000360 14 98 eb be 01 8e 53 bf 27 1c 87 bf 94 87 ca 3d
       -0.46014464 -0.82638556 -1.0555466 0.09889141
000370 12 00 1d ba 5b 91 71 be 66 54 b8 3a 21 d7 33 3b
       -0.0005989085 -0.23590605 0.0014063239 0.002744146
000380 ba b3 c6 b9 f8 4f 21 b8 e4 ff 56 38 28 a7 09 38
       -0.0003789941 -3.8459868e-05 5.1259893e-05 3.281902e-05
000390 70 16 c2 b7 0c ec ca b8 f9 b9 38 39 29 92 16 39
       -2.313705e-05 -9.676078e-05 0.00017616888 0.00014359564
0003a0 89 a5 06 b9 a1 80 40 39 5f a3 22 b9 52 f4 a1 b8
       -0.00012840902 0.00018358465 -0.00015510384 -7.7225865e-05
0003b0 57 ca 36 b9 d8 28 02 b8 02 b4 82 38 06 1e 00 b9
       -0.0001743225 -3.1032454e-05 6.232412e-05 -0.00012218216
0003c0 9c 19 d9 38 99 84 1f b9 20 54 8e 36 f9 0b 45 b9
       0.000103521365 -0.00015212818 4.241723e-06 -0.00018791844
0003d0 29 5a 3d b9 19 6a 94 3f e2 28 91 3f 41 1b d8 3f
       -0.00018058032 1.1594878 1.1340601 1.6883317
0003e0 65 3b 06 bf 54 da 1f bf 66 21 40 bf 8b 55 65 3f
       -0.5243438 -0.6244252 -0.7505096 0.89583653
0003f0 0c 75 16 3f 7c 37 10 bb 54 b5 dd 3b d0 7d ed 3e
       0.5877235 -0.0022005728 0.0067660008 0.4638505

bias f4 [10]
000000 00 70 35 3f ba 7d 5b 3f d3 64 96 3e 8b dc 56 be
       0.70874023 0.8573872 0.29373798 -0.20982568
000010 bf 8b f6 3e d0 b3 f9 bd f9 d8 29 3f 2b 00 91 bf
       0.48153493 -0.121925 0.663467 -1.1328176
000020 ba 56 84 bf cd 24 83 bc
       -1.0338967 -0.016008759

weight f4 [15, 10]
000000 1c 03 a4 bf b6 4a ac bf 6a 17 2f 3a 9a de 88 bf
       -1.2813449 -1.34603 0.0006679209 -1.0692933
000010 db c1 5a 3f 81 ca 91 bd e6 63 1e bf 9c 4f 58 be
       0.8545205 -0.07118703 -0.6187118 -0.21124119
000020 dc 06 a1 3f a2 c9 f7 3a 24 0b 9e bf 37 8e b0 bf
       1.2580218 0.0018904696 -1.234715 -1.37934
000030 cf af 4b 3f 56 e5 20 3a a5 4e e9 3e bc 8e 16 bf
       0.7956514 0.00061376893 0.45567814 -0.58811545
000040 c9 85 99 bc 92 6e 55 bb b0 d0 d0 3f 77 aa f9 be
       -0.018740552 -0.0032567126 1.6313686 -0.48762867
000050 7a 70 c2 bf 51 ef ad bf 47 40 74 be 1b 01 85 ba
       -1.5190575 -1.3588659 -0.23852645 -0.0010147424
000060 20 89 9a 3f 77 f6 30 bd c8 d6 98 be e4 27 c9 bd
       1.2073097 -0.043203797 -0.29851365 -0.09822062
000070 de 25 94 3f 35 75 db bd 42 f9 b2 3d 0a 7e a7 be
       1.1574056 -0.10715715 0.087389484 -0.32713348
000080 48 8e 42 be 9a 4e e7 39 bb 52 27 be 36 42 b3 3f
       -0.18999588 0.00044118316 -0.16340153 1.4004581
000090 55 ba d9 bd 3d 83 ac be 78 43 ba 3f 5f 94 ed be
       -0.10631243 -0.33693877 1.455184 -0.4640226
0000a0 3d 49 5f 3e 24 f6 44 be 2c fb 96 be 14 27 9f 3e
       0.21805282 -0.1923452 -0.29488504 0.31084502
0000b0 bd 28 ac bf b8 6f 7c 3f 9b c3 7f 3e c2 4f 11 be
       -1.3449932 0.9860797 0.24976961 -0.14190581
0000c0 85 4e a8 3f 38 c7 de bd 2f 18 bf 3a b3 4b 24 be
       1.3148962 -0.10877842 0.0014579351 -0.16044502
0000d0 74 5d 20 3a 6e d4 22 3e a8 a9 3b be 97 93 73 3f
       0.0006117441 0.15901348 -0.18326437 0.9514708
0000e0 1d ec c2 3b 90 c2 26 be 4a 08 de 3f e6 1b 80 bf
       0.005948557 -0.16285157 1.734628 -1.0008514
0000f0 b4 04 73 bf b5 82 c9 3f 67 e6 cd bf 10 ca 2b ba
       -0.9492905 1.5743014 -1.6085938 -0.0006553242
000100 ea eb a6 be 97 63 50 bf 7f db d0 bf 9c 9a ff 3d
       -0.32601863 -0.8140196 -1.6316985 0.12480661
000110 3e a7 c9 3e e2 57 9e 3e c6 8e 84 bf b0 4f aa 3f
       0.39385408 0.30926424 -1.0356071 1.3305569
000120 bf 7b 76 bf 8a 1d 20 be 7d 8c 71 be bf b9 6b bf
       -0.9628257 -0.15636268 -0.23588748 -0.920803
000130 1d 31 cf bf 40 3e f3 3b e0 04 33 3f 76 a8 85 39
       -1.6186863 0.0074231923 0.69929314 0.0002549325
000140 9b 00 2d bf 42 d5 d4 3f b9 da 38 be d4 af 8e 3a
       -0.6757905 1.6627581 -0.18052186 0.0010886141
000150 35 00 a6 bf 83 0d e9 bf a9 8a a3 bf 77 bc a5 3e
       -1.2968813 -1.8207248 -1.2776691 0.3237035
000160 79 f0 42 3f 0e 37 05 ba e1 13 71 bf 4a 3d 8f bf
       0.7614818 -0.0005081751 -0.9417096 -1.1190579
000170 fd f3 79 3e d3 a1 11 3a b6 fc 71 3c 80 ac 0e b8
       0.2440948 0.0005555425 0.014769724 -3.401609e-05
000180 3a 82 84 bf ba 19 b8 3f d6 24 cd bf fd d5 6c ba
       -1.0352242 1.4382851 -1.6026866 -0.0009034572
000190 cb e6 89 bf e5 d7 07 bf 70 fb b1 3e e8 aa 17 3a
       -1.0773557 -0.53063804 0.34762144 0.000578566
0001a0 02 05 f6 3e a4 af cf 3a e8 a3 64 bf c0 fe d8 3f
       0.48050696 0.0015845192 -0.893126 1.6952744
0001b0 32 a6 ae bf 3f d3 6c bf 1b d4 a0 bf 4c 15 d1 be
       -1.3644469 -0.92509836 -1.256473 -0.4083656
0001c0 5e f7 2d 3f f0 0c d1 39 6a 9e 0c 3f 54 71 99 3e
       0.6795558 0.00039873226 0.5492922 0.29969275
0001d0 63 42 97 bf 4c d6 cd 3f cc ea 9f bf ef 24 9b ba
       -1.1817135 1.6081023 -1.2493529 -0.0011836569
0001e0 f7 cf 8d bf 9f f2 f7 3e 36 10 43 bf e3 5d 92 39
       -1.1079091 0.48427293 -0.7619661 0.0002791724
0001f0 76 c5 0b 3d 22 65 64 bf f5 e4 19 3f 4b 3e c3 ba
       0.03412386 -0.89216816 0.60114986 -0.0014895884
000200 92 5d cf 3e 24 96 bb 3f 6b 07 73 bf 21 1e 23 3f
       0.40501076 1.4655194 -0.94933194 0.6371785
000210 d2 e5 e5 be 0a 7f e8 b9 63 d7 46 3a c5 13 2b bf
       -0.449019 -0.0004434514 0.00075851957 -0.6682704
000220 aa 69 25 3f 76 9f 2f bb f9 84 30 3f 24 f5 b2 3f
       0.64614356 -0.0026797927 0.689529 1.3981061
000230 f4 c3 81 bf 59 80 81 3e 69 6a 58 be 05 95 7c b9
       -1.0137925 0.25293234 -0.21134342 -0.00024088107
000240 30 03 95 38 36 39 28 bf c1 19 79 3f 00 f1 01 be
       7.1054674e-05 -0.65712297 0.9730492 -0.1268959
000250 dc 6e 52 3f 27 ca 66 3f
       0.8220041 0.9015221

bias f4 [15]
000000 ed ae 38 3f 70 a1 53 3f d0 b7 54 3f 11 74 08 bb
       0.72141916 0.8266821 0.83092976 -0.0020821134
000010 4e 44 fa 3c 84 26 8a 3b 5f c6 65 bd 94 80 4b bb
       0.030550148 0.004216017 -0.056097385 -0.003105198
000020 7b ab 10 be 01 80 f1 3d 93 a0 1e bd 8b be 68 3e
       -0.14127915 0.11791993 -0.038727354 0.22728936
000030 8f 54 9d bf 9a 99 9d bf 45 14 88 bf
       -1.229143 -1.23125 -1.0631186
