Models/simulations/negativeInter/T_0_R_3_model.pt (torch, 3103 bytes, 4 tensors)

weight f4 [5, 30]
-1.2378753 -1.3779659 2.6904323 2.206523 -0.19298767 -0.111197874 -0.33076987 -0.2502048
0.6766643 0.91973174 -0.009695956 0.03130598 0.004717073 -0.0028756794 0.00027554925 9.245788e-05
0.00010644538 4.0308805e-08 -8.848544e-05 1.5226629e-05 -0.00016951626 0.0001382105 -0.00017621364 -8.440527e-05
8.896677e-05 2.7322763e-05 3.427951e-05 -0.00013601223 0.00019493992 0.00018373872 -4.9317954e-05 8.0078855e-05
0.00014290711 0.00011227734 0.00010654138 -0.00012947163 -0.00015017619 0.00011684968 -9.992509e-07 -0.00015280287
6.396168e-05 9.719664e-05 -0.000164426 -0.0002167389 0.00015680317 0.00010464167 2.0161388e-06 7.7208635e-05
0.00015742339 0.000100051504 -8.6202606e-05 -0.000116808355 -5.092287e-05 0.00017968637 -0.00017121735 -0.00016982235
3.9917868e-05 -0.0001821661 0.00012042782 0.00015825905 -0.07525651 0.0059663835 0.0065016816 -0.031970687
-0.9111766 -0.9871961 -1.063311 -1.1245482 1.3211187 1.6423874 0.34644368 0.058885086
-0.07016079 -0.26294547 4.8304442e-05 1.3118988e-05 -0.00017390998 -0.00019670861 -5.58919e-05 -8.892195e-05
-8.290321e-05 0.00018586904 -1.6028542e-05 4.053852e-05 0.00015475728 1.726675e-05 -0.00011473286 0.00010602981
-5.271283e-05 1.65409e-05 -1.4530014 -1.5403682 -0.057585772 0.016394317 0.8693857 0.9184355
0.7969395 0.97239196 0.9754247 1.1399194 -0.060817927 -0.11641706 0.022564484 0.01391653
0.0005092053 5.646987e-05 -0.00018086341 4.1876017e-05 -1.029906e-05 -4.6901492e-05 0.0001427337 8.235124e-05
2.8908864e-05 -0.00013330355 0.000102008824 0.0001558936 0.00012053481 -9.3907904e-05 4.4336062e-05 9.47175e-05
-0.00013690817 -3.840335e-05 -0.00019497491 -3.1613483e-05 -0.00016598284 -0.00016193009 3.180065e-05 -6.0197082e-05
-0.0001630257 0.00012719564 -1.4061719e-05 9.623007e-06 -0.0001468928 -0.00018436571 -2.024784e-05 0.00010564238
-0.00019705032 3.603335e-05 -7.116796e-05 -0.00012333457 3.3015007e-05 0.00011141425 7.622616e-05 1.7934159e-05
0.00018709253 -0.00016382722 0.00010287561 0.00013469192 -0.00019224042 -0.00013098968
00000000: b372 9ebf 3061 b0bf 0b30 2c40 ac37 0d40
00000010: 8f9e 45be b6bb e3bd ab5a a9be d81a 80be
00000020: df39 2d3f 8a73 6b3f c9db 1ebc b33a 003d
00000030: ad91 9a3b e575 3cbb 9877 9039 f2e5 c138
00000040: 6e3b df38 0020 2d33 4291 b9b8 e075 7f37
00000050: 2dc0 31b9 99ec 1039 fdc5 38b9 bc02 b1b8
00000060: ac93 ba38 3033 e537 58c7 0f38 819e 0eb9
00000070: c968 4c39 fda9 4039 c0da 4eb8 02f0 a738
00000080: 56d9 1539 7076 eb38 f86e df38 c7c2 07b9
00000090: 9d78 1db9 320d f538 001e 86b5 b539 20b9
000000a0: 2a23 8638 0cd6 cb38 c569 2cb9 6844 63b9
000000b0: 886b 2439 1273 db38 004d 0736 12eb a138
000000c0: 0512 2539 bed2 d138 acc7 b4b8 02f7 f4b8
000000d0: 0496 55b8 316a 3c39 cf88 33b9 5712 32b9
000000e0: 7c6d 2738 d703 3fb9 328e fc38 57f2 2539
000000f0: 1620 9abd a781 c33b 0f0c d53b b2f3 02bd
00000100: df42 69bf e2b8 7cbf 931a 88bf 32f1 8fbf
00000110: 6b1a a93f c039 d23f 1161 b13e 7d31 713d
00000120: 76b0 8fbd caa0 86be 809a 4a38 a019 5c37
00000130: 9b5b 36b9 9143 4eb9 786d 6ab8 9c7b bab8
00000140: 52dc adb8 d7e5 4239 0875 86b7 e807 2a38
00000150: 5746 2239 10d8 9037 bc9c f0b8 525c de38
00000160: f817 5db8 50c1 8a37 f3fb b9bf c92a c5bf
00000170: 0fdf 6bbd 604d 863c 1090 5e3f 971e 6b3f
00000180: 3a04 4c3f aeee 783f 6fb5 793f e1e8 913f
00000190: 381c 79bd 116c eebd 27d9 b83c 2802 643c
000001a0: 307c 053a 10da 6c38 27a6 3db9 08a4 2f38
000001b0: 20ca 2cb7 18b8 44b8 c9aa 1539 fcb3 ac38
000001c0: 5081 f237 66c7 0bb9 92ed d538 5f77 2339
000001d0: a2c7 fc38 6cf0 c4b8 7cf5 3938 12a3 c638
000001e0: 028f 0fb9 4813 21b8 2e72 4cb9 b898 04b8
000001f0: ae0b 2eb9 c7cb 29b9 b061 0538 207c 7cb8
00000200: e1f1 2ab9 d25f 0539 a0ea 6bb7 8072 2137
00000210: 3c07 1ab9 4b52 41b9 e8d9 a9b7 528c dd38
00000220: 4b9f 4eb9 8422 1738 0240 95b8 5f53 01b9
00000230: 9879 0a38 12a7 e938 9cdb 9f38 5071 9637
00000240: 452e 4439 09c9 2bb9 ecbe d738 163c 0d39
00000250: 2594 49b9 465a 09b9

bias f4 [5]
-0.44387752 -1.4254949 0.030581392 0.3226368 1.975285
00000000: ea43 e3be 9e76 b6bf d485 fa3c a730 a53e
00000010: 24d6 fc3f

weight f4 [10, 5]
-0.12593499 -0.008284569 -1.9588919 0.9807191 0.010514913 -0.33077353 -0.007012047 -1.9296279
0.8908734 0.010204073 -3.084284 0.06784423 0.34444714 -0.03933025 -0.168844 -2.8398147
0.06743952 0.19091752 -0.020807497 -0.113152474 -0.027768956 -0.061041128 0.35022256 -3.2477238
0.11768937 -0.10588096 -0.13780478 0.3399772 -3.2862232 0.07086586 0.88036 0.026280427
2.6105917 0.19793114 -0.03438211 0.565813 -0.011508562 2.7755089 0.077840984 0.022445614
-1.3730823 0.000630995 1.8335385 -0.00013624417 -0.0009089478 -1.1871662 0.0057139937 1.7401133
-0.0031051626 -0.019181108
00000000: 1af5 00be 00bc 07bc f8bc fabf 6810 7b3f
00000010: be46 2c3c 265b a9be 50c5 e5bb 0cfe f6bf
00000020: 4710 643f fc2e 273c e964 45c0 eaf1 8a3d
00000030: 605b b03e c218 21bd 71e5 2cbe 86bf 35c0
00000040: bb1d 8a3d e27f 433e 7c74 aabc 7cbc e7bd
00000050: b97b e3bc 4306 7abd 5f50 b33e b5da 4fc0
00000060: 2007 f13d 1ed8 d8bd b21c 0dbe 7e11 ae3e
00000070: 7b51 52c0 1f22 913d 465f 613f 0d4a d73c
00000080: ef13 2740 76ae 4a3e 41d4 0cbd 1fd9 103f
00000090: 688e 3cbc f0a1 3140 186b 9f3d dddf b73c
000000a0: 29c1 afbf 5c69 253a 64b1 ea3f c4dc 0eb9
000000b0: 7446 6eba 10f5 97bf 743c bb3b 08bc de3f
000000c0: fc7f 4bbb b321 9dbc

bias f4 [10]
0.7798302 0.85044867 -0.54145414 -0.43606955 1.3635138 1.4504178 -0.03770082 0.030179106
-0.8147682 -0.7341992
00000000: f4a2 473f 01b7 593f bd9c 0abf 8244 dfbe
00000010: 9f87 ae3f 4aa7 b93f 2d6c 1abd 2c3a f73c
00000020: a694 50bf 7bf4 3bbf
