Models/simulations/negativeInter/T_0_R_8_model.pt (torch, 3103 bytes, 4 tensors)

weight f4 [5, 30]
0.027463106 0.076651864 0.770399 0.76976156 -0.27033603 -0.20934425 -1.6822212 -1.60679
0.3949719 0.095739 -0.21673074 0.00033895625 0.07325603 0.011004132 -0.12392622 3.2650307e-05
2.376127e-05 0.000118415 3.465092e-05 -0.00013337111 0.00016534941 9.754066e-05 6.0654565e-05 0.00016260515
-9.0052155e-05 1.891519e-05 0.00012144436 -3.5398436e-05 -0.00012400138 9.328792e-05 -0.8868658 -0.84408087
-1.4717354 -1.4523274 0.15757036 0.21455038 -0.05189246 -0.29735285 0.85913324 0.82770866
0.16995838 0.14354686 -0.03458598 -0.010629198 -0.00010375881 5.672632e-05 0.0001654022 7.2070834e-05
1.7755956e-06 7.8359124e-05 -6.206568e-05 3.261931e-05 -9.965968e-05 -0.00012817173 -6.717954e-05 -0.00017969318
-0.00013949549 -5.251923e-05 0.00017063612 0.0001595423 0.0041575143 -0.0014079488 1.466074 0.92360693
0.5750062 1.1641749 -0.42967412 -0.21238461 -0.21572427 0.15012792 -0.7196739 0.009831551
-0.0035064532 0.0004159817 0.00014083448 0.00013322565 -0.0001124784 0.00018379914 0.00018031734 3.682301e-05
0.0001057959 0.00010183513 3.2397365e-06 4.304279e-05 0.000118097305 -0.000108990134 0.00017386801 -9.9278186e-05
0.00019239193 0.0001075708 0.9181393 1.2930132 -0.56953263 -0.3718242 0.009594373 -0.0018209348
-0.051985197 0.22308497 1.0459493 1.3428 -0.32458624 -0.15699115 0.031990916 0.030411417
0.00016406925 -0.00016276837 0.00019867865 5.4600852e-05 -0.00014063939 -0.00014668018 -7.6504046e-05 -0.00011291864
-7.3657706e-05 0.00018782228 0.00015947975 0.0001736954 -1.4281977e-05 -0.00014448912 9.092454e-05 -5.438774e-05
0.0018074977 -0.2540943 0.77102005 0.49242753 0.8090653 0.8612514 -0.5237933 -0.6549001
-0.029009469 0.00219526 0.26153377 -0.30565336 -0.16132116 0.0014315577 4.4263015e-05 -9.131369e-05
-0.00014934698 0.00018180239 3.7296937e-05 -0.00017959859 0.0001403523 0.00017614594 -0.00013779105 0.00013308461
0.00014190761 -0.00019917738 -0.00018581202 -0.00017467917 0.00012785396 6.438153e-05
00000000: 4ffa e03c a7fb 9c3d de38 453f 180f 453f
00000010: 7c69 8abe 575e 56be 0653 d7bf 4bab cdbf
00000020: c239 ca3e cf12 c43d aaee 5dbe f0b5 b139
00000030: 4207 963d ad4a 343c 08cd fdbd 00f2 0838
00000040: f052 c737 9255 f838 2456 1138 89d9 0bb9
00000050: a561 2d39 be8e cc38 5867 7e38 fd80 2a39
00000060: 62da bcb8 10ac 9e37 f2af fe38 c878 14b8
00000070: 5e06 02b9 92a3 c338 a309 63bf af15 58bf
00000080: d361 bcbf dde5 b9bf 205a 213e 18b3 5b3e
00000090: 308d 54bd a23e 98be 28f0 5b3f b7e4 533f
000000a0: 9209 2e3e f3fd 123e 07aa 0dbd 1626 2ebc
000000b0: 1699 d9b8 6ced 6d38 d16f 2d39 bc24 9738
000000c0: 0051 ee35 bc54 a438 4229 82b8 b8d0 0838
000000d0: 6200 d1b8 d665 06b9 bee2 8cb8 056c 3cb9
000000e0: 8945 12b9 1848 5cb8 c9ec 3239 cf4a 2739
000000f0: c23b 883b ec8a b8ba 50a8 bb3f 8171 6c3f
00000100: 9b33 133f af03 953f 3ffe dbbe 5a7b 59be
00000110: d3e6 5cbe 22bb 193e 8c3c 38bf 8414 213c
00000120: 86cc 65bb 1e18 da39 f8ac 1339 7db2 0b39
00000130: 62e2 ebb8 35ba 4039 9113 3d39 6872 1a38
00000140: bede dd38 5290 d538 406a 5936 d888 3438
00000150: 02ab f738 a291 e4b8 5750 3639 9233 d0b8
00000160: d1bc 4939 a297 e138 2d0b 6b3f 7581 a53f
00000170: e4cc 11bf be5f bebe b831 1d3c 6fac eeba
00000180: 6eee 54bd 6370 643e abe1 853f dfe0 ab3f
00000190: 2b30 a6be 4ac2 20be e808 033d 5d21 f93c
000001a0: 010a 2c39 cdac 2ab9 6554 5039 3803 6538
000001b0: 9978 13b9 29ce 19b9 cc70 a0b8 bcce ecb8
000001c0: ae78 9ab8 29f2 4439 053a 2739 0122 3639
000001d0: a09c 6fb7 0182 17b9 beae be38 641e 64b8
000001e0: 8fe9 ec3a a618 82be 9261 453f 761f fc3e
000001f0: e71e 4f3f f97a 5c3f 5117 06bf 88a7 27bf
00000200: 44a5 edbc 5ade 0f3b c1e7 853e 997e 9cbe
00000210: 6031 25be 1ba3 bb3a 0da7 3938 aa7f bfb8
00000220: 069a 1cb9 35a2 3e39 486f 1c38 a152 3cb9
00000230: 892b 1339 d1b3 3839 017c 10b9 a18c 0b39
00000240: 09cd 1439 45da 50b9 89d6 42b9 152a 37b9
00000250: 8910 0639 9204 8738

bias f4 [5]
0.18165174 -0.0049012606 -0.17225434 -0.1654239 -0.021494277
00000000: ea02 3a3e c19a a0bb 7163 30be e264 29be
00000010: c414 b0bc

weight f4 [10, 5]
-0.00051358645 1.2149411 -2.127376 -0.2277079 0.0005125982 -0.047716845 0.42558956 -1.7496088
-0.0006926672 -0.027503926 0.00028245122 2.7252495 -0.21383566 0.5289459 0.43493408 0.22996785
3.0095816 0.0026447782 0.0031658495 -0.0010486654 -2.6284933 -0.00025931 -1.2436568 0.25674877
-1.5458473 -1.7287885 -0.25520346 -1.6402743 -0.0012584665 -2.595148 1.3567501 -0.48282048
0.014022066 1.3431593 0.0003376599 0.6026781 -0.44257864 -0.00499463 1.3853769 -0.012714399
0.17773402 -0.5206183 0.08124604 -2.002621 0.42407322 0.36604115 -0.13194512 0.13237754
-2.3071108 0.61540556
00000000: 34a2 06ba 3183 9b3f ee26 08c0 422c 69be
00000010: e25f 063a bd72 43bd e0e6 d93e 2ef3 dfbf
00000020: 1c94 35ba ea4f e1bc f615 9439 7d6a 2e40
00000030: bcf7 5abe 0069 073f aeaf de3e b17c 6b3e
00000040: fc9c 4040 0454 2d3b 247a 4f3b 5f73 89ba
00000050: 3c39 28c0 00f4 87b9 2530 9fbf 9374 833e
00000060: 53de c5bf f148 ddbf 07aa 82be 82f4 d1bf
00000070: 21f3 a4ba e816 26c0 fda9 ad3f 3f34 f7be
00000080: cfbc 653c a5ec ab3f f207 b139 1d49 1a3f
00000090: ab99 e2be fea9 a3bb 0854 b13f 0e50 50bc
000000a0: e8ff 353e 3e47 05bf 5364 a63d f12a 00c0
000000b0: 2020 d93e bf69 bb3e 9f1c 07be fa8d 073e
000000c0: b4a7 13c0 388b 1d3f

bias f4 [10]
-1.2770178 -0.80013776 -0.0014282193 0.0018067686 0.19727792 0.0011811687 1.3363518 1.6841902
-0.29360265 -0.43861005
00000000: 5275 a3bf d4d5 4cbf 1633 bbba 18d1 ec3a
00000010: 3903 4a3e 72d1 9a3a 930d ab3f 8b93 d73f
00000020: 1653 96be 7f91 e0be
