Models/simulations/negativeInter/T_1_R_14_model.pt (torch, 3231 bytes, 4 tensors)

weight f4 [5, 35]
000000 c0 b3 b4 bf b9 96 ac bf d3 da c4 bf e2 05 e1 3b
       -1.4117355 -1.3483497 -1.537928 0.0068671564
000010 f3 0e 85 bd 00 e8 82 ba 40 4f 49 3f 50 f6 5a 3f
       -0.06496992 -0.0009987354 0.7863655 0.85532093
000020 4a 34 86 3f 97 81 b0 3f 5c c5 96 3f 01 39 8d 3f
       1.0484707 1.3789548 1.1778979 1.1033021
000030 31 40 85 3c 78 81 74 bb 5c 86 3b bb ae 39 42 bc
       0.01626596 -0.0037308615 -0.002861402 -0.011854572
000040 79 a4 b3 ba be dc c9 bd a0 6f e3 b9 ac e6 52 3a
       -0.0013705633 -0.09856556 -0.0004337998 0.0008045237
000050 64 fa 38 38 a1 56 16 39 d6 15 0b b9 a1 a8 07 39
       4.4102213e-05 0.00014337387 -0.00013264208 0.00012937422
000060 0c 4c 80 b8 66 cf 1c b9 c0 ff ce 36 f0 92 ae b7
       -6.1176805e-05 -0.00014954581 6.1690516e-06 -2.081084e-05
000070 5f dd 25 b9 24 86 29 b8 0c ec c2 38 84 22 60 b8
       -0.00015818093 -4.0417668e-05 9.294608e-05 -5.3437907e-05
000080 31 ae 2b b9 f9 e3 30 39 5e 82 21 b9 46 03 e1 be
       -0.00016372722 0.00016869594 -0.00015402722 -0.4394781
000090 3e 18 19 bf b2 7a e8 be 4e e6 d2 3f 35 1d c8 3f
       -0.59802616 -0.4540611 1.6476533 1.5633913
0000a0 13 41 ce 3f 8f f5 d6 3f c5 9d a4 3f 6d ee 86 3f
       1.6113609 1.6793689 1.2860647 1.0541512
0000b0 ab a2 18 be f4 f1 ef 3c c6 98 f5 3a b8 c0 e7 be
       -0.14905803 0.029290177 0.0018737547 -0.4526422
0000c0 76 48 d9 be 49 83 af be 47 11 9a be e1 ac a9 3b
       -0.42438096 -0.3427985 -0.30091307 0.0051780795
0000d0 d3 70 38 3e 48 15 51 be 7c 61 99 3d 22 87 ff 38
       0.18011789 -0.20418274 0.07489297 0.00012184518
0000e0 7c dd 3e b8 fd 3b 3d 39 cc 7e 95 b8 24 f6 43 38
       -4.5505803e-05 0.00018046792 -7.1284914e-05 4.672086e-05
0000f0 5c d8 d3 b8 d6 2b 1a 39 50 d1 f2 b7 e8 bf 1e 38
       -0.00010101564 0.00014702915 -2.8946117e-05 3.7848862e-05
000100 7c 7d 51 b8 fe d3 14 b9 02 24 c0 38 36 46 19 b9
       -4.994635e-05 -0.00014193353 9.1619804e-05 -0.00014617373
000110 62 68 c8 38 d7 2d 4b b9 db 52 c5 be 35 ac 54 bd
       9.556186e-05 -0.00019376665 -0.38539776 -0.051922042
000120 ac f4 db b9 ee d3 56 3f 87 8d 4b 3f 6b 0c 55 3f
       -0.0004195323 0.8391713 0.7951283 0.83222073
000130 7b 32 31 bf 77 c9 0b bf d5 40 00 bf 72 70 9a 3f
       -0.6921765 -0.54604286 -0.50098926 1.2065566
000140 e6 06 9c 3f 22 b9 b2 3f 36 f8 19 3c bc 87 51 3d
       1.2189605 1.3962748 0.009397557 0.051154837
000150 9f 5e c1 3d 18 df 07 be 51 a1 fb bd 90 6c 11 39
       0.09441876 -0.13268697 -0.12286628 0.0001386872
000160 b2 25 24 3d f3 97 0c 39 98 6c 7b b8 62 4c 89 b8
       0.04007501 0.00013408046 -5.99442e-05 -6.5468965e-05
000170 be 3e f7 38 35 42 47 39 50 e1 8a b7 6c 0c e6 38
       0.000117895645 0.00019002783 -1.6555801e-05 0.000109695684
000180 89 1a 24 39 a0 fc 61 37 ac 1f 9b b8 98 fd 69 38
       0.00015650144 1.3469864e-05 -7.396875e-05 5.5787707e-05
000190 f0 95 2c 37 c0 a8 b7 b6 20 53 0a 37 18 80 59 38
       1.0286909e-05 -5.47347e-06 8.244795e-06 5.185613e-05
0001a0 57 90 46 b9 a7 40 39 39 c2 e3 0a 39 7e 46 a3 b9
       -0.00018936522 0.0001766706 0.00013245552 -0.00031142303
0001b0 2e 35 70 3a 64 05 39 b9 58 04 81 39 e0 8b a1 bc
       0.0009163198 -0.00017644983 0.00024608034 -0.019720018
0001c0 57 4b 7a 3e fa 25 3b 3e 97 b1 2c 3e ee 8e 3f ba
       0.24442802 0.18276206 0.1686462 -0.000730737
0001d0 ef 76 40 b9 38 5b 1c ba 98 84 25 38 14 58 aa 3d
       -0.00018354853 -0.00059645204 3.9462553e-05 0.08317581
0001e0 18 4a 6f b9 18 d8 84 be ae 63 10 3b 46 7b 42 b8
       -0.00022820418 -0.25946116 0.002203207 -4.636801e-05
0001f0 17 34 55 39 40 8e dc 37 fe 43 13 b9 c0 95 71 36
       0.00020332668 2.6292284e-05 -0.00014044342 3.5998964e-06
000200 66 bf 22 b9 f8 5f 55 38 30 00 84 37 cf 30 4f 39
       -0.00015520825 5.0872535e-05 1.5735714e-05 0.00019759241
000210 78 29 1d b8 06 1a 1f 39 42 e1 ef 38 2d 1c 39 b9
       -3.7470338e-05 0.00015173116 0.000114383656 -0.00017653471
000220 42 e1 d7 b8 52 e8 d5 b8 58 cf 65 b8 30 db fd 37
       -0.000102939564 -0.000101999045 -5.479096e-05 3.0262017e-05
000230 17 ed 3c 3f 2c 81 14 3f 8a d0 16 3f 6e 08 ea 39
       0.7379927 0.580096 0.58911955 0.0004463824
000240 ac 7f cf 3c 80 c3 0b 3e 24 83 c0 be 52 8e ee be
       0.025329433 0.13648796 -0.37600052 -0.46592957
000250 70 55 d9 be fa c1 48 be d1 57 d9 bd 5f 1f 59 bc
       -0.42447996 -0.19605246 -0.10612453 -0.013252108
000260 dd b2 97 3f fa 31 63 3f 3c 43 86 3f 5d 58 07 bf
       1.185146 0.88748133 1.0489268 -0.52869207
000270 02 7c 21 be b9 52 5c 3e 42 1d 78 3e 08 75 34 b8
       -0.15769961 0.21515931 0.24229911 -4.3024338e-05
000280 ba cb a9 b8 19 a4 43 39 b9 2b 1b b9 2c 0c a9 b8
       -8.096495e-05 0.0001865778 -0.0001479824 -8.060815e-05
000290 e5 23 35 b9 18 59 72 38 19 ce 08 39 60 a1 03 37
       -0.00017274877 5.778027e-05 0.00013046748 7.8457815e-06
0002a0 2c 24 b3 38 d8 0d 66 b8 56 ba 01 b9 18 0b 07 b8
       8.542123e-05 -5.4849166e-05 -0.00012371814 -3.219684e-05
0002b0 cc 1b db b8 5c 26 5b b8 58 88 57 b8
       -0.00010447911 -5.2249394e-05 -5.1386975e-05

bias f4 [5]
000000 95 e6 1d 3e f6 0f 08 bf 4d 39 3b be 15 6b 6f 3b
       0.15419991 -0.53149354 -0.18283577 0.0036532332
000010 ef 68 86 bd
       -0.06562983

weight f4 [15, 5]
000000 4e d7 16 3f e5 3f a8 3f 89 66 3f 3f 81 aa 15 3f
       0.5892228 1.3144499 0.7476583 0.58463293
000010 b2 e5 7b 3c b3 f8 33 3f 16 c7 b8 3f d7 d1 43 3f
       0.015374588 0.7030136 1.4435756 0.76492065
000020 3f f7 15 ba 14 31 a7 3d 63 2e 1d 3f bf c7 94 3f
       -0.00057207415 0.08163658 0.61398906 1.1623458
000030 a7 b1 31 3f 58 eb 0a b9 29 00 1b 3c cc 7e c2 bf
       0.694117 -0.00013248378 0.009460487 -1.5194945
000040 6b cc f1 bf 47 86 18 3e ca 7e 31 3c 41 a2 fe 3f
       -1.8890508 0.14894973 0.0108334515 1.9893266
000050 81 9b be bf c2 ab 07 c0 49 9e 98 bd 24 14 a6 b9
       -1.4891206 -2.1198583 -0.074520655 -0.00031676993
000060 96 82 06 40 99 59 03 c0 c6 2a fc bf ee 19 6c 3a
       2.1017203 -2.0523436 -1.9700553 0.00090065494
000070 9e ac ee 39 bc 8d ee 3f ea a4 7b 3e 3c 69 dc bf
       0.00045523507 1.8637004 0.24574628 -1.7219615
000080 8e c3 b4 3f 70 24 b1 38 0a 24 b8 bf 86 88 b1 39
       1.4122179 8.446805e-05 -1.4385998 0.0003386179
000090 a2 d7 8a bf 69 5c 7f 3f 92 b6 62 b9 ec d0 74 bf
       -1.0847056 0.9975038 -0.00021621052 -0.9563129
0000a0 74 0b 19 3e fd 36 c5 bf 27 89 b7 3f 4d 9e 87 b9
       0.14945775 -1.5407406 1.433873 -0.0002586715
0000b0 90 28 87 bf ec 45 01 bf 69 66 09 bf 20 4c a2 bf
       -1.0559254 -0.5049732 -0.5367189 -1.2679482
0000c0 fe 5b 89 b8 30 2d 2f b8 01 08 65 bf 1d 27 3c bf
       -6.549804e-05 -4.1765335e-05 -0.8946534 -0.7349718
0000d0 fb 0c c3 bf 18 7b 87 b8 a0 26 cd b7 da 04 9f bf
       -1.5238336 -6.4602296e-05 -2.445589e-05 -1.2423356
0000e0 3a ce 35 bf 44 ae a5 bf 5f b0 50 39 8a 8f a5 bc
       -0.710178 -1.2943807 0.00019902129 -0.020210046
0000f0 22 d8 a9 3c f6 3e 76 3f cc 8f d2 be ae 41 28 b8
       0.020732943 0.9618982 -0.41125333 -4.011549e-05
000100 f1 72 b3 bf 96 2e 35 3b 1e cc 5e 3f de 38 4f bf
       -1.4019452 0.0027646176 0.8703021 -0.8094615
000110 18 26 75 b7 ec a8 d9 bf f2 86 a2 3a e4 34 55 3f
       -1.4612007e-05 -1.7004676 0.0012399836 0.8328383
000120 56 5f 9f bf d0 c1 72 3e 02 13 a4 bf
       -1.2450969 0.23706746 -1.2818301

bias f4 [15]
000000 75 1e bb 3f 3b bf 9f 3f 04 cc b1 3f 7c 25 b6 3e
       1.461867 1.2480234 1.3890386 0.35575473
000010 d9 14 b4 3e 43 b9 d3 3e 72 45 88 bf c0 dc bf be
       0.35172155 0.4135228 -1.0646193 -0.37473106
000020 a1 93 48 bf af ba 4e be 94 63 95 be 63 f7 ac be
       -0.78350264 -0.20188402 -0.29177535 -0.3378249
000030 a3 f7 22 3d 03 d3 79 bd 37 f7 19 bb
       0.039786946 -0.060992252 -0.0023493299
