Models/simulations/negativeInter/T_1_R_8_model.pt (torch, 3231 bytes, 4 tensors)

weight f4 [5, 35]
-1.1149993 -1.5241683 -1.7610418 0.72950506 0.6860639 0.9783899 0.23105587 0.24628316
0.20851867 0.1527706 0.20993564 0.1820638 -1.2507342 -1.1484854 -1.2203889 0.012378144
-0.10119573 0.11614253 -0.025570301 0.00054718467 -3.5343015e-05 -0.00014238743 -0.00015683247 -3.4000055e-05
6.4433334e-05 0.00012053676 0.00016498555 -4.9783048e-05 -0.00010632489 -8.6678556e-05 -0.00016883366 -8.498797e-05
-0.0001609692 0.000113144604 -1.925297e-05 -0.0023466146 0.05121093 0.009084757 0.454508 0.57555807
0.3701108 0.67799425 0.7316238 0.6039183 -1.67647 -1.2255837 -1.3088303 -0.22615467
-0.39362133 -0.1923269 -0.03590381 0.16938393 -0.006130273 0.1632621 -0.00030868762 -0.000102973965
-0.0001154825 3.8966245e-06 -0.00019039448 0.00018980193 -9.2786475e-05 0.00015876816 3.078647e-05 -0.00019950427
-0.00013277495 -6.5258835e-05 8.4554296e-05 1.5986705e-05 -0.00014176955 -6.633374e-06 -0.12777886 -0.01930027
-0.2789912 -0.33590767 -0.5095598 -0.11714753 -0.0988093 -0.315842 0.041956346 -0.90124714
-0.8844532 -0.85631853 0.888378 0.8658566 0.7348919 1.0606219 0.2575044 -0.20085743
-1.268953 0.00070878456 2.3917484e-05 0.00019888418 0.0001457953 -0.00013822396 9.354613e-05 -2.699488e-05
-0.00018887142 1.9431784e-05 0.00016453794 -0.00018630917 -0.00010363523 -5.833876e-05 6.300138e-05 0.00016010542
-0.00015439153 -0.4450086 -0.6284067 -0.46109658 0.93913835 0.8775526 1.0124048 -1.3267916
-1.3353056 -1.171928 -0.006405476 -0.0032259552 -0.015599151 0.80471885 0.70821244 0.8051412
-0.0012239807 0.0042316844 0.031166492 0.06700875 -0.065878786 -2.6563008e-05 5.7674843e-05 -6.3559404e-05
-0.00019097455 -3.7467136e-05 7.060614e-05 0.00012633331 0.00013988544 4.4000073e-05 4.6081856e-05 0.00013567439
9.95719e-05 -4.917149e-05 9.039798e-05 -9.145508e-05 -0.00011824374 -0.00011734803 -0.00013843398 -2.2752516e-05
-2.9789924e-05 9.711385e-05 -0.00013272079 7.87115e-05 -0.0001843101 0.00014675147 0.00010740035 0.00012398245
-0.00013097799 -4.285935e-05 0.00015655033 -7.447152e-05 0.13218825 -0.00019876308 6.368144e-05 -6.138896e-05
-0.00014887279 4.9331284e-06 0.00014533065 4.9523864e-05 5.96397e-05 7.985634e-05 1.2889883e-05 -0.00014298609
-0.00012623415 0.00016188419 -0.00010711806 -0.0001905042 7.095834e-06 -0.00010510636 -0.00014425897
00000000: 4cb8 8ebf f217 c3bf d169 e1bf d8c0 3a3f
00000010: e2a1 2f3f c377 7a3f e999 6c3e a731 7c3e
00000020: eb85 553e e56f 1c3e 5ef9 563e ef6e 3a3e
00000030: 0f18 a0bf 9201 93bf b435 9cbf b3cd 4a3c
00000040: b53f cfbd 23dc ed3d cf78 d1bc f170 0f3a
00000050: 463d 14b8 d64d 15b9 6573 24b9 489b 0eb8
00000060: 6220 8738 aec8 fc38 f9ff 2c39 24ce 50b8
00000070: befa deb8 32c7 b5b8 f108 31b9 923b b2b8
00000080: d7c9 28b9 0c48 ed38 7081 a1b7 a9c9 19bb
00000090: 8dc2 513d 3cd8 143c 46b5 e83e c657 133f
000000a0: 2a7f bd3e 0891 2d3f b34b 3b3f 649a 1a3f
000000b0: 9296 d6bf eddf 9cbf c087 a7bf 1795 67be
000000c0: bc88 c9be 58f1 44be e00f 13bd fb72 2d3e
000000d0: 75e0 c8bb 2e2e 273e 5ad7 a1b9 baf3 d7b8
000000e0: 322f f2b8 c0bf 8236 a1a4 47b9 9105 4739
000000f0: 5c96 c2b8 017b 2639 b820 0138 0532 51b9
00000100: 8139 0bb9 92db 88b8 be52 b138 301b 8637
00000110: f9a7 14b9 4094 deb6 76d8 02be 9a1b 9ebc
00000120: efd7 8ebe 17fc abbe 8372 02bf 0beb efbd
00000130: 885c cabd 0bb6 a1be 6bda 2b3d 22b8 66bf
00000140: 866b 62bf b137 5bbf be6c 633f c7a8 5d3f
00000150: e021 3c3f 75c2 873f 9ed7 833e 92ad 4dbe
00000160: 0d6d a2bf bacd 393a 68a2 c837 918b 5039
00000170: a1e0 1839 36f0 10b9 322e c438 1073 e2b7
00000180: c90b 46b9 7001 a337 d187 2c39 fd5b 43b9
00000190: be56 d9b8 c4b0 74b8 9c1f 8438 f9e1 2739
000001a0: 29e4 21b9 2bd8 e3be 43df 20bf da14 ecbe
000001b0: 5f6b 703f 4aa7 603f 7b96 813f 4fd4 a9bf
000001c0: 4beb aabf bd01 96bf 07e5 d1bb 8c6a 53bb
000001d0: 9593 7fbc 0e02 4e3f 694d 353f bc1d 4e3f
000001e0: fa6d a0ba f1a9 8a3b df50 ff3c e23b 893d
000001f0: 75eb 86bd a0d3 deb7 e4e7 7138 324b 85b8
00000200: 5740 48b9 0826 1db8 6212 9438 5778 0439
00000210: 36ae 1239 b88c 3838 0448 4138 d143 0e39
00000220: 42d1 d038 7c3d 4eb8 0c94 bd38 92cb bfb8
00000230: a0f9 f7b8 be18 f6b8 9728 11b9 a8dc beb7
00000240: 60e5 f9b7 9aa9 cb38 f72a 0bb9 ea11 a538
00000250: 5e43 41b9 4ce1 1939 203c e138 4901 0239
00000260: 2357 09b9 e0c3 33b8 a927 2439 982d 9cb8
00000270: 5b5c 073e 0f6b 50b9 b68c 8538 f2bd 80b8
00000280: bc1a 1cb9 4087 a536 e663 1839 d8b7 4f38
00000290: a425 7a38 8c78 a738 a041 5837 89ee 15b9
000002a0: b95d 04b9 75bf 2939 92a4 e0b8 15c2 47b9
000002b0: c018 ee36 8c6c dcb8 3944 17b9

bias f4 [5]
0.3041316 0.024780018 -0.51807135 0.03719519 3.0050979
00000000: 23b7 9b3e 77ff ca3c 53a0 04bf fc59 183d
00000010: 8653 4040

weight f4 [15, 5]
0.18065827 -1.0544958 -0.94099826 2.182746 0.030987132 0.5256699 -1.4151028 -0.5873504
2.2061348 0.008786485 0.2410958 -1.5384218 -0.54795736 2.2942114 0.020158112 -2.4913936
0.18613829 1.9089979 1.3860575 0.0022557534 -2.5232093 -0.0012222545 1.935067 1.4448036
-0.0039219665 -2.294048 -0.00040329664 2.2376068 1.4055586 -0.03565819 0.001965026 0.04959575
1.1390052 0.000100687525 -0.004592508 0.33149567 0.00010332193 1.3868438 -0.00018851948 -0.035645433
0.004046482 0.303708 1.0502834 0.00015131442 -0.0010666468 1.0083172 2.5149066 0.0016156203
-0.5293027 0.053177632 1.2993366 2.2233326 -0.1387369 -0.49614087 -0.008640469 1.6596806
2.042781 -0.1431154 -0.63091975 -0.005228551 0.00046406698 -1.474851 -0.421707 -3.1149595
0.039095763 -0.11482744 -1.0696124 -0.814001 -2.7861643 0.05784841 0.012162608 -1.3273165
-0.73444396 -2.7482982 0.031345956
00000000: 7bfe 383e b8f9 86bf 43e5 70bf 1cb2 0b40
00000010: bad8 fd3c 4d92 063f 1722 b5bf 995c 16bf
00000020: 5031 0d40 30f5 0f3c d1e1 763e 01eb c4bf
00000030: ef46 0cbf 5cd4 1240 a022 a53c fe72 1fc0
00000040: 099b 3e3e 0b5a f43f 556a b13f 43d5 133b
00000050: 437c 21c0 0e34 a0ba 47b0 f73f 53ef b83f
00000060: d783 80bb afd1 12c0 8f71 d3b9 f334 0f40
00000070: 58e9 b33f 520e 12bd aac7 003b ea24 4b3d
00000080: ecca 913f 3428 d338 c07c 96bb cdb9 a93e
00000090: 8aae d838 1984 b13f 50ad 45b9 f200 12bd
000000a0: 5a98 843b 9d7f 9b3e b06f 863f 28aa 1e39
000000b0: bace 8bba 8a10 813f 3bf4 2040 39c3 d33a
000000c0: 6280 07bf cad0 593d a950 a63f 154b 0e40
000000d0: 0c11 0ebe 2d06 febe c190 0dbc 6a70 d43f
000000e0: edbc 0240 d88c 12be f583 21bf 4454 abbb
000000f0: 044e f339 ebc7 bcbf fbe9 d7be 7f5b 47c0
00000100: e122 203d a62a ebbd 0fe9 88bf 5f62 50bf
00000110: 8450 32c0 74f2 6c3d ad45 473c 82e5 a9bf
00000120: 8504 3cbf 1ee4 2fc0 9e64 003d

bias f4 [15]
0.37672144 0.3021323 0.4785115 0.0022432115 -0.26451808 -0.14379857 -0.48582473 -0.6815321
-0.37153164 0.053316638 -0.008305825 -0.005452959 0.5197061 0.6137706 0.5391841
00000000: a2e1 c03e 16b1 9a3e 76ff f43e d802 133b
00000010: ea6e 87be ef3f 13be 05be f8be e378 2ebf
00000020: 6539 bebe 8c62 5a3d 2815 08bc bcae b2bb
00000030: 750b 053f 1220 1d3f f807 0a3f
