Models/simulations/negativeInter/T_1_R_12_model.pt (torch, 3231 bytes, 4 tensors)

weight f4 [5, 35]
000000 6d da 07 bf 57 38 aa be 28 ed 08 bf 54 cc 19 3e
       -0.53067666 -0.3324611 -0.5348687 0.15019351
000010 a6 86 0a bc 3a df 3b 3e b4 ac 9b 3f 8b e9 26 3f
       -0.008454954 0.18346873 1.216208 0.6520011
000020 ad b0 41 3f 87 38 f1 bf 68 f5 03 c0 c6 a4 f1 bf
       0.7566021 -1.8845376 -2.0618534 -1.887841
000030 39 e6 1a 3d 29 96 7d be ff e7 07 ba d1 98 c4 3c
       0.037817214 -0.24764313 -0.00051844114 0.02399865
000040 42 8f e3 3b 71 44 23 3e 7d 41 ad be a5 27 67 be
       0.006944568 0.15944077 -0.33839026 -0.22573717
000050 80 08 c0 37 d3 bf 0e 39 2e 62 21 39 66 17 11 39
       2.2892142e-05 0.00013613635 0.00015390731 0.00013836994
000060 99 1a 25 39 84 43 34 b8 5d 39 41 b9 5f c7 3a 39
       0.00015745535 -4.2978223e-05 -0.00018427284 0.00017812614
000070 ce 04 01 39 5e 4a 1c 39 57 6c 2d b9 36 60 14 39
       0.00012304189 0.00014905023 -0.00016538925 0.00014150221
000080 2d 36 34 39 42 55 e8 b8 f2 8b 98 b8 b0 ee 05 bf
       0.0001718632 -0.000110785026 -7.273992e-05 -0.52317333
000090 f2 0f cb be b7 e8 e4 be 85 af 3c 3f 77 83 3d 3f
       -0.39660603 -0.44708797 0.7370532 0.74028724
0000a0 c4 6d 23 3f 8e b3 32 3f 1c 00 7f 3f 0d 49 7d 3f
       0.63839364 0.6980523 0.9960954 0.9893959
0000b0 1a e1 64 3f 6e e6 2c 3f 53 5a 56 3f d4 c7 82 bf
       0.8940598 0.6753911 0.83731574 -1.0217233
0000c0 ee fd 8d bf c6 e2 89 bf 10 c4 a9 3c 12 88 d8 bd
       -1.1093118 -1.0772331 0.020723373 -0.10572828
0000d0 3b f9 6a bd ab 04 92 3b 80 a8 86 b8 b7 f6 47 b9
       -0.05736659 0.004456123 -6.4210035e-05 -0.00019070027
0000e0 ca 79 4f 39 b0 a1 83 37 cc 36 f5 b8 ec 26 c3 b8
       0.00019786428 1.5691709e-05 -0.00011692717 -9.305574e-05
0000f0 52 88 c4 b8 6c a4 8e 38 80 2b 80 35 a2 17 e5 38
       -9.3714e-05 6.8017136e-05 9.549403e-07 0.00010923973
000100 d7 eb 38 39 c0 79 f3 36 9c c7 c0 b8 31 39 43 39
       0.00017635465 7.256138e-06 -9.1924536e-05 0.00018617955
000110 58 57 67 38 c9 d6 33 b9 ca 4b 60 3f 87 44 50 3f
       5.5156037e-05 -0.00017150784 0.87615645 0.81354564
000120 a7 56 6a 3f 08 84 94 3f 1d 6e 62 3f be b4 5f 3f
       0.9153847 1.1602793 0.8844927 0.87385166
000130 18 bf 5e bf eb d8 90 bf af cf 88 bf da d5 1a b9
       -0.87010336 -1.1316198 -1.068838 -0.0001476625
000140 3a b9 7c 39 f8 59 59 3b 52 60 7b bf 5d 99 4b bf
       0.00024101595 0.0033165198 -0.9819385 -0.7953089
000150 a1 57 91 bf e4 f2 ba bc 3d bc 48 3c 8f a3 04 3e
       -1.1354867 -0.022820897 0.012251911 0.12953018
000160 2a dd ca bc c6 62 c0 39 c2 92 51 38 35 d6 42 b9
       -0.024763662 0.00036694686 4.9966162e-05 -0.0001858108
000170 fd 53 2f b9 be de 91 38 99 ab 4c b9 ce c8 09 39
       -0.00016720589 6.955628e-05 -0.00019518881 0.00013140144
000180 5c 31 1d 38 a4 c8 7f b8 fc 59 81 b8 d1 64 4d 39
       3.7477686e-05 -6.09836e-05 -6.16796e-05 0.0001958788
000190 e8 8f 27 b8 91 b5 3a 39 01 27 1b 39 be 26 ef b8
       -3.9949926e-05 0.00017805981 0.00014796482 -0.000114036244
0001a0 b0 ce e6 b7 34 66 1f 3f fe 3f 98 3e 64 c4 92 3e
       -2.7514383e-05 0.62265325 0.29736322 0.2866546
0001b0 9c 4b 95 bf 39 5d b4 bf 05 6d 9b bf b1 59 40 3e
       -1.1663699 -1.4090949 -1.2142645 0.18784215
0001c0 e8 be 19 3f 27 00 ca 3e 8c be c1 38 e8 62 26 b9
       0.60056925 0.3945324 9.238449e-05 -0.00015867839
0001d0 d8 5a a3 3d ba a5 eb bd c5 af 29 ba d0 e4 fa be
       0.079763114 -0.11506219 -0.000647303 -0.49002695
0001e0 6a 60 c2 bd 84 ec b6 bb 36 23 c1 3d 06 22 01 3a
       -0.09491046 -0.005582394 0.09430544 0.00049260294
0001f0 0d fc 11 39 ea e1 9c b9 f6 6c 19 39 6c 68 8c 38
       0.00013922174 -0.00029922958 0.00014631808 6.69517e-05
000200 02 55 b3 38 a1 82 18 b9 99 cc 40 39 b8 a2 a7 37
       8.551219e-05 -0.00014544513 0.00018386765 1.9983723e-05
000210 f9 5b 46 b9 78 59 7c 38 cc 0e 9f 38 d7 29 47 39
       -0.00018917014 6.0164806e-05 7.584467e-05 0.00018993705
000220 18 58 2f b8 fd 4f 30 39 bc a4 8a b8 e4 1f 69 b8
       -4.1805295e-05 0.00016814466 -6.611037e-05 -5.558123e-05
000230 5c 2d ac 3f de 06 b3 3f 59 8a ab 3f 7f f6 1a be
       1.3451343 1.3986471 1.3401595 -0.15133093
000240 be 65 57 3e 8c ed ec bd 54 f6 f1 ba 43 25 fc 3e
       0.21034905 -0.11568746 -0.0018460252 0.49247178
000250 0b f8 ed 3e 83 17 a6 ba fc 3e 91 b9 f7 4a d8 be
       0.46478304 -0.0012671802 -0.00027703482 -0.42244694
000260 27 db 67 bf ad 6a 2a bf 0f 73 c3 be 91 0c af 3a
       -0.90568775 -0.66569024 -0.3817372 0.0013355186
000270 b2 92 ee 3a b4 c0 91 be 4a a3 20 39 7a 97 08 39
       0.0018201678 -0.28467333 0.00015319619 0.000130264
000280 58 54 e0 b7 c6 64 e3 38 72 ec f8 b8 ec 66 d3 b8
       -2.6742156e-05 0.00010842974 -0.00011869603 -0.00010080435
000290 a4 55 2f b8 45 06 26 b9 30 21 9d 37 19 aa 32 b9
       -4.180301e-05 -0.00015833329 1.8731313e-05 -0.00017038769
0002a0 89 49 1d b9 72 90 bd 38 69 09 4e b9 92 e8 f9 b8
       -0.00015000081 9.039127e-05 -0.00019649196 -0.00011916565
0002b0 b9 de 44 39 72 d0 88 b8 d0 b1 ae b7
       0.00018774987 -6.523811e-05 -2.0825217e-05

bias f4 [5]
000000 a0 3a cc be ae ae 66 be a6 81 c9 3d 50 42 d8 3e
       -0.39888477 -0.22527573 0.098391816 0.42238092
000010 0a 1f c1 be
       -0.37718993

weight f4 [15, 5]
000000 5c 36 6b b9 93 0e 3d 40 70 5d 94 bd 23 ec 8d bf
       -0.00022431597 2.9540145 -0.07244384 -1.1087688
000010 81 12 70 be 23 9c 08 3e d5 d8 4b 40 8f 5b 0c 3d
       -0.23444559 0.13340811 3.1851094 0.034267005
000020 25 f0 3c bf 9c 92 03 bf bc e3 39 3e fc 1e 5d 40
       -0.7380393 -0.51395583 0.1815328 3.4550161
000030 d1 fd 03 3e 3e bd 99 be f7 19 8e bf 93 c3 21 3f
       0.12889792 -0.30027193 -1.1101674 0.6318905
000040 12 98 82 bf fa 5a 31 c0 1f 5e 03 ba d7 e5 b2 bc
       -1.0202658 -2.7711778 -0.00050112786 -0.021838112
000050 80 0c 53 37 39 95 21 bf 8b 32 36 c0 2e d5 d2 3a
       1.257949e-05 -0.6311832 -2.846835 0.0016085261
000060 ea 10 88 bc da 84 b6 39 ed 39 e9 be f2 56 36 c0
       -0.016609628 0.00034812727 -0.45552006 -2.8490567
000070 59 d8 9a 3d 45 4d b3 ba 6f 18 94 bf 27 7d e1 be
       0.07560796 -0.0013679644 -1.1569957 -0.44040796
000080 b9 09 82 3f 2a 44 03 c0 f2 ea 4d 3a e0 37 62 bf
       1.0159217 -2.0510354 0.0007855139 -0.8836651
000090 be 76 47 bf 1b 45 9c 3f 3d ab ec bf 3f db 8c bd
       -0.7791556 1.2208589 -1.8489758 -0.068777554
0000a0 c6 1f 1f bf ca dc 07 bf ce 46 ba 3f 34 fd d5 bf
       -0.6215786 -0.5307127 1.4552858 -1.6717896
0000b0 fe 40 76 be a2 38 28 bf c9 2a 98 bf 00 d3 ac bf
       -0.2404823 -0.65711415 -1.1888057 -1.3501892
0000c0 ec 58 b6 3c b4 58 42 bf 18 91 41 bf 22 cc 73 bf
       0.022259198 -0.759166 -0.7561202 -0.95233357
0000d0 80 e7 bd bf 00 8a d6 36 71 ff a3 bf fd d5 b4 be
       -1.4836273 6.3937623e-06 -1.281233 -0.3531951
0000e0 63 89 8a bf 1b 32 a6 bf 40 8f a3 39 07 47 60 bf
       -1.0823177 -1.2984041 0.00031196512 -0.8760838
0000f0 d8 f0 0c bb a6 8a 85 bb fc 16 e1 3f 8a 66 06 3f
       -0.0021505859 -0.004075366 1.7585139 0.5250021
000100 5b 76 a8 3f bf fe 33 3c 2c 21 90 3a 8c 87 d4 3f
       1.3161119 0.010986029 0.0010996214 1.6603866
000110 68 c7 24 3f 2e 3c b2 3f 93 17 12 bd 4a 94 e9 bc
       0.6436677 1.3924615 -0.035667013 -0.028513093
000120 65 94 b9 3f 25 03 26 3f 3d 01 ea 3f
       1.4498411 0.6484855 1.8281628

bias f4 [15]
000000 42 76 81 3f 73 fa 39 3f d8 2f 00 3f ba dc 83 bb
       1.0114214 0.7264778 0.50073004 -0.0040241154
000010 2f de 64 3c eb 53 41 3b 28 6f aa bc 86 62 8c 3b
       0.013968988 0.0029499482 -0.020804957 0.004284206
000020 34 d2 be bb 4d 9f 26 bf 8c b8 63 bf 0e a0 13 bf
       -0.005823398 -0.65086824 -0.8895347 -0.576661
000030 3c f5 8b 3c 1b bb 1c 3d af 44 a5 bd
       0.01708471 0.038264375 -0.08069741
