Models/simulations/latent/T_0_R_13_model.pt (torch, 3551 bytes, 4 tensors)

weight f4 [5, 40]
00000000: da98 0b3f 88e3 963f a02b 103f cfc2 9a3f
00000010: 41ae 803f 3bd6 c7be 3064 61b8 2242 3d3a
00000020: b10f ae3a 2c76 913f 6494 e6be 7cd9 3a3f
00000030: 6530 4fbe 2658 d83a 4bc9 02bf b705 593f
00000040: eebf 0a3f d90c 3b3f 5cad 7e3f a37c 743f
00000050: b409 4dbc c907 45be 7222 49be a873 7739
00000060: a8fa d23a a726 2c3e ca32 a93a 7c3e aa39
00000070: 001f f5b6 74aa ddb9 a41e 613a 9005 d938
00000080: d414 fa39 54f8 623a 087a d839 3a50 723a
00000090: 4a14 6a3a 286f 8f39 9c17 abb9 044c d1b9
000000a0: 90ea c7b9 f0ae 0a39 58b4 3239 74a6 80b9
000000b0: 2003 cdb9 4007 bf37 78c8 003a 2c09 8fb9
000000c0: 0c11 773a 24c4 27ba 5387 583a f435 c4b9
000000d0: 2c5c 8539 e078 09b8 aa73 4eba a83e 6339
000000e0: 409b 14b8 788d 113a 28be e0b9 18b6 c2b9
000000f0: 8013 2538 80dd 66b8 aac3 8f39 206a 64b8
00000100: 9080 d1b8 5c4d 0fba c0e6 043a c2e2 423a
00000110: e494 5aba 32b6 183a 3488 57ba 7e75 23ba
00000120: d052 6839 0c95 28ba fe36 5c3a d0fa c238
00000130: 821a 513a 1a5c 49ba 0496 9939 289a b339
00000140: 4fb1 80be 8638 8fbb 1cb7 cc3e d879 443f
00000150: 284d 223a 316b 71bf 69de 0b3f fdf5 c93a
00000160: 6772 8c3e 7acf c2bc 9a6e 27bf 8712 403f
00000170: d1a9 28bf 7056 1fbe db41 5abe 2b47 39be
00000180: 1436 d23e 55ca fd3e ec3c 36b9 b6fb a53e
00000190: 3dbb 70bd f558 a43d b9f4 a8ba 10fe 173b
000001a0: e0f6 1e39 487e 7439 c82f 8338 543d 6aba
000001b0: c8ea c339 e879 ef39 c42d 2eba c89d bf39
000001c0: 0000 1333 821a 20ba 42a8 6a3a 6a02 0c3a
000001d0: 045c adb9 d401 f139 18fa ad39 947b 05ba
000001e0: d842 f139 40c2 9f39 e8d7 ceb9 1ae2 643a
000001f0: 1034 f0b8 2c85 183a f03c 0639 c250 68ba
00000200: 9009 16ba 9cae c6b9 2a96 62ba 405b 3d3a
00000210: 007a 3e36 b413 41ba b8a4 b4b9 c01a f937
00000220: a013 2eb8 edfb 813a 86c1 2d3a a4bb e939
00000230: c8b6 3b39 1072 b8b9 c41a a539 3acd 4f3a
00000240: de52 1c3a 5af3 3dba 5ee0 183a c009 3e38
00000250: 257c 82ba 0836 16b9 a8b9 2339 fc7b f439
00000260: b294 2fba 48a2 f4b9 f62e 333a 3221 14ba
00000270: 9aa9 49ba 3a4e 3eba ac57 f8b9 645d 97b9
00000280: 2aa9 9b3e 271c 8b3e da75 d63a 71a9 7a3b
00000290: 3588 0b3f acf6 5dbe 98bb a3be 376e 9cbf
000002a0: 5175 febe 84ac d23e 1daa b8ba 542d 95be
000002b0: 565b f9ba 61e0 3b3f bff2 b5be be36 1b3f
000002c0: 5851 21be e616 b23a fbfa 1b3f 14eb da3d
000002d0: 2bdf 2a3c bc6b 203c 3881 edb9 34ef 2bb9
000002e0: a8ca e0ba 0cf0 4c3a 67c4 1fba 342f f339
000002f0: c486 333a 349a 5bba d86f 70b9 2840 07b9
00000300: be14 103a 4a1b 01ba 3a20 1e3a c2cf 40ba
00000310: 74d9 a9b9 9446 ae39 7413 3dba 0857 44b9
0.5453011 1.1788187 0.56316566 1.2090701 1.0053178 -0.39030632 -5.3737487e-05 0.00072196324
0.0013279823 1.1364188 -0.45035088 0.72988105 -0.20233305 0.0016505762 -0.510884 0.84774345
0.5419911 0.7306648 0.99483275 0.9550268 -0.01251452 -0.19241251 -0.19642046 0.00023598841
0.001609643 0.1681162 0.0012908813 0.0003247148 -7.305178e-06 -0.00042279402 0.00085876347 0.000103484024
0.00047699234 0.00086582196 0.0004128965 0.0009243522 0.0008929415 0.00027357903 -0.00032633252 -0.00039920222
-0.00038131 0.00013225875 0.00017042586 -0.0002453808 -0.00039102975 2.277235e-05 0.00049126847 -0.0002728192
0.00094248424 -0.00063997717 0.0008259911 -0.0003742423 0.0002543641 -3.277592e-05 -0.00078755117 0.00021671748
-3.5430538e-05 0.00055523915 -0.00042866287 -0.00037138234 3.9357226e-05 -5.504256e-05 0.00027420867 -5.4458273e-05
-9.989843e-05 -0.00054665445 0.0005069785 0.0007434302 -0.00083382265 0.0005825489 -0.0008221895 -0.0006235464
0.00022156094 -0.0006430901 0.00084005285 9.297358e-05 0.0007976667 -0.00076812657 0.00029294204 0.00034256396
-0.25135276 -0.004370752 0.3998345 0.7674842 0.0006191307 -0.94304186 0.54636246 0.0015408393
0.27431032 -0.023780573 -0.6540314 0.7502827 -0.6588412 -0.15560317 -0.21314184 -0.18093555
0.41056883 0.4956843 -0.00017379568 0.32418603 -0.058772314 0.0802478 -0.0012890316 0.0023192205
0.00015160022 0.00023316697 6.255467e-05 -0.000893553 0.00037368224 0.0004567646 -0.0006644393 0.00036547915
3.4226105e-08 -0.00061074656 0.0008951464 0.0005340936 -0.00033065688 0.00045968464 0.00033183466 -0.0005091962
0.00046016905 0.0003047157 -0.00039452245 0.00087312015 -0.00011453789 0.0005818184 0.00012801937 -0.00088621315
-0.0005723471 -0.00037895597 -0.0008643592 0.0007223375 2.838322e-06 -0.0007365302 -0.00034455 2.969557e-05
-4.150311e-05 0.0009916999 0.00066282635 0.00044581026 0.00017901801 -0.00035180198 0.00031491194 0.00079270045
0.0005963276 -0.000724604 0.0005831773 4.530861e-05 -0.0009955211 -0.00014325243 0.00015614054 0.00046631682
-0.00066978775 -0.00046660216 0.0006835306 -0.00056506984 -0.0007692814 -0.00072595815 -0.00047367567 -0.00028870546
0.304025 0.27169916 0.0016362027 0.0038247968 0.5450471 -0.21676129 -0.3197906 -1.2221135
-0.4969888 0.41147244 -0.0014088784 -0.29136145 -0.0019024413 0.7338925 -0.35536763 0.60630405
-0.15753686 0.0013587147 0.6092984 0.10689369 0.010429184 0.009791311 -0.00045300438 -0.00016396941
-0.001715024 0.0007817752 -0.0006094635 0.0004638374 0.000684839 -0.0008377165 -0.00022929849 -0.00012898503
0.0005496255 -0.0004925026 0.0006032024 -0.0007355177 -0.00032396207 0.0003324045 -0.00072126766 -0.00018724438

bias f4 [5]
00000000: b763 cebd 0024 c03e 290d 953d f053 b8bf
00000010: 3697 543d
-0.10077613 0.37527466 0.07277901 -1.4400616 0.05190202

weight f4 [20, 5]
00000000: 00c3 1cb7 7236 4aba e8aa b6be 3e35 863a
00000010: 1db0 b23f f2f1 8b3f 426a afb9 50a4 30b8
00000020: 9238 82bb 7f85 473f 6a56 713f d6fe 3eba
00000030: 5dd5 353f 2eb9 0d3b 363f 8cba fec7 003f
00000040: f8ba fd38 441e 8d3f 1b95 ccba 4301 f53a
00000050: 6092 113f 249f 603a e089 ffb8 7d03 51bb
00000060: b83d ca3f 9381 0ec0 9034 afb9 1f7c c4bf
00000070: 84b6 013b 9eff 5cbe 7083 ef38 4092 6039
00000080: 23eb a23a 707b 313a c83f e8bf f97f bcbf
00000090: 92b4 33ba fef1 81b9 1443 24ba c6d5 79bf
000000a0: b159 b5bc 809c d239 ee3f 643a b805 0aba
000000b0: d186 2bc0 7d9d 753f 6210 47b9 e489 6cb9
000000c0: 2fc0 1b3c 1866 963f a69d f8bf f5d7 153a
000000d0: bc50 23c0 8d3d 16bb e80c a4b9 2bc3 0cba
000000e0: 50ae 43b8 e78f f93f 8811 033b add8 f1be
000000f0: cc2f e1bf e7bc 67ba ace5 20c0 746f 26b9
00000100: 4fb5 d9ba 074e 8abb 2031 83ba f079 cebf
00000110: c6a6 0d3c 4ee6 8439 b601 1dc0 6a75 7a3a
00000120: df8c 4dbf 6c89 c3ba ead2 91bf d47f 3aba
00000130: 6380 a93a e669 47bf 6a50 98ba cea8 ca3f
00000140: c052 29ba 4860 f5ba 085f bd3f 2644 0b3c
00000150: 1f8b 83bf c5b0 1c3a ca98 cb39 1c5f c23f
00000160: a6b9 29bc 5aec 063a b003 a53e 1817 113a
00000170: 2910 043a a44b f4b9 4058 e93f a3a2 883f
00000180: a8aa 93b8 5c19 f63e 7e18 f5ba 97e9 d039
-9.343727e-06 -0.00077138015 -0.35677266 0.0010239256 1.3959996 1.0933211 -0.0003345777 -4.2114698e-05
-0.003974029 0.77938074 0.9427248 -0.00072858983 0.7102869 0.0021625268 -0.0010699991 0.50305164
0.00012098806 1.1024861 -0.0015608402 0.0018692393 0.56863976 0.00085686357 -0.00012185029 -0.0031892948
1.5800085 -2.2266586 -0.00033417763 -1.5350379 0.0019792626 -0.21581885 0.0001142089 0.00021416787
0.0012429695 0.0006770408 -1.8144464 -1.4726554 -0.0006855215 -0.00024785096 -0.0006266099 -0.9759182
-0.022137495 0.00040170923 0.0008707036 -0.00052651344 -2.6801035 0.95943433 -0.00018984222 -0.00022558082
0.009506269 1.1749907 -1.942311 0.0005716079 -2.5518026 -0.002292487 -0.00031290133 -0.00053696585
-4.6653964e-05 1.949704 0.0019999463 -0.47235623 -1.7592711 -0.00088400993 -2.514018 -0.00015872513
-0.001660982 -0.0042207274 -0.0010009147 -1.6130962 0.008645719 0.00025348592 -2.4532294 0.0009554239
-0.8029308 -0.0014918274 -1.1392491 -0.0007114385 0.0012931939 -0.77895963 -0.0011620645 1.5832765
-0.0006459169 -0.0018720711 1.4794626 0.008500135 -1.0276831 0.00059772684 0.00038833014 1.5185275
-0.010359203 0.00051469135 0.32229376 0.0005534752 0.00050378084 -0.00046595663 1.8230057 1.0674633
-7.0412934e-05 0.48066223 -0.0018699316 0.0003984689

bias f4 [20]
00000000: fc41 99ba 80e4 073d 7e7b 71ba 2d9d 833a
00000010: 1098 523d 6fcd 24bd 4005 05ba f883 533a
00000020: 78c8 8fb9 7814 0dbd b7c3 363d 87bd 01be
00000030: eed3 92bb ca1c 66bd f365 8a3b 3ef6 1f3b
00000040: d6a9 05bc b692 b13c 2bc9 463a 435f 843d
-0.0011692639 0.0331769 -0.0009211822 0.0010041349 0.05141455 -0.04023498 -0.00050743297 0.0008068676
-0.00027424446 -0.03444335 0.044620242 -0.12669955 -0.0044808304 -0.0561798 0.004223579 0.0024408246
-0.008158168 0.021676403 0.0007583077 0.06463482
