Models/simulations/ClonalCooperation/T_14_R_19_model.pt (torch, 3871 bytes, 4 tensors)

weight f4 [10, 30]
000000 87 71 d0 3f f5 4e b1 3f cd 03 07 3f 6e 39 64 bb
       1.6284646 1.3852221 0.52740175 -0.003482427
000010 72 3f 6a 3f 26 7d ec 3a 0c f9 88 3b 37 57 68 bc
       0.9150306 0.0018042668 0.0041800793 -0.01418095
000020 e7 b0 08 c0 96 1b 5e be be 1a 90 38 fd 53 42 b9
       -2.1357973 -0.2169021 6.871436e-05 -0.0001853257
000030 c9 c6 4c 39 2d 8c 4f 39 30 cb d6 b7 50 2e b7 b7
       0.0001952901 0.00019793278 -2.5605405e-05 -2.1836866e-05
000040 a1 82 19 39 32 a1 b1 38 9c d1 a4 b8 05 0e 41 b9
       0.0001463988 8.470043e-05 -7.859172e-05 -0.00018411137
000050 d1 07 50 b9 d7 ad 51 39 c4 48 7d b8 dc 9a 2f b8
       -0.00019839338 0.00019996554 -6.038767e-05 -4.1867475e-05
000060 89 3f 1c b9 99 fc 4d 39 5c c8 b0 b8 d0 84 99 b7
       -0.00014900988 0.00019644423 -8.429654e-05 -1.8300867e-05
000070 05 14 48 39 78 69 5e b8 81 b7 45 b9 3a cf 24 b9
       0.00019080944 -5.302715e-05 -0.00018855745 -0.00015717457
000080 95 38 24 39 96 3d a6 38 a4 93 50 b9 68 1b 8c 38
       0.00015661337 7.926968e-05 -0.00019891426 6.680825e-05
000090 d0 47 72 b7 55 53 41 39 2c 6e 34 b9 6c 86 f0 b8
       -1.4441044e-05 0.00018436958 -0.0001720718 -0.0001146913
0000a0 78 a1 4f 38 d8 76 54 38 c9 66 23 b9 01 b3 08 b9
       4.9503025e-05 5.065542e-05 -0.00015583182 -0.00013036655
0000b0 76 4f 16 b9 31 41 47 b9 65 17 4f 39 12 9b db 38
       -0.00014334716 -0.00019002405 0.00019749773 0.00010471618
0000c0 89 1e 4b 39 58 3f 37 38 2d 20 51 39 66 dd 22 b9
       0.00019370964 4.3689593e-05 0.0001994378 -0.00015532001
0000d0 5d 45 49 b9 d1 bb 25 b9 6c b4 8f 38 84 a2 72 b8
       -0.00019194694 -0.00015805593 6.8523776e-05 -5.784865e-05
0000e0 31 48 27 39 d6 35 08 39 2d 74 28 b9 01 a7 02 39
       0.00015953254 0.00012990026 -0.00016065007 0.0001245998
0000f0 3c df 1a 3e cb 2a 85 ba c6 85 9d bd 6c 4f 79 be
       0.1512422 -0.0010159848 -0.07691531 -0.24346703
000100 07 bc a0 bf b4 31 7c be 44 f4 34 3e 95 88 a3 bd
       -1.2557381 -0.24628335 0.17671305 -0.07985035
000110 89 24 73 3e 75 fa e3 3e 31 a8 23 b9 d0 9f 88 37
       0.23744406 0.4452702 -0.00015607548 1.6286882e-05
000120 b8 b2 a3 37 29 04 03 39 c9 be 40 b9 f8 03 44 38
       1.9514337e-05 0.00012494683 -0.0001838162 4.6733738e-05
000130 cc 5e 89 38 52 68 8d 38 f9 05 05 39 81 2d 03 b9
       6.550326e-05 6.742835e-05 0.00012686093 -0.00012510085
000140 52 b8 db b8 e4 6f 7c b8 59 0e 2d b9 a1 70 48 b9
       -0.00010477066 -6.018569e-05 -0.0001650391 -0.00019115444
000150 d0 5f e0 b7 05 aa 3e 39 50 52 ba b7 d1 3d 1d b9
       -2.6747497e-05 0.00018183149 -2.2211258e-05 -0.00014995715
000160 91 e1 4b b9 3d 45 3c 39 90 cb 79 bf b5 37 a8 3f
       -0.00019443619 0.0001795487 -0.97576237 1.3142
000170 8f 94 ea 3e b3 29 c7 bd 16 5c 61 bf 60 d0 2c 3c
       0.45816466 -0.0972475 -0.88031137 0.010547727
000180 61 b7 b8 bd 14 c1 d9 3e 99 3a b1 3d bf cd e0 bd
       -0.09019352 0.4253012 0.08653755 -0.10976743
000190 d1 6b 40 39 24 c7 41 b8 d1 43 08 39 d0 8f d5 b7
       0.00018350712 -4.620025e-05 0.00012995234 -2.5458547e-05
0001a0 5c 48 ce b8 f8 df 2d 38 cf e4 2d 39 24 f7 6c b8
       -9.8363234e-05 4.1455e-05 0.00016583804 -5.6496952e-05
0001b0 01 4e 1e b9 29 18 3e 39 89 98 28 b9 44 cf 79 b8
       -0.00015097113 0.00018128812 -0.00016078552 -5.9559257e-05
0001c0 b8 4c 70 38 b0 1e d5 37 18 10 5c b8 31 a2 4d 39
       5.729191e-05 2.5405869e-05 -5.2467076e-05 0.00019610744
0001d0 64 80 52 b8 b8 70 44 38 01 c4 35 b9 f2 0f a6 38
       -5.0187475e-05 4.683502e-05 -0.00017334522 7.918467e-05
0001e0 25 07 a2 3e 86 46 6e 3d 38 38 b6 3f e1 88 87 bf
       0.31646076 0.058172725 1.4235907 -1.0588647
0001f0 ed ce 82 3f 38 9d a1 3e 38 d9 5b 3e 1a d9 c7 3e
       1.0219399 0.3156526 0.21469581 0.39032823
000200 d9 ad 95 ba be 59 71 bc 62 02 ef b8 40 14 ad b6
       -0.0011419608 -0.014730869 -0.00011396852 -5.158159e-06
000210 05 7a 39 39 fd 82 51 b9 12 7b e3 38 32 f1 e9 38
       0.0001768843 -0.0001998059 0.00010847127 0.00011155232
000220 5c c0 d1 38 31 c2 19 b9 f0 3a 96 b7 92 fd e5 b8
       0.00010001726 -0.00014663559 -1.7908838e-05 -0.00010966802
000230 10 d0 99 37 28 77 1f b8 08 05 d3 b7 d7 23 33 39
       1.8335908e-05 -3.8019527e-05 -2.5155503e-05 0.00017084122
000240 ae 6c a6 38 a2 6b 8e b8 02 5d e7 b8 91 f9 3f 39
       7.93574e-05 -6.791136e-05 -0.000110322624 0.0001830815
000250 2d f9 2c b9 64 c2 50 38 dd 53 85 3f 85 b4 af bc
       -0.00016496023 4.9772105e-05 1.0416218 -0.021448383
000260 f9 55 a6 bf 8a 02 32 3c e6 a6 09 3c 44 ed 88 3e
       -1.2994987 0.010864863 0.008401608 0.2674352
000270 63 61 22 3d a5 cb 2c 3f c8 d0 ef 3a b9 55 a1 3a
       0.039643656 0.67498237 0.0018296475 0.0012308873
000280 2e 8c 17 b9 ae e4 e6 38 fc c1 90 38 57 da 10 39
       -0.00014452703 0.000110098495 6.9025875e-05 0.00013814248
000290 6c b4 db 38 5c 19 02 38 be da 82 b8 05 98 3a b9
       0.0001047634 3.1018033e-05 -6.239627e-05 -0.00017794974
0002a0 01 cb 3c 39 9c 11 ed 38 6c e4 f7 38 fd 3b 39 39
       0.00018004702 0.00011304321 0.00011820425 0.00017665322
0002b0 91 01 47 39 98 9d 54 38 32 89 9b 38 42 f1 9d b8
       0.00018978702 5.069151e-05 7.4165306e-05 -7.531281e-05
0002c0 b8 30 30 b8 5f 4b 2a b9 99 ed 17 b9 6c b4 96 b8
       -4.2007043e-05 -0.00016240541 -0.00014488994 -7.1861636e-05
0002d0 f4 50 81 38 1a d9 c2 38 96 d7 2b b9 70 76 f8 37
       6.166278e-05 9.291079e-05 -0.00016388143 2.9619056e-05
0002e0 f0 e6 7e 37 6a 96 92 b8 86 d1 0f 39 e8 38 10 b8
       1.5193349e-05 -6.989839e-05 0.00013715596 -3.4385273e-05
0002f0 f7 6b 1d b9 34 49 ef b8 02 3b c2 38 fe 81 1d b9
       -0.00015012907 -0.00011410043 9.261632e-05 -0.00015021113
000300 fc 9b f5 b8 b7 16 1f b9 66 6e 06 b9 ae e4 9f b8
       -0.00011711565 -0.00015171884 -0.00012820362 -7.624306e-05
000310 f1 c8 26 b9 a4 c8 43 b8 31 1f 24 39 91 b1 44 b9
       -0.0001590585 -4.6678484e-05 0.00015651878 -0.00018758165
000320 57 06 4c 39 f8 1a e6 b7 12 87 d1 b8 ce 66 0f b9
       0.00019457318 -2.7430695e-05 -9.9910554e-05 -0.0001367584
000330 05 4e 41 b9 36 fc 0c 39 32 01 8f b8 d0 9f ed b7
       -0.00018434979 0.00013445396 -6.818994e-05 -2.832702e-05
000340 fe 33 12 b9 58 e7 71 38 94 93 40 b9 d5 da 7f 3f
       -0.00013943014 5.7674333e-05 -0.00018365524 0.99943286
000350 01 bf 0d 3e 54 b4 cf 3f 7c 55 11 3f 12 33 a0 be
       0.13842393 1.6226907 0.56771064 -0.31288964
000360 35 65 08 3f 4c a6 58 3b 1f 82 8b be a0 9b a4 ba
       0.5327943 0.0033058105 -0.27247712 -0.0012558587
000370 f9 e3 4b b9 a2 27 94 38 42 fd cd b8 a2 fd aa 38
       -0.00019444515 7.064572e-05 -9.822335e-05 8.1534745e-05
000380 52 b0 c0 38 fd 6c 25 b9 5c 06 ab 38 06 f0 03 39
       9.188116e-05 -0.00015776228 8.1551e-05 0.00012582549
000390 cf b2 2d b9 d1 1e 24 b9 31 52 33 39 fe ad 02 39
       -0.00016565177 -0.00015651739 0.00017101389 0.00012462583
0003a0 92 bf cc 38 80 0a 2c 36 10 0a 1d b7 29 e8 49 39
       9.763161e-05 2.563611e-06 -9.360272e-06 0.0001925534
0003b0 50 be d8 37 65 57 51 b9 bc d4 ae b8 57 56 4c 39
       2.5837828e-05 -0.0001996435 -8.3365914e-05 0.0001948712
0003c0 89 a6 30 3d 5e 15 16 bc ee 6f 26 bf 28 7c a3 3f
       0.04312757 -0.009160368 -0.6501454 1.2772264
0003d0 40 fa 6c bf fa a7 94 bd a8 87 6c be 5f 5e 50 3d
       -0.9256935 -0.072586015 -0.23098624 0.05087125
0003e0 37 78 55 be 44 f9 15 3e 90 fe f5 b7 92 3d e1 38
       -0.2084664 0.14645869 -2.9324816e-05 0.000107403044
0003f0 98 4d 55 b8 c0 cb b4 36 e8 ff 09 38 ae c8 9a 38
       -5.0855422e-05 5.3881377e-06 3.2901677e-05 7.380672e-05

bias f4 [10]
000000 ae d8 96 bf 47 14 8a 3f 6a 73 87 3e 56 d3 b0 3d
       -1.1784875 1.0787438 0.2645524 0.08634059
000010 69 69 17 c0 c7 81 08 3f f6 0f 0d bf 63 e4 c1 bf
       -2.3658087 0.53323025 -0.5510248 -1.5147823
000020 fe bc 1d be bc e1 24 bf
       -0.15404126 -0.64406943

weight f4 [10, 10]
000000 3f 01 a0 3f 2a 10 dd bb a2 a1 e0 3e f6 be d5 3f
       1.250038 -0.0067463117 0.43873316 1.6698902
000010 e1 4a 55 be 47 54 78 bf 18 d8 a2 3b d3 5e 8d 3f
       -0.20829345 -0.970036 0.004969608 1.1044563
000020 fe a3 49 bf 67 66 45 3e f2 48 8e 3e e6 60 0d bc
       -0.7876586 0.19277345 0.27790028 -0.008629059
000030 58 e0 db bf 8d d5 5e 3c 24 b0 22 3f dd b2 5d bf
       -1.7177839 0.013600719 0.6355002 -0.8660105
000040 78 2d a8 3b d9 45 f1 bc 44 88 81 be 60 8a 71 3f
       0.0051323734 -0.029452251 -0.25299275 0.9435177
000050 25 f5 1a 40 e2 e3 de ba 42 c2 92 3a 1c c0 6f 3d
       2.4212124 -0.001700517 0.0011196809 0.05853282
000060 a7 fd 09 3f dc 26 b5 3a bc 22 dd 3a 59 87 6a 3f
       0.5390267 0.0013820785 0.0016871314 0.91612774
000070 55 0a b9 bf cb eb 41 3f af a7 ab 3f 41 84 30 3e
       -1.4456278 0.75750417 1.3410548 0.17237951
000080 e6 90 ca ba 58 ab 86 bf 8b 19 db 3f 46 76 bf bb
       -0.001545456 -1.052104 1.711717 -0.0058429567
000090 a8 68 32 bd c4 25 9a bd 89 4d 00 be bf 8d a2 3f
       -0.04355684 -0.075267345 -0.12529577 1.2699507
0000a0 af 7e 0c 40 f7 37 27 3d 02 4e 7d be c0 71 3e 3e
       2.1952322 0.040824857 -0.24736789 0.1859808
0000b0 b9 22 08 be 7f 2d 0c be 66 69 0e bc 02 a8 c4 3f
       -0.13294496 -0.1368923 -0.008692121 1.5363772
0000c0 71 2c f4 3e 37 f6 bb 3f 7f 03 64 bd 14 55 c7 3b
       0.47690156 1.4684514 -0.055667397 0.00608314
0000d0 17 de b5 3d a8 c8 d5 3c e9 17 75 3f 89 8e 6b 3e
       0.08880251 0.026096657 0.9573961 0.23003592
0000e0 f9 cf 23 bb 39 a7 06 bf 17 3e 46 3d fe 40 3d bc
       -0.0024995788 -0.5259891 0.048399057 -0.01155114
0000f0 5b cb 02 3c b6 b1 38 bd 19 be 06 bd 52 50 6c 3d
       0.007983054 -0.045091353 -0.032896135 0.057693787
000100 2d 38 ba 3e 22 9c 14 3f 16 f6 c4 3a 7f 39 d6 bd
       0.36370984 0.5805074 0.0015026953 -0.10460185
000110 48 46 78 bb eb 83 45 bd 94 27 7f ba 1b ad 83 bd
       -0.0037883688 -0.04822151 -0.00097333756 -0.064295016
000120 38 28 7b 3e c9 e2 b2 be 89 08 84 be 2b b5 82 bd
       0.24527061 -0.34938648 -0.25787762 -0.06382211
000130 fb ff 4f ba f9 6b 75 bd 98 06 5f bd fb 40 36 3d
       -0.00079345674 -0.059917424 -0.054449648 0.044495564
000140 1d ff 61 bd 2a 46 7a bb aa 85 35 3e 12 ca ba ba
       -0.055174936 -0.0038188794 0.1772677 -0.0014250895
000150 44 7e 1c 3f d6 5e 2e bf e2 fa 35 3b 97 1b d8 bc
       0.61130166 -0.6811346 0.0027767946 -0.026380343
000160 f9 d9 6b 3e fd ad da bd 9c bf a9 be 0a b6 7c 3b
       0.23032369 -0.10677717 -0.33154 0.0038560652
000170 62 af bf 3a b2 6c 73 3e 24 e0 84 3f fe b0 f2 3e
       0.0014624412 0.23771933 1.0380902 0.4740066
000180 a0 77 99 ba d4 a3 67 bc 1d 8c bb be 96 94 f2 bd
       -0.0011708625 -0.014138181 -0.36630335 -0.11844747

bias f4 [10]
000000 45 19 bc 3e 6a 7e 26 3f 08 39 08 40 01 ec f2 3f
       0.3673803 0.6503664 2.128481 1.8978273
000010 75 3e 28 40 b0 de 75 bf ef a6 ba bf d6 28 c6 bf
       2.628812 -0.9604292 -1.4582194 -1.5481212
000020 2e cd 5b bf 84 00 b3 bf
       -0.85859954 -1.3984532
