Models/simulations/ClonalCooperation/T_14_R_12_model.pt (torch, 3871 bytes, 4 tensors)

weight f4 [10, 30]
-0.40591848 -0.11431417 0.3011922 1.4302378 0.90712774 -0.00014438783 -0.1623882 -0.046887636
-0.058480967 0.44877374 0.00010503162 -9.588894e-05 6.597316e-05 -0.00014921404 0.000114805385 6.5185144e-05
6.1953455e-05 -9.42028e-05 0.00011483279 0.0001765066 -0.00010100889 4.966861e-05 5.6042656e-05 4.819258e-05
0.00014265763 3.9399893e-06 0.00010215046 -1.5534752e-06 3.83406e-05 0.00017730448 -0.20139277 1.9972405
0.039975658 0.51821935 -0.5940079 -0.93498296 -0.30159748 -0.30932182 -0.8643971 -0.13406171
1.5289203e-05 0.00017615037 -0.00012346417 -0.00013879176 -0.0001423713 8.141127e-06 -5.1299125e-05 0.00010771597
-4.0949657e-05 0.000107535016 0.00014882362 5.790367e-06 0.0001302041 0.00016265664 -5.907644e-05 0.00011579927
-4.5002293e-05 7.5050484e-05 -8.294046e-05 -0.00018182026 -0.006479943 -0.03774138 -1.7017769 -0.124524996
-1.5278876 -0.00052253495 0.4956478 -0.0015129813 0.026688384 0.96484935 -0.00019365315 -0.00012382354
0.00012553783 0.00019883657 -9.533015e-05 -3.9742008e-05 3.1644857e-05 0.00019159228 -1.9580853e-05 0.00015201358
-0.00013815846 0.00018356439 6.235392e-05 0.00016567933 -6.61987e-06 2.3675704e-05 -7.426806e-05 0.00019356913
0.000108802094 5.4381802e-05 -0.00015627043 3.273248e-05 -0.00018338967 1.4413905e-05 7.24697e-06 0.00014281302
-2.5775735e-05 5.364968e-05 -0.00018936051 -5.3651922e-05 0.000110057634 -0.00019311167 -0.00019256702 -0.00011991152
4.1887077e-05 -0.00015556774 -0.00010605165 0.00016961085 -2.7006012e-05 -7.529628e-05 3.5279285e-05 9.726055e-05
0.0001147173 0.00018414932 -4.814574e-05 -0.00017034028 -0.00018697743 0.00016377926 -1.1698081e-05 5.859371e-05
-0.28156266 -0.014811961 -0.5024381 -1.1948576 0.13500726 0.0053762733 -0.39822537 1.3252699
-0.957356 -0.00066101085 0.00015459048 5.8100297e-05 0.00019060071 0.00018025267 0.00014607617 -0.00018734323
-7.100179e-05 0.0001291379 -3.264766e-05 -0.00015224075 0.00013975866 -2.9650037e-05 -3.731373e-06 0.00018999727
-9.913124e-05 0.00019853639 -2.89655e-05 -0.00017796965 0.00010252233 0.00012694534 0.19860134 -1.4444318
-0.63169545 0.992157 -1.169893 -0.4597034 -0.44947883 0.0008289574 -0.032165647 -0.3561946
1.4567253e-05 6.227262e-05 0.00014284848 -1.8427178e-05 9.698422e-05 -5.3569966e-06 8.210367e-05 -9.867539e-05
-0.00015743136 -4.9576134e-05 0.0001997538 -0.00015663866 0.0001304225 5.6083518e-05 -0.00019973524 -2.461049e-06
-8.29928e-05 0.00011515009 -3.2290205e-05 -4.6371613e-05 6.421824e-05 -1.1895012e-05 -2.4304478e-05 2.32655e-05
-3.3638717e-05 -0.00011737968 -0.000150271 0.00010264167 -1.8742081e-05 2.6338981e-05 -0.00012470713 -0.00010838652
-3.79353e-05 0.00017293835 -4.4358414e-05 9.893476e-05 1.4447942e-05 6.6602006e-05 6.116956e-06 2.891649e-05
-0.00012963565 -3.6575686e-05 0.0001871012 -8.53917e-05 -0.00010898257 9.179843e-06 -6.651142e-05 -8.348384e-05
-0.00016954607 4.172334e-05 -0.032363944 -0.19722562 0.65356064 0.009767258 -0.8441909 -0.67522705
-0.037305664 -0.0007572117 -1.2706728 0.003615254 -0.00019021459 -0.00010134406 -0.000105707106 -2.9996649e-05
0.00014019884 8.5799154e-05 0.00014003876 -0.00013116818 -0.000116355106 6.6190856e-05 9.909886e-05 7.048933e-05
-0.00018070413 0.00019096736 -0.00017359179 -0.00019796494 2.5438523e-05 -3.4185156e-05 -2.893884e-05 0.0001377441
-0.00020001594 -3.2544558e-05 -0.00018712648 7.937949e-05 0.000111954214 -1.2592645e-06 6.187947e-05 -8.8522225e-05
-0.00015969313 -0.0001824324 3.452538e-05 -0.00014884534 -7.0748705e-05 -0.00018830587 -0.00012571937 0.00010677242
00000000: 8cd4 cfbe 8c1d eabd dd35 9a3e 0812 b73f
00000010: 8639 683f d066 17b9 1849 26be 400d 40bd
00000020: bd89 6fbd acc5 e53e 6c44 dc38 fc17 c9b8
00000030: 125b 8a38 5776 1cb9 acc3 f038 02b4 8838
00000040: 02ed 8138 be8e c5b8 62d2 f038 a114 3939
00000050: bcd4 d3b8 4453 5038 580f 6b38 6422 4a38
00000060: 5e96 1539 4034 8436 9c39 d638 0081 d0b5
00000070: e8cf 2038 cfea 3939 e839 4ebe 94a5 ff3f
00000080: 84bd 233d 06aa 043f e710 18bf 0b5b 6fbf
00000090: fc6a 9abe 6e5f 9ebe 2149 5dbf 7947 09be
000000a0: 5041 8037 01b5 3839 2976 01b9 a188 11b9
000000b0: 8149 15b9 e095 0837 042a 57b8 92e5 e138
000000c0: 5cc1 2bb8 6c84 e138 890d 1c39 e04a c236
000000d0: 6687 0839 cf8e 2a39 d8c8 77b8 42d9 f238
000000e0: d8c0 3cb8 6c64 9d38 52f0 adb8 01a7 3eb9
000000f0: b455 d4bb b596 1abd d3d3 d9bf f606 ffbd
00000100: d291 c3bf bafa 08ba 8cc5 fd3e 3a4f c6ba
00000110: 99a1 da3c 5e00 773f 5f0f 4bb9 a1d6 01b9
00000120: cea2 0339 c97e 5039 fceb c7b8 a8b0 26b8
00000130: 68ba 0438 29e6 4839 9041 a4b7 d665 1f39
00000140: a1de 10b9 317b 4039 02c4 8238 35ba 2d39
00000150: 4020 deb6 309b c637 5cc0 9bb8 d1f8 4a39
00000160: ae2c e438 0418 6438 86dc 23b9 3c4a 0938
00000170: 4a4c 40b9 40d3 7137 002b f336 14c0 1539
00000180: f838 d8b7 e805 6138 138f 46b9 5008 61b8
00000190: bece e638 057e 4ab9 d1eb 49b9 0279 fbb8
000001a0: e8af 2f38 e61f 23b9 0c68 deb8 91d9 3139
000001b0: f88a e2b7 62e8 9db8 d8f8 1338 5cf8 cb38
000001c0: 6294 f038 3518 4139 18f0 49b8 5f9d 32b9
000001d0: 5f0f 44b9 29bc 2b39 e042 44b7 84c2 7538
000001e0: fb28 90be dead 72bc c99f 00bf 18f1 98bf
000001f0: 583f 0a3e 732b b03b 32e4 cbbe 72a2 a93f
00000200: 4815 75bf b047 2dba 9119 2239 b8b0 7338
00000210: fddb 4739 3502 3d39 062c 1939 9171 44b9
00000220: cce6 94b8 3169 0739 28ef 08b8 d1a2 1fb9
00000230: 2e8c 1239 f8b8 f8b7 8068 7ab6 013a 4739
00000240: aee4 cfb8 352e 5039 f0fa f2b7 5d9d 3ab9
00000250: 4201 d738 a11c 0539 265e 4b3e 24e3 b8bf
00000260: cbb6 21bf 00fe 7d3f 0ebf 95bf 3e5e ebbe
00000270: 1722 e6be 644e 593a 20c0 03bd 235f b6be
00000280: e065 7437 5c98 8238 99c9 1539 1094 9ab7
00000290: 0264 cb38 40c0 b3b6 122f ac38 f2ef ceb8
000002a0: 2914 25b9 f8ef 4fb8 0175 5139 5f3f 24b9
000002b0: 06c2 0839 383b 6b38 0570 51b9 8028 25b6
000002c0: 6c0c aeb8 bc7c f138 586f 07b8 247f 42b8
000002d0: e8ac 8638 b090 47b7 78e1 cbb7 482a c337
000002e0: 4c17 0db8 bc29 f6b8 1092 1db9 5441 d738
000002f0: 5038 9db7 88f2 dc37 d1c3 02b9 924d e3b8
00000300: b81c 1fb8 c956 3539 7c0d 3ab8 327b cf38
00000310: 7065 7237 aeac 8b38 4040 cd36 b091 f237
00000320: ceee 07b9 d868 19b8 9930 4439 5214 b3b8
00000330: 928d e4b8 2003 1a37 0c7c 8bb8 0c14 afb8
00000340: 2dc8 31b9 1800 2f38 0e90 04bd 83f5 49be
00000350: c04f 273f d906 203c e51c 58bf aedb 2cbf
00000360: d3cd 18bd 9e7f 46ba 68a5 a2bf e6ed 6c3b
00000370: 5774 47b9 ae88 d4b8 12af ddb8 50a1 fbb7
00000380: 5702 1339 12ef b338 5ed7 1239 318a 09b9
00000390: ac03 f4b8 f2cf 8a38 4cd3 cf38 acd3 9338
000003a0: 657b 3db9 693e 4839 3106 36b9 cf94 4fb9
000003b0: d064 d537 0862 0fb8 b0c1 f2b7 666f 1039
000003c0: 5fbb 51b9 7480 08b8 6237 44b9 8a78 a638
000003d0: f6c8 ea38 0004 a9b5 4ac5 8138 02a5 b9b8
000003e0: 4c73 27b9 534b 3fb9 58cf 1038 5e13 1cb9
000003f0: ec5e 94b8 f973 45b9 89d3 03b9 02eb df38

bias f4 [10]
-0.17924042 -0.3252996 1.2022994 1.6999011 0.5483984 0.29390478 1.6351212 0.081508674
-0.14323197 0.7313467
00000000: cd8a 37be ab8d a6be f2e4 993f 5c96 d93f
00000010: d663 0c3f b07a 963e a74b d13f 05ee a63d
00000020: 67ab 12be 8a39 3b3f

weight f4 [10, 10]
0.17599772 1.155766 -1.1748527 0.032377895 -0.061566986 -1.9484818 0.028402966 -0.057518497
-0.00056270475 0.0017201824 1.7529398 0.36636582 -1.9314463 -0.005421794 -0.5810745 0.04604197
-0.005703071 -0.25496453 0.0013013217 -0.0047994787 0.5212558 2.1725154 0.0389826 0.0047611105
-1.5827374 -0.3930619 0.0048731547 0.04960952 0.00031421508 0.0022610356 0.7740871 -0.5099254
-2.3775995 0.16462272 -0.0055200686 -0.12493583 0.15295623 -0.007371616 -0.00047675864 0.022229182
0.005126729 -0.5200681 -1.4112313 0.08207902 -0.044303678 -0.7505967 0.079755425 1.6078829
-0.00032583988 0.007741077 0.0013696686 -0.000814418 -0.0041764863 -0.035024606 0.37561768 -0.026331807
-0.031219756 0.06491974 -0.00019393128 -0.00423212 -0.056445505 -0.33572125 0.232137 0.00043291203
0.4319625 0.15784112 0.00022139587 0.3776109 0.00026677153 4.188076e-05 -0.00045811542 -0.06159591
-0.13883366 -0.094802596 0.0928457 -0.0045897514 -0.07801575 0.6354894 0.00013066502 -0.010343141
-0.6273814 0.020879809 0.731856 -0.101436496 -0.14389886 0.00050066225 -0.041235536 -0.03238448
-0.00018596808 0.0019478531 0.3564127 0.5927137 -0.0021735083 -0.0028507384 0.47739795 0.44531336
-0.0029458266 -0.09751542 0.00032819124 -0.0014810117
00000000: bf38 343e 24f0 933f 9361 96bf af9e 043d
00000010: aa2d 7cbd da67 f9bf 56ad e83c 8498 6bbd
00000020: 7a82 13ba be77 e13a 5560 e03f 4d94 bb3e
00000030: a239 f7bf 4ea9 b1bb 4cc1 14bf 8196 3c3d
00000040: d4e0 babb b68a 82be 1c91 aa3a f244 9dbb
00000050: 0571 053f 7e0a 0b40 38ac 1f3d 1703 9c3b
00000060: 2497 cabf 693f c9be fcae 9f3b 5a33 4b3d
00000070: 3cbd a439 e22d 143b 922a 463f 798a 02bf
00000080: 972a 18c0 dc92 283e b1e1 b4bb 5bde ffbd
00000090: 8fa0 1c3e 998d f1bb 76f5 f9b9 f919 b63c
000000a0: 1ffe a73b 2f23 05bf 3aa3 b4bf 0c19 a83d
000000b0: c677 35bd 1b27 40bf d056 a33d 1bcf cd3f
000000c0: 7dd5 aab9 dca8 fd3b 7486 b33a ab7e 55ba
000000d0: e8da 88bb f675 0fbd f650 c03e cdb5 d7bc
000000e0: 93c0 ffbc a4f4 843d 085a 4bb9 98ad 8abb
000000f0: 6733 67bd a8e3 abbe 52b5 6d3e 78f8 e239
00000100: 302a dd3e 1aa1 213e 8026 6839 3756 c13e
00000110: 78dd 8b39 20a9 2f38 362f f0b9 fe4b 7cbd
00000120: 692a 0ebe dd27 c2bd e325 be3d a065 96bb
00000130: b9c6 9fbd 6faf 223f 2003 0939 4776 29bc
00000140: 119c 20bf 220c ab3c ea5a 3b3f f0bd cfbd
00000150: 395a 13be e03e 033a 98e6 28bd 97a5 04bd
00000160: 6d00 43b9 1b4f ff3a ba7b b63e 16bc 173f
00000170: 6b71 0ebb 74d3 3abb 816d f43e 1d00 e43e
00000180: c50e 41bb 2ab6 c7bd 1511 ac39 821e c2ba

bias f4 [10]
1.0313313 1.4508666 0.89272326 0.8112496 0.1418188 -0.78980905 -1.2522856 -0.47665805
-0.94039 -0.7340537
00000000: aa02 843f ffb5 b93f 8389 643f 0eae 4f3f
00000010: f338 113e ed30 4abf e54a a0bf 860c f4be
00000020: 66bd 70bf f1ea 3bbf
