Models/simulations/passanger/T_0_R_18_model.pt (torch, 20703 bytes, 4 tensors)

weight f4 [5, 430]
0	0xbe888b47	-0.2666876
1	0xbf1600ac	-0.58594775
2	0xbf1b3c1f	-0.6063861
3	0xbed3592a	-0.41278964
4	0xbf0b0a27	-0.54312366
5	0xbe466f48	-0.19378388
6	0xbe1e9bad	-0.15489073
7	0xbe63a1e4	-0.22229725
8	0xb96daa00	-0.00022665411
9	0x3e4fcd64	0.20293194
10	0xbd151da6	-0.036405228
11	0xbcccfc55	-0.025022665
12	0x39801086	0.00024426373
13	0xbd008959	-0.031380985
14	0xbe3389ee	-0.17533085
15	0x3e992f6d	0.29918995
16	0x3a6d55c0	0.000905361
17	0xbc0299ec	-0.007971268
18	0xba68baed	-0.0008877952
19	0x3a193e96	0.0005845813
20	0x3ad7c402	0.0016461613
21	0x382b36ac	4.0820494e-05
22	0xb9d76b11	-0.00041087766
23	0x3e046972	0.12930849
24	0xb9ce804c	-0.0003938697
25	0x38f16e43	0.00011512313
26	0xbe94758e	-0.28995937
27	0xb98f5ceb	-0.00027344315
28	0x3a9dc658	0.001203726
29	0xba3ab049	-0.00071216054
30	0xb903c5a4	-0.0001256676
31	0x3847ae50	4.760764e-05
32	0xba721fde	-0.0009236316
33	0x38473e18	4.7503127e-05
34	0xb90bd626	-0.0001333585
35	0x384d9a38	4.9019436e-05
36	0x3e3ea919	0.18619193
37	0xba53359a	-0.00080569985
38	0xba2c6f52	-0.00065778673
39	0x398b48b0	0.00026566302
40	0xb9ddc6e1	-0.0004230058
41	0x39529bb5	0.00020085166
42	0x38b1cf2e	8.478608e-05
43	0xb981bd31	-0.00024745756
44	0xba694ec9	-0.00088999845
45	0xb983c455	-0.00025132546
46	0x37fda268	3.0235577e-05
47	0x397c6f2f	0.00024074012
48	0x3951cab8	0.00020007312
49	0x39c16cd4	0.00036892912
50	0x39d231c4	0.000400914
51	0x3e0ff4bb	0.14058201
52	0xba324d13	-0.0006801646
53	0xb9274f28	-0.00015955849
54	0x3a04e829	0.0005069995
55	0x3969e101	0.00022304432
56	0xb56e5500	-8.87856e-07
57	0xb9249b63	-0.00015698145
58	0xb9b1ccd9	-0.00033912694
59	0x38a8c2c6	8.047144e-05
60	0x390a50fa	0.00013190872
61	0x39a2141a	0.00030914025
62	0x38f8170c	0.00011829854
63	0xb7a0b3d0	-1.9157218e-05
64	0x389b8100	7.415004e-05
65	0x3949e324	0.0001925347
66	0x38f6da24	0.00011770826
67	0x388df292	6.768586e-05
68	0x39e9521f	0.00044502408
69	0x3a3590bc	0.0006926169
70	0xb81d1828	-3.7454214e-05
71	0xb95d7d40	-0.00021122862
72	0xb8f92acc	-0.00011881217
73	0x39b682ed	0.00034811292
74	0xb7ca2234	-2.4096204e-05
75	0x39104984	0.00013760297
76	0x389c7be2	7.461735e-05
77	0x388420f8	6.3003914e-05
78	0xb8f59e0e	-0.0001171195
79	0x39d2803e	0.0004014987
80	0xb8b61157	-8.681666e-05
81	0x37a38580	1.949328e-05
82	0x3dca014f	0.09863531
83	0xb7278720	-9.985437e-06
84	0x39269f0e	0.00015890246
85	0x3da99e00	0.08282089
86	0xb9906ec8	-0.0002754836
87	0x39c289b2	0.00037105154
88	0x3c604f12	0.013690727
89	0xb93d4e37	-0.00018053582
90	0x3a1b6d2f	0.00059290504
91	0x389188fc	6.939654e-05
92	0xb9bac405	-0.0003562273
93	0x3c8e3cc8	0.017362967
94	0xba1827f0	-0.0005804291
95	0x37ba7b38	2.2230306e-05
96	0xb948caf6	-0.00019149095
97	0x38b36311	8.553838e-05
98	0xb71439b0	-8.834919e-06
99	0xb90f2f3e	-0.00013655142
100	0xb882ab74	-6.230819e-05
101	0xb9879a00	-0.00025863945
102	0xb7f0f7f8	-2.8725699e-05
103	0xb971460d	-0.00023009647
104	0xb90590e1	-0.0001273784
105	0xb93e335d	-0.00018138946
106	0xb8f2acb0	-0.00011571625
107	0x3938aa3d	0.00017611026
108	0xb8970d42	-7.2027105e-05
109	0xb8970f16	-7.203051e-05
110	0xb8183c70	-3.629591e-05
111	0xb9f32f85	-0.00046383977
112	0xb85cbac0	-5.2626012e-05
113	0xb9e4c1fa	-0.00043632073
114	0xb9458884	-0.0001883824
115	0xb93b2bc3	-0.00017850012
116	0x39383a37	0.00017569294
117	0xb889e0f8	-6.574573e-05
118	0xb80d981c	-3.3758683e-05
119	0xb924c402	-0.00015713277
120	0xb9467504	-0.00018926343
121	0xb8f388a8	-0.00011612597
122	0xb7ca21ea	-2.4096069e-05
123	0x384fb400	4.9520284e-05
124	0x392f84c8	0.00016738765
125	0x392ed1d0	0.00016672094
126	0x38cd56de	9.791342e-05
127	0xb93979be	-0.00017688327
128	0x3d82b1a1	0.06381536
129	0x3800f0e8	3.074194e-05
130	0xb9688af0	-0.00022177002
131	0xb8f48acc	-0.000116606796
132	0x37adc190	2.0713342e-05
133	0xb92782f1	-0.0001597514
134	0xb8f69e9a	-0.00011759736
135	0xb9af53a4	-0.00033440918
136	0x388630f8	6.398739e-05
137	0x358ba980	1.0405638e-06
138	0x383affd8	4.458413e-05
139	0xb9ac99ca	-0.00032920978
140	0x3891b172	6.9471906e-05
141	0xb98ad40d	-0.000264794
142	0xb6986ca0	-4.5425986e-06
143	0xb92473f6	-0.00015683458
144	0x391973a6	0.000146343
145	0x397f82f2	0.00024367476
146	0xb99b65d3	-0.0002963977
147	0x391eefbc	0.00015157362
148	0x39d5b29e	0.00040759606
149	0x39321778	0.00016984146
150	0x37abf9d8	2.0501131e-05
151	0xb79bd978	-1.8578707e-05
152	0x39dd03ae	0.00042155146
153	0xb8a739f2	-7.973974e-05
154	0xb9d8941a	-0.00041309075
155	0x388a6dbe	6.600794e-05
156	0x38461640	4.72276e-05
157	0x38113d7c	3.4627956e-05
158	0x37af2260	2.0877633e-05
159	0xbad76666	-0.0016433715
160	0x37d423a0	2.5288959e-05
161	0x39042e45	0.00012605738
162	0xb9117c0f	-0.00013874493
163	0x37b7ea0c	2.1924287e-05
164	0xb95e80a2	-0.0002121949
165	0x38f6df6c	0.0001177181
166	0xb873929c	-5.8072255e-05
167	0x375a6470	1.30171975e-05
168	0x3aa92685	0.0012905156
169	0x3907e523	0.00012959963
170	0x3921802f	0.00015401909
171	0x38a35ebc	7.790091e-05
172	0x38740078	5.817457e-05
173	0xb87fac58	-6.0957245e-05
174	0xb7f482e0	-2.914801e-05
175	0xb8481bac	-4.7709487e-05
176	0xb936dc43	-0.00017438926
177	0x39feeb85	0.0004862213
178	0x38b9aa98	8.853263e-05
179	0x39008f44	0.00012260402
180	0xb8213898	-3.84381e-05
181	0x39071072	0.0001288073
182	0x3a465895	0.00075663003
183	0xb8b78534	-8.750931e-05
184	0x381d567e	3.751227e-05
185	0x38cb5952	9.6964315e-05
186	0xb93a7729	-0.00017782733
187	0xba83877a	-0.0010034882
188	0x3908a4d6	0.00013031377
189	0xb8df2658	-0.00010640611
190	0x39bee7c3	0.000364123
191	0x384df2a8	4.91018e-05
192	0x389c9706	7.46679e-05
193	0x37c056b0	2.292855e-05
194	0x3993df64	0.00028204464
195	0x3911fec6	0.00013923188
196	0xba120f0b	-0.00055716996
197	0x3927b326	0.00015993099
198	0x39456799	0.00018825977
199	0x38d9e1d4	0.0001038943
200	0x39824dc3	0.0002485347
201	0xb92956ef	-0.00016149481
202	0xb93d1f62	-0.00018036136
203	0x39030803	0.00012496118
204	0x392dd339	0.00016577252
205	0x387e9ad4	6.0702514e-05
206	0xb914f881	-0.00014206955
207	0xb9427957	-0.00018546484
208	0x39262419	0.00015844441
209	0x39df2b4f	0.00042566142
210	0xb8deb446	-0.000106193635
211	0xb8f43d28	-0.00011646218
212	0xb803f064	-3.1456715e-05
213	0xb88dd438	-6.762933e-05
214	0x393293c0	0.00017030444
215	0xb8ad3b9e	-8.2603874e-05
216	0x38973c68	7.2114926e-05
217	0x38d75742	0.00010268252
218	0x3890a682	6.8974696e-05
219	0x3905a729	0.0001274614
220	0xb91dd8d0	-0.00015053456
221	0x3a981094	0.001160162
222	0x3931604e	0.00016915912
223	0x3a0f5951	0.0005468326
224	0x3958ae98	0.00020664406
225	0xb850c7ac	-4.9777023e-05
226	0xb8ed5160	-0.00011316198
227	0x39021b9e	0.00012408054
228	0xb82a1978	-4.0554878e-05
229	0xb989c334	-0.00026276114
230	0xb7693580	-1.3900339e-05
231	0xb9170f9d	-0.00014406299
232	0x39951e02	0.00028441852
233	0xb95b2aa4	-0.00020901352
234	0x394a18d3	0.00019273469
235	0xb8bd4a62	-9.026077e-05
236	0x391752b9	0.00014431299
237	0x37454730	1.175869e-05
238	0xb9288081	-0.000160696
239	0xb97d028e	-0.00024128912
240	0x3902e35e	0.00012482467
241	0xb7da3ce0	-2.6015972e-05
242	0x39bf9ab4	0.00036545622
243	0xb78267b0	-1.554549e-05
244	0xb88b22ba	-6.634505e-05
245	0xb90362a9	-0.00012529887
246	0xb9463d91	-0.00018905687
247	0xb418e800	-1.4240504e-07
248	0xb900e16c	-0.00012291007
249	0x38fb642c	0.00011987271
250	0x391dd9df	0.0001505385
251	0x38a0fce8	7.676502e-05
252	0x39127456	0.00013966984
253	0x39872280	0.0002577491
254	0x37987830	1.8175779e-05
255	0x38b16a78	8.459849e-05

bias f4 [5]
0	0xc02331c7	-2.5499132
1	0x3e20d1f3	0.1570509
2	0x4031b186	2.7764602
3	0xbfaadd22	-1.3348734
4	0x3fa97c30	1.3241024

weight f4 [410, 5]
0	0xbfac4ebb	-1.3461527
1	0xc008c76d	-2.137172
2	0x3fb30e36	1.3988712
3	0x3f62e96c	0.88637424
4	0xbfacd81a	-1.3503449
5	0xbfbdae86	-1.4818885
6	0x3ab5b520	0.0013863184
7	0x3fc85ac1	1.5652696
8	0x3fe6c3e5	1.8028532
9	0x3d6f397d	0.058404434
10	0xbfa36f48	-1.2768335
11	0xbf329cef	-0.6977071
12	0x3fb80303	1.4375919
13	0xbdaea8d6	-0.08528297
14	0xbfe1b3db	-1.7633013
15	0xbf829dd8	-1.020442
16	0xba8e2a28	-0.0010846304
17	0x3f826cde	1.0189474
18	0x4018d8bb	2.3882282
19	0x3f0039ad	0.50088006
20	0xbf58990c	-0.8460853
21	0xc0373076	-2.8623328
22	0x3f90118f	1.1255358
23	0x3f300736	0.68761003
24	0xbe267ac2	-0.16257766
25	0xbf0a8fd9	-0.54125744
26	0x39183149	0.0001451421
27	0x3f4fcf41	0.8117562
28	0xbed46f76	-0.41491288
29	0x39f75b5c	0.0004717958
30	0xbf6ab5b8	-0.9168353
31	0xb8e432e8	-0.00010881369
32	0x3f55a4fd	0.8345488
33	0xbe3e14ab	-0.18562572
34	0x3a7f9e1c	0.0009751038
35	0xbf203f22	-0.62596333
36	0xba1a88ca	-0.0005895017
37	0x3f85c2c7	1.0450066
38	0xbbba4aa2	-0.0056851665
39	0xba208837	-0.0006123813
40	0xbf7b2915	-0.9810956
41	0x391b6c50	0.00014822301
42	0x3f2d9008	0.677979
43	0xba248770	-0.0006276285
44	0xb8a12710	-7.684354e-05
45	0xbf06b5ae	-0.5262097
46	0x3922377d	0.00015470195
47	0x3efc74fc	0.49308002
48	0xbf4708df	-0.7774791
49	0xba3d0932	-0.0007211148
50	0xbf1656ac	-0.58726
51	0x37e5eea8	2.741006e-05
52	0x3f273a4c	0.6532333
53	0xba57ea4e	-0.0008236513
54	0x37a15ac0	1.9234954e-05
55	0xbf310097	-0.69141525
56	0xb8dec4d8	-0.0001062245
57	0x3f20ac3c	0.6276281
58	0x3985a60a	0.00025491446
59	0x3e8b3256	0.2718684
60	0xbeeb2166	-0.45923918
61	0x3922c66e	0.00015523445
62	0x3f50cd9c	0.81563735
63	0xbea6514e	-0.32483906
64	0x3abe060e	0.0014497654
65	0xbee0913e	-0.4386081
66	0xbd84cd08	-0.06484419
67	0x3f6565bc	0.8960836
68	0xbde8f30b	-0.11374482
69	0xba92a8b2	-0.0011189191
70	0xbef81dc0	-0.48460197
71	0xb8f51dc8	-0.000116880576
72	0x3edbf287	0.4295847
73	0xbe9b5e54	-0.30345404
74	0x3eafe477	0.34353992
75	0xbf7fa8e5	-0.9986709
76	0xb9118d30	-0.00013880874
77	0x3ef18a95	0.47176042
78	0xbc1f1bf1	-0.009711252
79	0x3b070ee7	0.0020608248
80	0xbed8b477	-0.42325184
81	0xb620e380	-2.397428e-06
82	0x3eb5c4ca	0.355017
83	0x397e31b0	0.00024241838
84	0xb89f24ea	-7.5885866e-05
85	0xbf4e44f9	-0.80573994
86	0xb94cc968	-0.00019529986
87	0x3eebb05a	0.46032983
88	0xba86f781	-0.0010297151
89	0x3a73060a	0.0009270614
90	0xbee74c55	-0.45175424
91	0xb949e606	-0.00019254544
92	0x3ea5def0	0.3239665
93	0xb78c9590	-1.6758946e-05
94	0x3daa6f84	0.08322051
95	0xbe63e9b1	-0.22257115
96	0x386ca774	5.6422738e-05
97	0x3f0214ca	0.5081297
98	0xbcef748f	-0.029230384
99	0x3e6c23f4	0.2306059
100	0xbeae7d3a	-0.34079915
101	0xb869f358	-5.577816e-05
102	0x3efebe69	0.49754646
103	0x391a1344	0.00014693761
104	0x3eb01d41	0.3439732
105	0xbecdcf4d	-0.4019722
106	0xb78f46b0	-1.7079845e-05
107	0x3ec66bbf	0.3875408
108	0xbe22038c	-0.15821666
109	0x3eab8b21	0.33504584
110	0xbed6b6eb	-0.4193643
111	0xbe62e7eb	-0.22158782
112	0x3f4df87b	0.80457276
113	0x3994d458	0.00028386968
114	0xba55f11d	-0.0008161234
115	0xbec6a1e1	-0.3879538
116	0x382642c8	3.963968e-05
117	0x3ea6f2f6	0.3260724
118	0x39ce094e	0.00039298314
119	0x3d83ad79	0.06429572
120	0xbdc047e4	-0.09388712
121	0x39444012	0.00018715885
122	0x3f42b228	0.76053095
123	0xba56f24a	-0.0008199556
124	0x3e3a5050	0.181947
125	0xbebd4a42	-0.36970717
126	0xb74c0a80	-1.2161792e-05
127	0x3f6b92cf	0.9202089
128	0x38b011f4	8.395678e-05
129	0x3a89d478	0.0010515591
130	0xbf04c565	-0.518637
131	0xb6b87020	-5.4966804e-06
132	0x3e5d32c6	0.216014
133	0xb9daa0af	-0.0004169992
134	0x36d47000	6.331131e-06
135	0xbd3f1070	-0.046646535
136	0x39aaea58	0.00032599526
137	0x3dabe55b	0.083933555
138	0xbe0291b8	-0.127509
139	0x3e22ed9e	0.15910956
140	0xbe427db4	-0.18993264
141	0x3943d306	0.00018675262
142	0x3ea852b1	0.3287559
143	0xbb04a31f	-0.002023883
144	0x3eed21fa	0.46314985
145	0xbe886083	-0.26636133
146	0xb8436cd2	-4.659297e-05
147	0x3cdecf30	0.027198404
148	0xbe2c3b12	-0.16819409
149	0x3e5d5ca5	0.21617372
150	0xbf2f9a95	-0.6859525
151	0xb739d810	-1.1077165e-05
152	0x3e99b7e0	0.30023098
153	0xb95347d5	-0.00020149288
154	0x392d5e37	0.00016533663
155	0xbe65a5b9	-0.224265
156	0xb988af6c	-0.0002607064
157	0x3e11f35e	0.14252993
158	0x38bf29ac	9.115352e-05
159	0xb6cefb00	-6.1684987e-06
160	0xbdd1245a	-0.10212012
161	0x390af98b	0.00013253668
162	0x3ebfb8e7	0.37445757
163	0xb9b222ec	-0.00033976824
164	0x39fb9884	0.00047988084
165	0xbd910afc	-0.07082173
166	0x391c5201	0.00014907868
167	0x3d8e84ef	0.06958949
168	0x39719362	0.00023038455
169	0xb98a3174	-0.00026358257
170	0xbeff2935	-0.49836126
171	0x3852272c	5.0104383e-05
172	0x3dede267	0.116154484
173	0xbd8447c8	-0.06459004
174	0x3dc38186	0.09546189
175	0xbf28a1e2	-0.65872014
176	0xb86c8b32	-5.639642e-05
177	0x3f3db2f3	0.7410118
178	0xbbaba445	-0.0052380883
179	0x3ce43c75	0.02786086
180	0xbe86b724	-0.263116
181	0x395a8d74	0.00020842795
182	0x3d12bbc8	0.035823613
183	0xbe433e38	-0.19066703
184	0x3e5bcddd	0.2146525
185	0xbe13f5e3	-0.14449267
186	0xb89c227a	-7.4450814e-05
187	0x3e2a2f1d	0.16619535
188	0xb83ddc18	-4.526609e-05
189	0xb9b3c0dc	-0.00034285232
190	0xbea92fb9	-0.33044222
191	0xb8a5b4d3	-7.901494e-05
192	0x3e8b37cb	0.27191004
193	0xb907854e	-0.00012924263
194	0x3e7d7cc1	0.24754621
195	0xbf0a8624	-0.5411093
196	0x390b32de	0.00013275023
197	0x3dad03bc	0.08447978
198	0xb8e850c4	-0.00011077666
199	0x3caaa940	0.020832658
200	0xbf1c3c99	-0.61029965
201	0x394af259	0.00019354503
202	0x3d455848	0.048179895
203	0xbe6269bc	-0.22110647
204	0x3ca4041d	0.020021493
205	0xbe45327c	-0.1925754
206	0x381c86dc	3.7318896e-05
207	0x3e2f0517	0.17091785
208	0xbe3cb586	-0.1842862
209	0x3e769cb7	0.2408322
210	0xb906d4ec	-0.00012858555
211	0xb79d1898	-1.872731e-05
212	0x38b45a3e	8.599878e-05
213	0xb928346c	-0.00016041257
214	0xb8012538	-3.079066e-05
215	0xbcb8c4e2	-0.022554819
216	0x38bd1130	9.015424e-05
217	0x3e521ae9	0.20518078
218	0xbee6e8db	-0.4509953
219	0x3e4e91fe	0.20172879
220	0xbe34628d	-0.17615719
221	0x399077b0	0.00027554994
222	0x3ed063ad	0.40701047
223	0xbe37be21	-0.17943622
224	0x3ef38ce5	0.47568431
225	0xbb89d7a9	-0.004206617
226	0x38d2836b	0.00010038059
227	0x3e9af047	0.30261442
228	0xbebbe7f8	-0.36700416
229	0x3e315eed	0.17321368
230	0xb9dcc366	-0.00042107253
231	0x3877c1e0	5.906995e-05
232	0x393db5ce	0.00018092172
233	0xb96413fe	-0.00021751222
234	0x39f4ef2d	0.00046717506
235	0xbe9bda38	-0.30439925
236	0x393c3e9c	0.00017952401
237	0x3df0cfbe	0.11758374
238	0xbe8a4ad2	-0.27010208
239	0x3e23f387	0.16010867
240	0xbedeac93	-0.4349104
241	0x389afceb	7.390402e-05
242	0x3dcd94a3	0.10038116
243	0xbe3c72f1	-0.18403222
244	0x3992cff0	0.00028002216
245	0xb9712a62	-0.0002299934
246	0x394ac423	0.00019337288
247	0x39c09d28	0.00036738184
248	0xb9dae589	-0.00041751217
249	0x39acb20e	0.00032939058
250	0xbe7e9263	-0.2486053
251	0xb82f17b0	-4.1745312e-05
252	0x3d110895	0.035408575
253	0x3854dc36	5.0749826e-05
254	0x3a61207c	0.00085879094
255	0xbd061401	-0.03273392

bias f4 [410]
0	0x408458f7	4.13586
1	0x4042c37b	3.0431812
2	0x40214bda	2.5202546
3	0x4048af20	3.1356888
4	0x400f8b0f	2.2428625
5	0x3f7f4b59	0.99724346
6	0x3f6285e6	0.8848556
7	0x3f334a28	0.7003503
8	0x3f368ba4	0.71306825
9	0x3efe2297	0.49635765
10	0x3f6d3caf	0.9267072
11	0x3f374778	0.7159343
12	0x3f25da5c	0.64786315
13	0x3f548156	0.8300985
14	0x3f462ace	0.77409065
15	0x3f2270ef	0.63453573
16	0x3f6f0b81	0.9337693
17	0x3f1c33ec	0.61016726
18	0x3f2254e4	0.6341078
19	0x3f801737	1.0007085
20	0x3db58584	0.08863357
21	0x3f5452cf	0.82938856
22	0x3f790df6	0.9728693
23	0x3f543232	0.8288909
24	0x3f1c206b	0.60986966
25	0x3ed4ddc8	0.41575456
26	0x3f1b2fc7	0.6061978
27	0x3d9ec4f6	0.07752411
28	0x3ef3da31	0.47627404
29	0x3ef47319	0.47744063
30	0x3e376d2b	0.17912738
31	0x3eef9c14	0.46798766
32	0x3f097bc5	0.5370448
33	0x3e279d3e	0.16368577
34	0x3f3e1e09	0.7426458
35	0x3eabd770	0.33562803
36	0x3e7644fe	0.24049756
37	0x3f53871a	0.82628024
38	0x3e709f7a	0.23498335
39	0x3dc7f5ee	0.09763704
40	0x3f520cb7	0.8205065
41	0x3e117222	0.14203694
42	0xb8ae8ec8	-8.3235616e-05
43	0x3e80eed0	0.251822
44	0x3e1865e9	0.14882626
45	0x3c3ca0d4	0.011512954
46	0x3a04a41b	0.0005059854
47	0x3ccefa05	0.025265703
48	0x3dec24d8	0.11530465
49	0x3983d226	0.0002514284
50	0x3d47f7bb	0.04882024
51	0x3d9ed5ef	0.07755648
52	0x3d8d4201	0.06897355
53	0x3a833e14	0.0010013008
54	0x3e2a02c4	0.16602618
55	0x3e860531	0.26175836
56	0x3e8e90d2	0.27844864
57	0x3e0be809	0.13662733
58	0x3cfbe21e	0.03074747
59	0xb99fa455	-0.0003044928
60	0x3ea04cff	0.31308743
61	0x3c78a2ba	0.015175516
62	0x3f2c25b2	0.6724502
63	0x3995f3aa	0.00028601039
64	0x39092534	0.00013079197
65	0x3da6167e	0.08109759
66	0xb97d6b2a	-0.00024167882
67	0xb913f764	-0.00014111173
68	0x3d886647	0.06660133
69	0x3a9e5077	0.0012078424
70	0x38e41934	0.00010876582
71	0x3c67acea	0.014140347
72	0x388c184e	6.680247e-05
73	0x3a8e28ff	0.0010845958
74	0x3e44d0c0	0.19220257
75	0xb84d1b60	-4.8901304e-05
76	0x38e4e380	0.000109142624
77	0x39290864	0.00016120222
78	0x3ea4bde8	0.32176137
79	0x3939a0f8	0.0001770294
80	0x3e658330	0.22413325
81	0xb9751636	-0.00023373295
82	0x3c791e5e	0.015204994
83	0x3aba3b75	0.0014208393
84	0x3d192287	0.037386443
85	0xb9168404	-0.00014354294
86	0x3edd904d	0.43274155
87	0x3a7bf7a5	0.0009611792
88	0x3d14edfd	0.036359776
89	0x3b97aebd	0.0046289847
90	0x3da23028	0.07919341
91	0x3c9d9ddc	0.019240312
92	0x3d890d02	0.06691934
93	0x3e5894e2	0.21150544
94	0x3d61e413	0.05514915
95	0x3bca43e6	0.006172645
96	0x3c6120c9	0.013740727
97	0x3a20c5ef	0.000613301
98	0xb99bc802	-0.0002971292
99	0x395dd4e4	0.0002115551
100	0xb975c99d	-0.00023440128
101	0x3a53626d	0.0008063678
102	0xb9382b6b	-0.00017563782
103	0x3e9e27b8	0.30889678
104	0x3f0b5036	0.5441927
105	0xb8f2c254	-0.00011575656
106	0x3ef0c2f2	0.4702373
107	0x3cae9753	0.021312391
108	0xb8436e18	-4.6594156e-05
109	0xb935db0b	-0.00017343105
110	0x38f67b1b	0.00011753124
111	0x3dd1b51d	0.10239623
112	0x3dd9706f	0.10617148
113	0x3d30ff6f	0.04321235
114	0x3e9e299a	0.30891114
115	0xb95a89c2	-0.00020841419
116	0xb993d386	-0.00028195622
117	0x38d8372a	0.00010309958
118	0x399799f8	0.0002891568
119	0x3c54192f	0.012945457
120	0x38959bb6	7.133877e-05
121	0x3945341d	0.00018806798
122	0x3e26ac9f	0.16276787
123	0x3d73b401	0.059497837
124	0xb7dda304	-2.6421163e-05
125	0x3800711c	3.062292e-05
126	0xb6f44d30	-7.2807525e-06
127	0x37cdf3de	2.4551464e-05
128	0x3e3bb286	0.1832982
129	0x3e181b12	0.14854077
130	0x3d01a88f	0.03165489
131	0x38d0de58	9.959628e-05
132	0xb9a104cf	-0.00030711896
133	0x3780c6d0	1.5351368e-05
134	0xb87dd88c	-6.0521576e-05
135	0x3c1e2f69	0.009654858
136	0xb8685ac2	-5.5397635e-05
137	0x3b85f8a6	0.004088479
138	0x3a762cdd	0.00093908404
139	0x38784ab4	5.919738e-05
140	0x3d0d72a5	0.03453316
141	0xb91754ca	-0.00014432069
142	0x3aef7ae4	0.0018270877
143	0x3bb8d3ae	0.0056404686
144	0x3a0b3394	0.0005310115
145	0xb7101a60	-8.58921e-06
146	0xb9a65ac1	-0.00031729604
147	0xb91ca3bf	-0.0001493832
148	0x3a209ff6	0.00061273517
149	0xb88e0b78	-6.773224e-05
150	0x3840d204	4.597196e-05
151	0x372dead0	1.0366275e-05
152	0x3a94044d	0.0011292786
153	0xb9724ba0	-0.00023107091
154	0x3c9a797a	0.018856753
155	0xb779e170	-1.4894045e-05
156	0x3cb668e7	0.022266818
157	0xb9920bcd	-0.00027856082
158	0x3985f988	0.00025553652
159	0x3b2ce066	0.002637887
160	0x3e0ee1a4	0.13953263
161	0x38575da0	5.134719e-05
162	0x38df16f4	0.00010637744
163	0xb8c62d5c	-9.4498246e-05
164	0x3da487f8	0.080337465
165	0xb9ad20e8	-0.00033021648
166	0x3895c2ec	7.141181e-05
167	0x37f0dde0	2.8713548e-05
168	0x3957a1f7	0.00020564334
169	0x38129118	3.494424e-05
170	0xb8a69bb6	-7.9445e-05
171	0xb9051052	-0.00012689948
172	0xb90e9391	-0.00013597148
173	0x3de3c09d	0.111207224
174	0xb9a7ce7e	-0.0003200657
175	0xb99bf17d	-0.00029743827
176	0xb8d307a2	-0.00010062686
177	0x39baeb06	0.0003565179
178	0x39859265	0.0002547681
179	0xb9328982	-0.00017026628
180	0xb9379e81	-0.00017511287
181	0x39173380	0.00014419667
182	0x3b2c8522	0.002632447
183	0xb8e5756c	-0.000109414425
184	0xb9216396	-0.00015391255
185	0x39663fbe	0.00021958255
186	0x3d07a41e	0.0331155
187	0x39c811ec	0.00038160325
188	0xbe3886ba	-0.18020144
189	0xb958018b	-0.0002059994
190	0xb8300f18	-4.1975727e-05
191	0xb9960a0a	-0.0002861771
192	0x382b5b10	4.0854386e-05
193	0xbdaf3a37	-0.085560255
194	0x3b9a612c	0.004711291
195	0xb94bf0a2	-0.00019449231
196	0x3a683dac	0.00088592875
197	0x38f4aed0	0.00011667388
198	0x39fafedb	0.00047873598
199	0xb95ff716	-0.00021358984
200	0xb9913ab2	-0.00027700287
201	0x39af3740	0.00033419766
202	0xb9047f91	-0.00012636023
203	0xb9914c2a	-0.00027713302
204	0xb9b7f2e4	-0.00035085448
205	0xb8720793	-5.770435e-05
206	0x398a152c	0.00026337185
207	0xbb09f10b	-0.0021048214
208	0xbe0585ba	-0.13039294
209	0x39e19958	0.00043029594
210	0x3767c890	1.381537e-05
211	0xb8e20752	-0.00010777883
212	0xb9231bb4	-0.00015555212
213	0x384edfda	4.9322705e-05
214	0x3a1bf399	0.00059490796
215	0xb7b84e7c	-2.1971056e-05
216	0xb8b01e80	-8.398015e-05
217	0xb9acc5d4	-0.0003295379
218	0x38fcb20c	0.0001204946
219	0xb981f3ef	-0.00024786542
220	0x3a21dc0c	0.0006174452
221	0xb7993b90	-1.8266757e-05
222	0x39b865fe	0.00035171205
223	0x39a2e47e	0.00031069288
224	0x380ff530	3.4322205e-05
225	0xb808e5b0	-3.263884e-05
226	0xb9a0cf87	-0.00030672198
227	0xb89b3b8c	-7.4020674e-05
228	0xbdbb0316	-0.09131448
229	0xb69afe60	-4.619171e-06
230	0xb80fe86a	-3.431031e-05
231	0xb9444a09	-0.00018719597
232	0x39597f2f	0.00020742112
233	0xb8bc3950	-8.975214e-05
234	0xb8f99a12	-0.00011901943
235	0xbd424702	-0.047431
236	0x39a73361	0.00031891002
237	0xb98b97b8	-0.00026625185
238	0xb992447d	-0.00027898318
239	0x389ed910	7.574458e-05
240	0xbe870e82	-0.26378256
241	0xb9a3e089	-0.00031257074
242	0x398bd437	0.00026670258
243	0xb9c75515	-0.0003801963
244	0x37238d80	9.748503e-06
245	0x39eac93e	0.00044781895
246	0x3a206b55	0.00061195093
247	0x39820a12	0.00024803035
248	0x38932052	7.015526e-05
249	0xb8024718	-3.1060626e-05
250	0xb927bb76	-0.00015996196
251	0xb997cd43	-0.00028953896
252	0xb7d4be08	-2.536086e-05
253	0xb99ce07f	-0.000299219
254	0xb8cc44e8	-9.740313e-05
255	0x3798aa48	1.8199105e-05
