Models/simulations/passanger/T_0_R_1_model.pt (torch, 20703 bytes, 4 tensors)

weight f4 [5, 430]
-0.5918037 -0.43919623 -0.53094697 -0.0030835664 0.0014647981 -0.24429609 -0.0643557 -0.21510677
-0.0019683242 -0.039381806 -0.00064778025 -0.0005893592 -0.09701766 0.00036467868 -0.0638895 0.00049384346
0.0005652267 -0.0040067364 -0.0014777703 0.00041943195 -0.00012350128 -0.0007276413 -0.04686956 0.043755136
-0.115092315 0.0020748114 -0.00022795843 0.00015574253 0.00025520317 -0.0003240607 -2.4145134e-05 -0.00015597482
0.3711389 -0.39402995 -3.896575e-05 -8.07904e-05 0.00057698705 -0.0002684989 -0.0002799568 -0.00014593566
0.00048548938 -0.30292296 -8.428981e-05 -0.00071064784 0.00019558922 -0.22153656 -0.16451213 0.4032158
-0.00047573613 -0.00019333078 0.00013037278 2.7482572e-05 5.318559e-05 0.00026128095 0.0010903346 0.00047605514
0.00028094754 0.07486678 -0.00045585367 -0.00024945024 0.00018864067 0.9684378 0.18191344 2.8549028e-05
-7.983706e-05 -6.656526e-05 -0.0019643465 -0.00010502986 0.00043195827 -0.00046248542 0.24075852 0.00021614964
0.0006364196 0.0003457483 0.00069666584 9.142091e-05 0.16620399 -6.2860316e-05 0.00029373838 0.00088232727
-0.00019304511 -0.00037035777 -8.16016e-05 -0.0001763236 0.00016243904 0.0011822298 0.0013810662 2.557665e-05
0.000106782216 0.00014512113 0.00010492027 -0.009803271 -0.000103238475 0.0017864134 -0.00016643803 3.6301848e-05
-0.5441956 0.2491735 5.2385134e-05 0.0008150503 0.0003927932 -0.0001775068 -0.00013008119 0.002362539
-0.000112376525 0.00017833713 -0.00024981855 8.434095e-05 0.00012975147 0.22013561 0.00016826557 -4.3035427e-05
8.818267e-05 1.9661806e-05 0.00014739373 -9.4672476e-05 -0.00020651499 -1.9243918e-05 3.2132448e-05 3.2040225e-05
8.502559e-05 -0.0005986048 8.910312e-05 3.2128883e-06 6.732828e-05 8.986547e-05 -0.00026066223 0.00010456472
-0.000272816 -0.00014927868 -0.00023097405 0.00016243599 -0.00016852119 0.00017838264 -0.00022045999 0.18922201
0.0003378206 -0.00019229636 0.15631661 -0.00015731106 -7.49452e-05 7.666413e-05 -0.0001277932 -0.00079973007
0.00011106228 0.054693293 -0.00019367611 -5.613755e-05 -0.00014768889 6.1015424e-05 -0.00026115368 -0.00019270502
0.00013250006 -0.00096110994 6.676477e-06 0.00012359867 2.2188186e-05 0.0010724436 -0.00012491712 -1.7469414e-05
0.00012098051 0.14424294 7.972561e-05 0.00013090888 -0.00019163023 0.67916393 -8.185087e-05 7.541619e-05
-0.0002359358 7.375506e-05 -0.00048436783 7.5487886e-05 0.00016912127 -0.0012897549 3.5837e-05 0.39295053
-5.4106087e-05 0.0001731461 8.1601676e-05 -8.474465e-05 -0.00017775795 5.0866496e-05 -7.409399e-05 0.00022498544
0.00016696856 0.000118344935 7.89121e-05 4.802365e-05 -0.00021957509 -0.0001276517 0.00013474826 -2.2587177e-05
0.00038302585 -8.313272e-05 0.00017585405 0.00015273341 0.00013779964 0.00046516734 -7.688817e-05 -0.00016345798
-3.4038967e-06 5.737999e-05 0.00010952835 -9.320206e-05 -0.00016857317 0.0011030395 0.00024885187 -0.000114941286
3.0615774e-05 -4.7178837e-05 -5.815715e-05 -0.000106951324 0.00017638884 1.1179858e-05 6.620702e-05 -0.0001019733
-1.9823623e-05 8.212101e-05 -0.00031011854 -0.00028191454 -1.915684e-05 0.000106210515 -0.0001496885 -9.0142115e-05
-0.00012774617 0.00015141381 4.012356e-06 6.1263127e-06 -2.5668734e-05 6.1871804e-05 9.7922806e-05 8.471048e-06
-0.00030049676 0.0003848489 4.0521976e-05 4.5082124e-06 0.00018426371 0.0001051085 0.00010096596 0.00037878804
-0.0001425532 0.00010752924 -0.00039806997 0.00017201038 9.9252255e-05 0.00017532389 -0.00017437492 0.00012111383
0.00017453557 0.00042079051 -0.00010984337 4.441089e-05 2.1682485e-05 -9.143842e-05 0.00022234401 0.00037330424
00000000: 7380 17bf 54de e0be 24ec 07bf a915 4abb
00000010: 78fe bf3a c128 7abe eccc 83bd f344 5cbe
00000020: 00ff 00bb d14e 21bd cccf 29ba 3a7f 1aba
00000030: 32b1 c6bd 5832 bf39 80d8 82bd 4675 013a
00000040: b92b 143a f14a 83bb beb1 c1ba 34e7 db39
00000050: 1f80 01b9 2ebf 3eba 4cfa 3fbd 9638 333d
00000060: 85b5 ebbd 8ff9 073b 2008 6fb9 d14e 2339
00000070: cacc 8539 b1e6 a9b9 488b cab7 2c8d 23b9
00000080: eb05 be3e 4bbe c9be 286f 23b8 046e a9b8
00000090: f240 173a 50c5 8cb9 2ac7 92b9 4e06 19b9
000000a0: 4889 fe39 b818 9bbe bfc4 b0b8 c54a 3aba
000000b0: 1517 4d39 7bda 62be de75 28be 4d72 ce3e
000000c0: 396c f9b9 d6b8 4ab9 adb4 0839 608a e637
000000d0: 9813 5f38 89fc 8839 8fe9 8e3a 0a97 f939
000000e0: 244c 9339 c153 993d a5ff eeb9 a5c8 82b9
000000f0: d8cd 4539 8aeb 773f 8447 3a3e 927c ef37
00000100: 326e a7b8 f498 8bb8 44bc 00bb 7a43 dcb8
00000110: 7578 e239 be79 f2b9 6789 763e 3aa6 6239
00000120: 65d5 263a 8d45 b539 74a0 363a 3ab9 bf38
00000130: 6131 2a3e e0d3 83b8 e600 9a39 fb4b 673a
00000140: 276c 4ab9 942c c2b9 8721 abb8 82e3 38b9
00000150: 6654 2a39 0df5 9a3a e404 b53a 708d d637
00000160: 44f0 df38 a82b 1839 a408 dc38 e69d 20bc
00000170: bc81 d8b8 1626 ea3a de85 2eb9 d042 1838
00000180: 6750 0bbf 5727 7f3e 1cb8 5b38 1aa9 553a
00000190: d0ef cd39 1e21 3ab9 6766 08b9 d4d4 1a3b
000001a0: b0ab ebb8 0200 3b39 14fa 82b9 34e0 b038
000001b0: e50d 0839 3b6b 613e 7270 3039 f080 34b8
000001c0: b6ee b838 68ef a437 b48d 1a39 e68a c6b8
000001d0: f28b 58b9 006e a1b7 f4c5 0638 ee62 0638
000001e0: c44f b238 b0eb 1cba e0dc ba38 009d 5736
000001f0: 9832 8d38 2876 bc38 7ea9 88b9 c249 db38
00000200: be08 8fb9 b187 1cb9 a031 72b9 9453 2a39
00000210: 10b5 30b9 3a0c 3b39 472b 67b9 6ac3 413e
00000220: 831d b139 29a3 49b9 7611 203e def3 24b9
00000230: e62b 9db8 bec6 a038 3a00 06b9 faa4 51ba
00000240: 1cea e838 1306 603d 8915 4bb9 3c75 6bb8
00000250: efdc 1ab9 d0ea 7f38 74eb 88b9 dc10 4ab9
00000260: b7ef 0a39 fff2 7bba 8006 e036 449a 0139
00000270: c420 ba37 3c91 8c3a 2ffc 02b9 488b 92b7
00000280: ebb6 fd38 6cb4 133e 5c32 a738 9644 0939
00000290: 59f0 48b9 b0dd 2d3f 5aa7 abb8 c228 9e38
000002a0: 8965 77b9 f2ac 9a38 c0f2 fdb9 404f 9e38
000002b0: 2556 3139 fe0c a9ba b04f 1638 d030 c93e
000002c0: f8ef 62b8 8d8e 3539 9121 ab38 f0b8 b1b8
000002d0: 8964 3ab9 7c59 5538 e862 9bb8 12ea 6b39
000002e0: 4814 2f39 f42f f838 9c7d a538 006d 4938
000002f0: bd3d 66b9 3eda 05b9 364b 0d39 9879 bdb7
00000300: dcd0 c839 8a57 aeb8 7665 3839 1027 2039
00000310: 4f7e 1039 b4e1 f339 063f a1b8 eb65 2bb9
00000320: 806e 64b6 4cab 7038 96b2 e538 7a75 c3b8
00000330: 04c3 30b9 dd93 903a 5578 8239 a20c f1b8
00000340: 7069 0038 e4e1 45b8 c4ed 73b8 0e4b e0b8
00000350: 05f5 3839 2091 3b37 a0d8 8a38 80da d5b8
00000360: e84a a6b7 6238 ac38 6897 a2b9 eecd 93b9
00000370: 00b3 a0b7 56bd de38 b3f5 1cb9 ae0a bdb8
00000380: 9af3 05b9 d6c4 1e39 e0a1 8636 a090 cd36
00000390: 3053 d7b7 2cc1 8138 e85b cd38 e01e 0e37
000003a0: fe8b 9db9 8cc5 c939 24f6 2938 4045 9736
000003b0: ea36 4139 b26d dc38 b0bd d338 1298 c639
000003c0: 557a 15b9 5281 e138 0cb4 d0b9 af5d 3439
000003d0: a625 d038 26d7 3739 69d8 36b9 7efe fd38
000003e0: 8903 3739 8c9d dc39 b65b e6b8 d445 3a38
000003f0: c8e2 b537 a1c2 bfb8 0425 6939 0cb8 c339

bias f4 [5]
3.1440501 -1.1721702 2.6680043 0.9681997 0.08599748
00000000: 1e38 4940 ac09 96bf 95c0 2a40 efdb 773f
00000010: 721f b03d

weight f4 [410, 5]
0.56302017 -0.17036287 0.57202286 0.5509281 -2.1412804 0.72516936 -0.5135138 1.4450451
-2.229804 -0.36949632 1.0908216 0.9003379 0.18428536 -0.5194063 3.3528197 1.2134308
0.90282464 1.0186 -0.053033546 -1.6781986 0.8990942 1.2138628 1.4216943 -2.5219188
0.20231888 0.76823217 -0.1441861 0.72410053 0.5732749 0.015110726 1.1442143 -0.19680235
0.56232756 0.059041154 0.0008572295 0.8140345 -0.5569088 0.15043484 1.1662946 0.00029798996
0.9063124 -0.0452517 0.4095906 0.003955244 -4.0957253e-05 0.8799173 -0.0048565166 0.688265
0.0019487151 0.00046792737 0.7476279 -0.53488773 0.39291784 0.10590164 -3.8406593e-05 0.49908364
-0.23544312 0.60096425 0.00086340157 -0.00022611313 0.81410795 -0.40049955 0.06930256 0.1416641
-8.438443e-05 0.6124432 -0.3268438 0.6628172 0.29087794 8.60734e-05 0.6204648 -0.23260696
0.7750355 0.0006093558 0.00012855939 0.39099643 -0.3995574 0.51081413 0.07055308 -9.4518575e-05
0.25279593 -0.27381694 0.6281001 0.0003359299 -4.3248372e-05 0.6516995 -0.345461 0.5828605
0.00240578 -3.034802e-07 0.53520143 -0.56543326 0.18763584 0.00037277385 -0.00011984485 0.9049758
-0.15693116 0.44987643 0.0865507 -0.39803493 0.57543427 0.0017795481 0.6757657 -0.00053620327
-0.32001793 0.29538754 -0.53393555 0.3030829 0.115934476 -5.9018377e-05 0.32241452 -0.0001672433
0.3786112 -0.0018901613 -0.00032423474 0.6585816 -5.66518e-05 0.09262341 -0.00061441644 -0.00024440087
0.45843056 -0.17134856 0.4303602 0.0013240027 0.00027431428 0.24224107 -0.18995354 0.09258241
0.006921977 0.00015075806 0.018155722 -0.07768497 0.16409843 9.922737e-05 -4.159368e-05 0.13844605
-0.046675354 0.18022528 -0.00026373504 -0.000101280064 0.5805567 -0.5625997 0.040569995 0.13884549
-0.00010018014 0.04691123 -0.3838762 0.23100089 0.0012445364 0.0002093056 0.27484483 -0.23567852
0.04859503 0.2743291 3.6700272e-05 0.18630072 -0.089086294 0.598903 0.0056544985 -0.06618449
0.10558896 -6.4084306e-05 0.30471292 -0.508831 -0.06217993 0.32332188 -0.6787205 0.36607596
0.20599212 0.00016938474 0.0049894936 -0.00052696373 0.0048390557 1.0312113e-05 0.00012613827 0.33054802
-0.02073312 0.3255534 0.11844216 8.842726e-05 0.3386536 -0.26148856 0.105156 -0.00017046354
-0.00017242722 0.5430806 -0.23991549 0.06992433 0.0014568508 0.00020658958 0.39002964 -0.52451104
0.03372916 0.04769321 8.5603766e-05 0.0084021855 -0.3628583 0.45206612 0.1854489 -0.00030772615
0.09054184 -0.00028757958 0.45306748 0.00024745197 -0.00016285806 0.5886621 -0.04009908 0.16743407
0.120948255 7.584515e-05 0.00010652747 -7.708586e-05 4.941065e-05 0.00011814634 -7.8993726e-05 0.06267918
-0.18651721 0.3093341 0.55563366 -5.98864e-05 0.031359587 -0.12612128 0.02896001 -0.0004193621
-0.00012128748 0.45526698 -0.013349456 0.88580894 -0.0005038467 -0.00012011686 0.5080906 -0.0007914423
0.32326493 -0.00036943742 0.000100055506 0.077552445 -0.39590147 0.066658884 0.6810039 5.3327545e-05
0.2685572 -0.30956316 0.4571018 0.017885383 6.936796e-05 0.00046305062 -0.00012513445 0.0004386474
0.0003742213 0.00012186992 0.23908272 -0.24353449 0.16360746 0.0002983576 0.000101031445 0.21978126
00000000: 1722 103f 9b73 2ebe 1770 123f a009 0d3f
00000010: bd0a 09c0 b3a4 393f a475 03bf 3df7 b83f
00000020: 1cb5 0ec0 9f2e bdbe 0ba0 8b3f 8b7c 663f
00000030: 4db5 3c3e d0f7 04bf 9994 5640 b351 9b3f
00000040: 841f 673f 7c61 823f b439 59bd 36cf d6bf
00000050: 0a2b 663f db5f 9b3f 14fa b53f 1e67 21c0
00000060: ae2c 4f3e ddaa 443f 85a5 13be a75e 393f
00000070: 25c2 123f fa92 773c 9d75 923f 8e86 49be
00000080: b3f4 0f3f 23d5 713d b3b7 603a 9164 503f
00000090: 9391 0ebf 970b 1a3e 2449 953f 893b 9c39
000000a0: 1704 683f d959 39bd dcb5 d13e fe9a 813b
000000b0: 84c9 2bb8 4342 613f 6a23 9fbb 2332 303f
000000c0: 076c ff3a 2654 f539 8b64 3f3f 67ee 08bf
000000d0: 872c c93e f6e2 d83d c416 21b8 e487 ff3e
000000e0: 0018 71be cbd8 193f e655 623a c818 6db9
000000f0: 6169 503f 470e cdbe 80ee 8d3d 6510 113e
00000100: 8cf7 b0b8 14c9 1c3f 1258 a7be 63ae 293f
00000110: f4ed 943e 4e82 b438 c8d6 1e3f 8530 6ebe
00000120: ba68 463f 2dbd 1f3a e6cd 0639 af30 c83e
00000130: ca92 ccbe b7c4 023f 227e 903d 4638 c6b8
00000140: 786e 813e bc31 8cbe 2bcb 203f bf1f b039
00000150: 9665 35b8 c7d5 263f 44e0 b0be 5936 153f
00000160: 4aaa 1d3b 00ee a2b4 f602 093f 3cc0 10bf
00000170: 9c23 403e dc70 c339 3755 fbb8 7eac 673f
00000180: 90b2 20be 3456 e63e 7e41 b13d 3ccb cbbe
00000190: a94f 133f ba3f e93a fbfe 2c3f fe8f 0cba
000001a0: 64d9 a3be 093d 973e 00b0 08bf af2d 9b3e
000001b0: 0e6f ed3d 808a 77b8 8413 a53e 085e 2fb9
000001c0: 54d9 c13e 4abf f7ba 0dfe a9b9 ce98 283f
000001d0: 689d 6db8 58b1 bd3d ca10 21ba ee22 80b9
000001e0: 69b7 ea3e ff75 2fbe 2c58 dc3e 298a ad3a
000001f0: d7d1 8f39 0b0e 783e 2e83 42be d99b bd3d
00000200: c0d1 e23b cf14 1e39 4fbb 943c 4c19 9fbd
00000210: 6b09 283e 4a18 d038 e074 2eb8 cdc4 0d3e
00000220: a82e 3fbd fa8c 383e eb45 8ab9 5266 d4b8
00000230: 5d9f 143f 8906 10bf b92c 263d 832d 0e3e
00000240: ce17 d2b8 fd25 403d 6c8b c4be 7f8b 6c3e
00000250: b61f a33a 0b79 5b39 76b8 8c3e b655 71be
00000260: 950b 473d dd74 8c3e 9eee 1938 9ec5 3e3e
00000270: e072 b6bd b551 193f 5f49 b93b bc8b 87bd
00000280: 063f d83d 0065 86b8 5503 9c3e c042 02bf
00000290: 62b0 7ebd 728a a53e a0c0 2dbf 4f6e bb3e
000002a0: 99ef 523e df9c 3139 e87e a33b f023 0aba
000002b0: f190 9e3b 3002 2d37 fc43 0439 973d a93e
000002c0: 81d8 a9bc efae a63e ce91 f23d 0672 b938
000002d0: 0164 ad3e d4e1 85be 075c d73d 75be 32b9
000002e0: 94cd 34b9 5507 0b3f 68ac 75be 7d34 8f3d
000002f0: cdf3 be3a f89f 5839 f7b1 c73e 5b46 06bf
00000300: 9627 0a3d f559 433d 2c86 b338 52a9 093c
00000310: 90c8 b9be 3675 e73e 51e6 3d3e 4e56 a1b9
00000320: 006e b93d 47c6 96b9 76f8 e73e 71bc 8139
00000330: e1c4 2ab9 8fb2 163f ef3e 24bd d673 2b3e
00000340: b8b3 f73d 0e0f 9f38 8067 df38 28a9 a1b8
00000350: 483e 4f38 55c5 f738 6fa9 a5b8 f15d 803d
00000360: 5efe 3ebe 0a61 9e3e 023e 0e3f 882e 7bb8
00000370: e972 003d f025 01be 8b3d ed3c d4dd dbb9
00000380: b85b feb8 c118 e93e adb7 5abc 60c4 623f
00000390: 9414 04ba 40e7 fbb8 3a12 023f cb78 4fba
000003a0: fb82 a53e 0db1 c1b9 e4d4 d138 d1d3 9e3d
000003b0: 99b3 cabe 7484 883d 4656 2e3f 04ac 5f38
000003c0: 5480 893e 107f 9ebe 3f09 ea3e 5e84 923c
000003d0: a479 9138 9ac5 f239 8636 03b9 42fa e539
000003e0: 2233 c439 6a94 ff38 1ad2 743e 1b61 79be
000003f0: b788 273e e16c 9c39 d8e0 d338 570e 613e

bias f4 [410]
3.4458935 3.8599982 3.6290529 2.5909777 3.5741656 1.1511813 1.1590172 0.7050328
1.27068 0.6755702 0.42934638 0.5224791 0.7159368 0.46629137 0.66056764 0.8197135
0.65142584 1.0807292 0.4963143 0.5709684 0.53120995 0.80536264 0.7940183 0.18117827
0.8597427 0.7534207 0.1299605 0.15329722 0.1128752 0.6833702 0.23955317 0.34065852
0.40055445 0.049878277 0.009316345 0.5095802 0.23529391 0.39032748 0.13265869 0.18957584
0.21010967 0.41589892 0.00023896593 0.06825033 0.033626705 0.54938936 0.079975404 0.09398707
0.20199111 0.00037776225 0.18926436 0.44189528 0.11211617 0.31250075 0.3385285 0.60290766
0.055963103 0.11136853 0.59193784 0.510729 0.40465844 0.26007798 0.09294881 0.18412045
0.14705141 0.004989196 0.50535965 0.13038823 0.04047552 0.0009653424 0.069034725 0.03638099
0.00020352248 0.012656215 0.06749788 -0.00010147303 0.08869277 -5.1718715e-05 0.24284396 0.0027367931
0.00021289107 0.048425708 0.1624267 -0.00010709959 0.00092373556 0.00094499683 0.42887005 0.09368059
0.07639948 0.35946965 -0.00010165634 0.018982423 0.05246447 0.029105213 0.0012720126 -3.6943544e-05
0.13133706 0.034006763 0.006722639 0.11047333 0.00021901453 0.00022858146 0.033711378 0.21318838
0.016694853 0.0003969182 0.018349541 0.00022304666 0.20290317 0.057917364 1.802641e-05 0.18959895
0.01253085 0.2588906 0.19063628 6.417243e-05 -0.00010858354 0.0738367 4.0093117e-05 0.0002158955
0.083458796 0.32523033 4.270442e-05 -8.403562e-05 -2.3832643e-05 0.07425821 4.23905e-05 4.3579334e-05
0.0003987419 -8.399679e-05 0.00020198233 0.00024674958 -0.0002010277 0.020343713 -0.009777878 0.024205623
-0.0001614512 -7.070141e-05 -0.00012298918 0.008985752 -0.00022767956 0.016323289 -0.00039779936 0.046511333
0.027627507 0.0004971141 9.050268e-05 0.00025692902 -6.519993e-05 -8.8126755e-05 -0.012622378 0.16878524
0.003136333 0.0036714447 -0.0001584308 -4.1820247e-05 -0.0002773687 0.00064766477 8.649877e-05 -0.0006330776
0.027874447 0.0023731878 -0.00012700194 0.030002646 -0.00031195572 9.058865e-05 -5.1623414e-05 0.000119403325
0.020468019 -0.00013345681 0.03505888 0.1462339 6.721629e-05 0.0007030717 -0.00013184163 0.016887693
-0.00034235508 -0.00028572715 0.00039495085 -1.2369288e-05 -0.19558649 -4.199393e-05 -0.00038774026 -0.00020657975
-2.367334e-05 -0.00036069212 1.0004729e-05 0.0006177 -9.067597e-06 0.0004329004 0.00011643469 -5.9511618e-05
0.0003631319 1.6296406e-05 -0.00015950427 8.510143e-05 7.89379e-05 -5.9119106e-05 -0.00028655067 -0.00033195174
0.0003411211 -0.00019150476 4.364401e-05 -2.9708139e-05 -6.2918814e-05 0.00058888976 -0.00010866455 0.00056856405
-0.00034592356 -0.00016267638 0.025747644 0.00028739555 -0.17543544 -0.00010297325 -2.1882206e-05 0.121362634
-0.00052153156 -0.10299996 0.0002950789 2.8655613e-05 -0.00022173302 -0.0003099758 -3.9094768e-05 -0.041020185
-0.00020716016 -0.00049380795 -1.2274235e-05 -5.885107e-05 -0.0003157268 -0.0003091846 -0.00016389116 -0.00020097136
-0.0003295156 -7.0850016e-05 -0.00021187618 8.298155e-05 -0.00019582789 -0.00025098462 -0.00021084544 0.13089462
-0.0002755617 3.143501e-06 -1.5753867e-05 -0.0617156 -0.0002374957 0.0004997348 -0.10764478 7.622104e-05
0.00021838034 0.0008810524 0.0005226766 -8.731375e-05 -0.05940395 0.00074149854 -0.00018588016 -0.00034546683
00000000: 8589 5c40 360a 7740 6742 6840 94d2 2540
00000010: 21bf 6440 e959 933f ad5a 943f 087d 343f
00000020: a4a5 a23f 2bf2 2c3f 4ad3 db3e 31c1 053f
00000030: a247 373f bebd ee3e f61a 293f bed8 513f
00000040: d8c3 263f 5655 8a3f e81c fe3e fc2a 123f
00000050: 60fd 073f 3f2c 4e3f c944 4b3f cc86 393e
00000060: 1918 5c3f 2ee0 403f 5e14 053e f2f9 1c3e
00000070: 1d2b e73d 59f1 2e3f 6d4d 753e cb6a ae3e
00000080: 7915 cd3e 2a4d 4c3d 95a3 183c d973 023f
00000090: e3f0 703e 01d9 c73e aed7 073e 2b20 423e
000000a0: fd26 573e b4f0 d43e ee92 7a39 d4c6 8b3d
000000b0: 28bc 093d c8a4 0c3f 25ca a33d 4b7c c03d
000000c0: c2d6 4e3e 640e c639 84ce 413e 1940 e23e
000000d0: 2a9d e53d 1900 a03e 9c53 ad3e 2858 1a3f
000000e0: 9139 653d 2f15 e43d 3d89 173f 23bf 023f
000000f0: 642f cf3e f128 853e f25b be3d 128a 3c3e
00000100: a594 163e 697c a33b 405f 013f 7e84 053e
00000110: a9c9 253d 080f 7d3a 1462 8d3d 3c04 153d
00000120: a668 5539 035c 4f3c 543c 8a3d ebcd d4b8
00000130: 8ea4 b53d 8cec 58b8 16ac 783e c55b 333b
00000140: 833b 5f39 095a 463d 2f53 263e a89a e0b8
00000150: d826 723a aab9 773a db94 db3e 9cdb bf3d
00000160: 5577 9c3d 680c b83e 5530 d5b8 0781 9b3c
00000170: fce4 563d 0e6e ee3c a9b9 a63a d4f3 1ab8
00000180: 397d 063e ad4a 0b3d 9549 dc3b d73f e23d
00000190: 44a7 6539 5eaf 6f39 f114 0a3d 0e4e 5a3e
000001a0: a5c3 883c 7619 d039 c751 963c a2e1 6939
000001b0: d9c5 4f3e c23a 6d3d 6c37 9737 3a26 423e
000001c0: 324e 4d3c 4f8d 843e 2836 433e 5094 8638
000001d0: 58b7 e3b8 b237 973d a829 2838 0262 6239
000001e0: 72ec aa3d 9784 a63e 861d 3338 483c b0b8
000001f0: 36ec c7b7 b014 983d 74cc 3138 f4c8 3638
00000200: 3b0e d139 6f27 b0b8 38cb 5339 2b5e 8139
00000210: f6ca 52b9 dca7 a63c 6533 20bc df4a c63c
00000220: 3a4b 29b9 8845 94b8 a8f6 00b9 fa38 133c
00000230: 44bd 6eb9 6bb8 853c ba8f d0b9 ab82 3e3d
00000240: 1553 e23c c350 023a 42cc bd38 6eb4 8639
00000250: f2bb 88b8 b1d0 b8b8 17ce 4ebc 0ad6 2c3e
00000260: f08a 4d3b 9f9c 703b 7220 26b9 2668 2fb8
00000270: cc6b 91b9 0cc8 293a ac66 b538 1ef5 25ba
00000280: f458 e43c 7c87 1b3b d32b 05b9 1cc8 f53c
00000290: fd8d a3b9 69fa bd38 3886 58b8 2c68 fa38
000002a0: 8cac a73c 8af0 0bb9 e699 0f3d 57be 153e
000002b0: 79f6 8c38 584e 383a f83e 0ab9 0f58 8a3c
000002c0: 1f7e b3b9 a6cd 95b9 6811 cf39 b085 4fb7
000002d0: d347 48be a422 30b8 9e49 cbb9 549d 58b9
000002e0: 1c96 c6b7 471b bdb9 fcd9 2737 25ed 213a
000002f0: 0821 18b7 e8f6 e239 662e f438 1d9c 79b8
00000300: bd62 be39 44b4 8837 9a40 27b9 7b78 b238
00000310: 768b a538 a8f6 77b8 2e3c 96b9 cf09 aeb9
00000320: 80d8 b239 abce 48b9 660e 3738 be35 f9b7
00000330: 48f3 83b8 b95f 1a3a d6e2 e3b8 b00b 153a
00000340: 135d b5b9 1c94 2ab9 b9ec d23c 94ad 9639
00000350: 59a5 33be 58f3 d7b8 ae8f b7b7 f98c f83d
00000360: 64b7 08ba a5f1 d2bd d2b4 9a39 7661 f037
00000370: 0181 68b9 3f84 a2b9 b0f9 23b8 c804 28bd
00000380: 2239 59b9 e472 01ba 70ed 4db7 dbd6 76b8
00000390: 2288 a5b9 0e1a a2b9 33da 2bb9 d7bb 52b9
000003a0: d6c2 acb9 5095 94b8 142b 5eb9 6106 ae38
000003b0: 2657 4db9 9696 83b9 6416 5db9 3d09 063e
000003c0: 4479 90b9 f0f4 5236 2c27 84b7 7fc9 7cbd
000003d0: 4408 79b9 a200 033a de74 dcbd dcd8 9f38
000003e0: 07fd 6439 6df6 663a 3c04 093a 361c b7b8
000003f0: 8e51 73bd 2061 423a d3e8 42b9 c61f b5b9
