Models/simulations/IV/n20_N300/10_11.pt (torch, 3239 bytes, 2 tensors)

weight f4 [20, 20]
0	0x3cc77410	0.024347335
1	0xbcad33e3	-0.021142906
2	0xbd07661d	-0.033056367
3	0xbcec4450	-0.028841168
4	0xbc062c62	-0.008189293
5	0xbd818819	-0.06324787
6	0xbdee1002	-0.11624147
7	0x3cf56b42	0.029958371
8	0x3ba19197	0.0049306857
9	0x3d8f8c54	0.07009187
10	0x3b40f899	0.002944505
11	0xbdab6069	-0.08367998
12	0xbd2e7df7	-0.0426006
13	0x3c5bd7ed	0.01341818
14	0xbd305c7a	-0.043056943
15	0xbd873492	-0.06601824
16	0xbd53d236	-0.051714145
17	0xbc3d50a4	-0.011554871
18	0xbcfe4cb8	-0.031042442
19	0xbcdcbdda	-0.026945997
20	0xbb9eae18	-0.004842531
21	0xbf37e322	-0.7183095
22	0x3e1b0b7c	0.151411
23	0x3e526473	0.20546131
24	0x3d0894a1	0.03334487
25	0x3ed65345	0.41860405
26	0x401200f6	2.2813087
27	0x3c584d21	0.013201983
28	0x3d30fa37	0.043207373
29	0xbe423fbf	-0.1896963
30	0xbcd03e66	-0.025420379
31	0xbe979d5b	-0.2961224
32	0x3c7446a0	0.014909416
33	0x3d57edc9	0.052717004
34	0xbd9b25d0	-0.075755715
35	0x3df928a5	0.121659555
36	0x3e67c7f4	0.2263487
37	0xbd835f27	-0.06414633
38	0xbca7d079	-0.02048515
39	0x3d5ac815	0.05341347
40	0xbcea541a	-0.028604556
41	0xbb0394e0	-0.002007775
42	0xbbcdc718	-0.0062798373
43	0xbdc6bc64	-0.097039014
44	0xbd30320a	-0.04301647
45	0xbd404e45	-0.046949644
46	0x3aa53072	0.0012602939
47	0x3da678de	0.08128522
48	0xbb9118b9	-0.004427996
49	0xbcc67e94	-0.024230279
50	0x3c271797	0.010198495
51	0x3de8d722	0.11369158
52	0xbd0b10ac	-0.033951446
53	0x3887c288	6.473536e-05
54	0x3ca52b2e	0.020162191
55	0xbbaf0c01	-0.005342007
56	0xbdc61f1b	-0.09673902
57	0xbcb4c51e	-0.022066649
58	0x3d6202cf	0.05517846
59	0xbd7f179e	-0.062278382
60	0xbcb8cd79	-0.022558914
61	0x3ea6c444	0.32571614
62	0xbd4617f8	-0.048362702
63	0xbea71ec1	-0.3264065
64	0xbd79a7e7	-0.06095114
65	0xbe367301	-0.17817308
66	0x3d4c29f0	0.049844682
67	0xbd45b7c0	-0.04827094
68	0xbd682dba	-0.056684233
69	0x3f218e2e	0.63107574
70	0x3c7d4060	0.015457243
71	0x3c2e2b8e	0.010630501
72	0x3f055f94	0.52098966
73	0xbd28bd08	-0.0411959
74	0x3d857d1b	0.065180026
75	0xbc087f59	-0.008331143
76	0x3f15fe89	0.58591515
77	0xbd1609b4	-0.036630347
78	0xbc842805	-0.016132364
79	0xbcc1afd6	-0.023643415
80	0xbc6a8fac	-0.014316481
81	0x3e7e1688	0.24813282
82	0x3c70f9ca	0.014707992
83	0xbd53a8d6	-0.051674686
84	0xbce77b5a	-0.02825706
85	0x3c81f027	0.015861584
86	0x3e9e46b8	0.3091333
87	0xbd19c072	-0.037537046
88	0xbcf75787	-0.030193103
89	0xbd9ef402	-0.077613845
90	0xba16e311	-0.00057558814
91	0xbdddb377	-0.10825246
92	0x3ced1ce3	0.028944438
93	0xbc3f65b7	-0.011681966
94	0xbcbf6590	-0.023363858
95	0x3e135184	0.14386564
96	0x3e0abbf2	0.13548258
97	0x3c45a498	0.012063168
98	0xbc0d4976	-0.0086234715
99	0x3e26510e	0.16241857
100	0x3ca5cdc9	0.020239728
101	0x3ccadd79	0.02476381
102	0xbd198258	-0.03747782
103	0x3f2eb2bd	0.6824148
104	0x3ddab8b4	0.106797606
105	0xbe86c102	-0.26319128
106	0xbeccfcce	-0.40036625
107	0x3d947620	0.07249093
108	0xbba53e83	-0.0050428524
109	0xbe2d42a9	-0.1691996
110	0xbd5501ee	-0.052003793
111	0x3e3f0244	0.18653208
112	0xbdb360c0	-0.08758688
113	0x3d80cf2c	0.06289515
114	0x3c1e6419	0.00966742
115	0x3d45641d	0.04819118
116	0x3f45020d	0.76956254
117	0xbd03f38a	-0.03221468
118	0x3e75e29a	0.24012223
119	0xbd56a456	-0.052402817
120	0xbd088096	-0.033325754
121	0xbe16d217	-0.1472858
122	0xbd4fa81c	-0.05069743
123	0xbda5763a	-0.080791906
124	0x3e82ae05	0.2552339
125	0x3eac2ed5	0.3362948
126	0xbec98d13	-0.39365444
127	0xbb9a5d66	-0.004710841
128	0x3d8adf02	0.067808166
129	0xbe4fdf88	-0.20300114
130	0x3c66ccaa	0.014086882
131	0x3e77002f	0.24121164
132	0xbdec47d8	-0.115371406
133	0xbc03df23	-0.008048805
134	0xbda65fe0	-0.081237555
135	0x3e088989	0.13333715
136	0x3ef709bc	0.48249614
137	0x3c954e7b	0.018225899
138	0xbd1c4602	-0.038152702
139	0xbd1a2cc6	-0.037640356
140	0x3cefd786	0.029277574
141	0xbd072a2d	-0.032999206
142	0xbd1807e8	-0.037116915
143	0x3e210b99	0.1572708
144	0x3c03d3f9	0.008046144
145	0xbd64b2c6	-0.055834554
146	0xbdbbac7f	-0.091637604
147	0x3beafdb5	0.0071713575
148	0xbd2a9eb4	-0.041655257
149	0x3dccb06e	0.09994589
150	0xbcd5dcf9	-0.026106345
151	0x3e14b9e2	0.14524034
152	0x3e2b4b34	0.16727906
153	0x3c83727d	0.016045803
154	0x3d27cc43	0.040966284
155	0xbd3070f0	-0.043076456
156	0xbd8bc84a	-0.068253115
157	0x3cf91631	0.03040609
158	0x3ca9fcd7	0.020750446
159	0x3de58cc4	0.112084895
160	0xbcd93be8	-0.026517823
161	0xbd45c641	-0.048284773
162	0x3c0d0015	0.008605977
163	0x3cf6b466	0.030115318
164	0x3c285114	0.010273237
165	0xba04ad0e	-0.00050611875
166	0xbd814c22	-0.06313349
167	0x3cbc1458	0.02295892
168	0x3c47f0dd	0.012203422
169	0xbdaa4669	-0.08314211
170	0xbcb22885	-0.021747837
171	0x3e894b5d	0.2681531
172	0xbd75b2e4	-0.059985057
173	0xbccc8d45	-0.024969706
174	0xbd10996c	-0.035302565
175	0xbd136130	-0.035981357
176	0xbe0550e6	-0.13019142
177	0xbd3b60be	-0.045746557
178	0xbc1cf3f9	-0.009579652
179	0x3e46083e	0.19339082
180	0xbce7b5cd	-0.028284932
181	0x3d2d93bc	0.04237722
182	0xbb224239	-0.002475871
183	0xbd828549	-0.063730784
184	0xbb9697a9	-0.004595716
185	0xbb9ed2bc	-0.004846899
186	0x3d856f59	0.065153785
187	0xbd1f5b15	-0.038905222
188	0xbc236a9c	-0.009974148
189	0xbe07dfb9	-0.13268937
190	0x3c58dfba	0.013236934
191	0x3d248b0c	0.040171668
192	0x3d84b199	0.064791866
193	0xbcbecd61	-0.023291292
194	0x3c8508f5	0.016239623
195	0xbd671c57	-0.05642351
196	0x3e870b0f	0.26375625
197	0xbd0aed9d	-0.033918012
198	0xbc40b4f4	-0.011761893
199	0xbd56f9a6	-0.052484177
200	0xbcfc842a	-0.03082474
201	0xbc80a3d4	-0.01570312
202	0x3da4255a	0.08014937
203	0x3e676379	0.2259654
204	0x3c50904e	0.012729717
205	0xbd42289b	-0.047402006
206	0xbda6f640	-0.08152437
207	0xbc2920d6	-0.01032277
208	0xbd1375ca	-0.036001004
209	0xbcfbb517	-0.030725999
210	0xbd227889	-0.039665733
211	0x3d4e5f32	0.050383754
212	0xbd0bccfa	-0.034131028
213	0xbba79419	-0.00511409
214	0x3c8a92f2	0.016915772
215	0xbcb86968	-0.0225112
216	0x3d854641	0.065075405
217	0x3d8c7253	0.06857743
218	0xbd0e46c1	-0.034735445
219	0x3db69e77	0.089169435
220	0xbceb4f5c	-0.028724365
221	0xbe2f9bd5	-0.17149289
222	0xbd2ffe6a	-0.042967238
223	0x3daf6b3b	0.085653745
224	0x3a9740bc	0.0011539678
225	0xbe44d8bf	-0.19223307
226	0xbee6ef71	-0.45104554
227	0xbd4cd648	-0.050009042
228	0x3b4270de	0.0029669325
229	0x3db35a85	0.087574996
230	0xbc864ff3	-0.016395545
231	0xbee0f9cc	-0.4394058
232	0x3d158afa	0.03650949
233	0xbce8fbb2	-0.02844033
234	0x3d1f6214	0.038911894
235	0xbdc5d2a0	-0.09659314
236	0x3e265be7	0.16245995
237	0x3e64a62e	0.22329018
238	0x3c3f5597	0.011678121
239	0x3e286d8a	0.16448036
240	0x3c2f4ac6	0.01069898
241	0x3ec49e0b	0.38401827
242	0xbd2d613d	-0.04232906
243	0xbd06ed1c	-0.03294097
244	0xbd2a9f00	-0.04165554
245	0x3f7caa40	0.9869728
246	0x3ee3cb0c	0.4449085
247	0xbd11eab3	-0.035624217
248	0xbc4c9521	-0.012486727
249	0x3ef2c5fa	0.4741667
250	0xbc126f07	-0.008937604
251	0x3da4d37d	0.08048151
252	0xbd968e53	-0.07351365
253	0xbcdb4cbd	-0.02676999
254	0x3dbdf5e6	0.09275417
255	0xbd765f9d	-0.060149778

bias f4 [20]
0	0xbf60af3e	-0.877674
1	0x3f14181f	0.57849306
2	0xbf0e66f7	-0.5562586
3	0x3f31d102	0.69459546
4	0xbf0a2f08	-0.53978014
5	0x3f2f52ef	0.6848592
6	0x3f58f5f8	0.8475032
7	0xbf1a8293	-0.6035549
8	0xbf2b1e2c	-0.66842914
9	0x3dd7a547	0.10529571
10	0xbef8590a	-0.4850543
11	0x3f9f86ac	1.2462974
12	0xbd2ad83f	-0.041710135
13	0xbf0eda6f	-0.55802053
14	0xbf0c7820	-0.54870796
15	0x3d5c8d2b	0.053845566
16	0x3f8329a8	1.0247087
17	0x3d44e0e7	0.048066046
18	0xbf3d3d73	-0.7392189
19	0x3ea49d2c	0.32151163
