Models/simulations/IV/n20_N300/11_12.pt (torch, 4703 bytes, 4 tensors)

weight f4 [10, 40]
000000 35 b1 6e ba 0e ee 1d 3d a8 be 58 bd 87 89 0a be
       -0.00091053854 0.038557105 -0.0529162 -0.13529025
000010 9e f0 26 bd 01 08 c6 3c 88 84 55 3f 64 ed a2 3d
       -0.040756814 0.024173738 0.8340535 0.07955435
000020 36 58 97 3e 89 7d 97 3c ec 5c a9 bd 83 92 aa 3e
       0.29559487 0.018492477 -0.082696766 0.33314905
000030 4f a5 20 bd 08 3e 3f 3d 1b 86 70 3d fb 37 39 ba
       -0.03922015 0.046690017 0.058721643 -0.00070655317
000040 a5 95 34 3e d6 35 6e 3e 68 d8 72 be 11 a2 94 bc
       0.1763521 0.23262724 -0.23715365 -0.018143686
000050 16 53 4f bb 74 63 52 3c b7 30 2b 3b 59 44 8c 3b
       -0.0031635216 0.012841094 0.0026121566 0.0042806086
000060 70 ab e1 3b 35 13 16 bc bc 1b a2 ba 59 d4 04 bc
       0.006886892 -0.009159853 -0.0012367885 -0.008107268
000070 dd cd a1 3b d3 70 6e bb 15 38 59 3c a8 da 19 3c
       0.004937871 -0.0036383166 0.013258 0.009390511
000080 74 49 51 bb e4 ab 3f bc a1 ac a5 bb 69 9f f7 3b
       -0.003193465 -0.011698697 -0.0050559794 0.007556845
000090 3a 77 9f 3a de 8e b7 3b 42 3b 45 3c c1 50 45 3c
       0.001216627 0.005601748 0.012038054 0.012043179
0000a0 96 28 8f 3c c0 60 64 3c 6e 4f dd 3c 37 86 01 be
       0.017475408 0.013939083 0.027015414 -0.12648855
0000b0 7e 2f cc 3b ea 62 c0 3d 37 97 2b 3e 47 b8 14 3e
       0.0062312474 0.09393866 0.16756903 0.14523421
0000c0 32 23 e2 bd 5c ae 24 bd db b0 34 bf f0 2b dc 3c
       -0.11041869 -0.040205345 -0.7058236 0.02687642
0000d0 fc 3d 08 bb ff d0 e2 bd 52 7c 92 be 5a 64 5c bd
       -0.0020788899 -0.11075019 -0.28610474 -0.05380664
0000e0 40 a3 53 bf 88 af 5a be 0e f0 15 3d a5 e7 9e bc
       -0.82670975 -0.21356022 0.036605887 -0.019397566
0000f0 15 8c cc 3a c8 ca 91 bb 64 7a 53 3b 6b 3c 4d bc
       0.0015605713 -0.0044492222 0.0032268995 -0.012526612
000100 e1 63 fe 3b 14 ae 5f bc af e3 e6 3b b2 54 26 bc
       0.0077633713 -0.013652343 0.007046185 -0.010152029
000110 4d cd 3f 3c 7f 83 38 ba a6 06 f6 bb 82 fe 70 3c
       0.011706662 -0.00070386374 -0.007508117 0.014709117
000120 87 72 8e 3b 10 6e a7 3a 8f db ae 3b 6a 8c a8 3b
       0.004347149 0.001277389 0.005336232 0.005143692
000130 ee c6 a6 bb 7d d9 34 bb 17 34 e2 ba 34 79 45 3c
       -0.0050896322 -0.0027595453 -0.0017257956 0.012052823
000140 d8 8a c2 b9 81 b0 cc bb b3 3c fd 3c 10 49 2f 3e
       -0.0003710601 -0.006246627 0.030912733 0.17117715
000150 0b 53 87 bc fa 07 b8 bc da 8f cf bd ef 1f 65 3a
       -0.01651909 -0.022464741 -0.101348594 0.0008740415
000160 ce 29 f2 3d 2c e8 86 3c 3d 0b 10 3e 85 f1 93 3d
       0.1182438 0.01646813 0.14066787 0.072238006
000170 49 be e4 bb 6c ff d4 bd 1d 85 f2 3d fa 23 9d bb
       -0.0069806916 -0.1040028 0.118417956 -0.0047955485
000180 42 42 01 3e 6b 26 1d 3e 07 9a 9c 3d 43 db 98 3c
       0.12622932 0.15346687 0.07646566 0.01865924
000190 d1 15 65 bc 53 e4 f5 3b 9e 94 50 3b 88 4b 8d ba
       -0.013982252 0.007504025 0.0031826864 -0.0010779956
0001a0 4f 4e c2 39 75 4d cd 3b ca a7 a6 39 1a 65 f5 3b
       0.00037060908 0.006265337 0.00031787 0.007488859
0001b0 13 37 f5 bb 60 2d 80 3b c2 fa da 39 c8 28 a9 3b
       -0.007483372 0.003911659 0.0004176703 0.005162332
0001c0 b4 f2 3b bc c5 67 8d 3b 7c 05 ff 3b 9f 4e 13 3c
       -0.011471439 0.004315349 0.007782636 0.008990913
0001d0 ed 2e fb bb ee a5 1b 3b 88 d5 55 bc 70 21 c8 bb
       -0.007665506 0.0023750025 -0.013051398 -0.0061075017
0001e0 ce bc 3c 3d a2 58 dd 3b e8 6c 54 3d e2 9b a9 3d
       0.046078496 0.0067549506 0.051861674 0.082816854
0001f0 ab 80 bd bc 3e e2 5d 3d e0 36 63 3e 1b 2a cc 3d
       -0.023132643 0.05417084 0.22188902 0.099689685
000200 0a 46 e6 3e b3 05 04 bd 98 23 20 bf 60 72 18 bf
       0.4497531 -0.032231998 -0.6255431 -0.5954952
000210 15 fb 02 bc f5 1c 43 be 6a 4a 9c be 69 de 06 bd
       -0.007994433 -0.19054015 -0.30525523 -0.03292695
000220 b7 cf 9c be bf 8e bc be 49 c9 6a 3e bd 4a b0 bd
       -0.30627224 -0.36827657 0.22928347 -0.08608005
000230 be 27 d2 bb 60 f7 13 bc 36 93 09 3c a2 1d 74 3c
       -0.006413429 -0.009031147 0.008396914 0.014899643
000240 58 6a e6 bb 9c 09 48 bb b1 ad 94 bb 07 07 1d 3c
       -0.00703172 -0.0030523306 -0.004537307 0.009584195
000250 be 1e 81 bb 90 24 1f bc 7f 80 42 3c da 50 6a bc
       -0.0039404323 -0.009713307 0.011871456 -0.014301503
000260 98 48 5a bc fb 15 17 3c 67 3a 45 bc 4b 66 6d 3b
       -0.013322972 0.009221549 -0.01203785 0.0036224301
000270 8c 8c 78 3c b9 ff 9a 3b dd 44 c0 b9 67 28 75 3c
       0.015170228 0.0047301915 -0.000366724 0.014963246
000280 4f d8 f2 bd d3 47 1b bb cd ab a0 3c d5 f8 16 be
       -0.11857664 -0.0023693934 0.019613171 -0.1474336
000290 26 2c d9 3b 71 0b 6d be 20 2d bc 3e 42 ef 9b 3c
       0.0066275774 -0.23148896 0.36753178 0.019034985
0002a0 b3 c2 71 bf d8 95 ee 3b 0c a2 ed 3c 8d 68 66 3e
       -0.9443771 0.0072810464 0.029007934 0.2250082
0002b0 a3 fd 95 3c 83 5f 30 be 7f c2 22 3e d2 85 40 3c
       0.01830942 -0.17223935 0.15894507 0.011750655
0002c0 32 8b 78 bd 3c 2f 84 3e 36 8f 1c be d0 0e dc 3c
       -0.060679622 0.25817287 -0.15289006 0.026862532
0002d0 65 6a fb ba 5a 13 57 bc 37 3c 1e 3b 77 49 f5 3b
       -0.0019181488 -0.013127172 0.0024144778 0.0074855643
0002e0 8d 52 18 3c d2 93 51 b9 39 c7 f0 3b 00 4b 39 3c
       0.009297025 -0.0001998686 0.007347968 0.011309385
0002f0 cb d0 b3 bb f7 e5 0e 3c 7c 05 48 3c 18 27 27 bc
       -0.0054875365 0.00872182 0.012208339 -0.010202192
000300 79 e9 2c 3c fc 23 5e bc b8 c9 cb bb 56 ca e8 3a
       0.010553711 -0.013558384 -0.006219115 0.0017760496
000310 03 ff b4 3b e8 ac 54 bc af b3 08 bc 20 dd 35 3b
       0.005523564 -0.012980677 -0.008343621 0.002775021
000320 41 0b 17 bd 48 23 be bc 22 67 b4 3d 8d 4c 46 3e
       -0.036875967 -0.023210183 0.088087335 0.1936514
000330 67 43 47 3b a8 69 93 be fb 53 06 be b9 a4 66 bd
       0.0030405165 -0.28791547 -0.13117974 -0.056309436
000340 63 52 4a be f5 ea 37 3c cd 4b 8f 3e bf 79 56 bf
       -0.1975799 0.011225452 0.2798752 -0.8377952
000350 c0 ab 05 3d 0d 24 9f be ca 27 19 3e 87 cb 87 bb
       0.032634497 -0.31082192 0.14956585 -0.0041441354
000360 f2 21 e8 3e b6 85 d9 3d 6b 46 53 3e 2d 8d 4c bd
       0.45338398 0.106212065 0.20632331 -0.049939323
000370 50 42 1c bc b1 28 c4 bb 0a 95 37 3c 7e 1b 23 ba
       -0.0095372945 -0.005986296 0.011204967 -0.0006222053
000380 d2 1a 2b 3c c4 46 f2 ba 97 38 8f bb 3c 6a c9 bb
       0.010443406 -0.0018484225 -0.0043707597 -0.0061466973
000390 ac f8 ed bb c1 ff 5b bb 34 44 1a 3c 1a 75 a9 bb
       -0.00726231 -0.003356919 0.009415675 -0.0051714303
0003a0 3d 9f 4e bc 6e 4c 87 3b eb 91 4d bc ed e3 21 3c
       -0.012611208 0.004128984 -0.012546997 0.009881002
0003b0 de c0 b5 bb 90 b2 b0 3b 21 6b cc 3b a9 78 6c bb
       -0.005546673 0.00539238 0.0062383567 -0.0036082661
0003c0 89 33 f2 ba cd 13 7c bb 7b a1 d1 3b f9 b8 0a 3e
       -0.0018478493 -0.003846395 0.006397424 0.13547124
0003d0 3d 0a ac bc b3 b4 93 bd 31 da 62 3e 61 db 26 3d
       -0.021000976 -0.072122 0.22153546 0.04073656
0003e0 01 ed 24 3e 1b 99 19 3c 19 c1 1e 3b ea 01 98 3c
       0.16106035 0.009374882 0.0024223982 0.0185556
0003f0 69 5a d1 bb 02 b6 8f 3d 7c b9 9a 3d 46 0d 00 3c
       -0.0063889516 0.07017137 0.075549096 0.007815665

bias f4 [10]
000000 c2 87 a9 be af d7 df 3e 1f 9a 36 3f bb 12 4e 3e
       -0.33111387 0.4371924 0.7132892 0.20124333
000010 c5 f9 c7 3e 15 79 bf 3e 39 cb 24 3f 05 9c 0c 3f
       0.39057747 0.37397066 0.64372593 0.54925567
000020 c6 32 33 bf 79 7a c1 3e
       -0.6999935 0.37788752

weight f4 [20, 10]
000000 51 70 79 3e db 74 11 be 14 10 54 be 96 f8 e1 3d
       0.24359252 -0.14204733 -0.20709258 0.11033742
000010 62 ac 1c be 81 03 81 bd 8a f8 ea bd e4 26 b7 bd
       -0.15300134 -0.062994964 -0.11473186 -0.08942965
000020 04 ca 1f 3e 0b 86 1f bd 8a a0 e1 3d c0 e8 aa bd
       0.15604407 -0.038946193 0.110169485 -0.08345175
000030 47 7f 81 be be fb 89 3c dc 8d 55 be f1 8d 5d be
       -0.25292417 0.016843673 -0.20854896 -0.21636178
000040 67 fa 67 be 5c c4 20 be 89 6c 6c 3e 75 3f 9a bd
       -0.22654115 -0.15699905 0.23088278 -0.07531635
000050 5c 7b fc bc 5f 6a 3c bd 1f 13 5e be b4 bc b7 bd
       -0.030820541 -0.04599988 -0.21686982 -0.08971539
000060 e7 d3 ae bd f6 d8 2a be c6 88 47 be 0a 90 23 be
       -0.08536511 -0.16684327 -0.19485769 -0.15972915
000070 78 09 29 3e c8 bb d7 bd ad fe 39 bd ea cc 21 3c
       0.16507518 -0.10533863 -0.045408893 0.0098755155
000080 c4 ce 51 3c 14 dc 35 be 25 1c 3e bd 41 06 46 be
       0.012805644 -0.17759734 -0.04641356 -0.19338323
000090 18 57 19 3e 94 94 46 be 44 43 b3 3d 26 b7 5f 3e
       0.1497463 -0.19392616 0.08753064 0.2184721
0000a0 4e d3 65 3e 62 b3 c9 bb fb f6 2c bd 51 17 4d 3d
       0.22443888 -0.0061554173 -0.042227726 0.050071064
0000b0 6d 6a 33 3b 68 11 2f 3d 70 9f 86 bc aa 69 1b 3d
       0.0027376667 0.04274121 -0.016433448 0.037942566
0000c0 f8 fd 15 3d 3e 24 f3 37 49 e4 a0 3e ee 9a 6b bf
       0.036619157 2.8984734e-05 0.31424168 -0.9203328
0000d0 db d9 e9 3e ba 74 24 bf 3d 4b 31 3e 73 05 0c 3f
       0.45674023 -0.6424061 0.17313857 0.54695815
0000e0 ed ae d3 3e 13 75 9d 3e eb 1f 3a be 22 c9 43 bd
       0.41344395 0.30753383 -0.18176238 -0.047799237
0000f0 40 68 a9 be cd fd b0 3e 6d db 80 3e 00 2f 40 3f
       -0.3308735 0.34568635 0.2516741 0.75071716
000100 02 72 2e bf c6 29 6a 3e e9 e0 4c 3e 16 93 34 3e
       -0.6814271 0.22867498 0.20007671 0.17634234
000110 13 6c 2f be bc 56 e7 3d a3 63 32 3d 70 26 cd bd
       -0.17131071 0.1129584 0.043552052 -0.10017097
000120 ad f9 6d be 2f 10 df bd 7e 6d 4c bd 99 1a 46 be
       -0.23239775 -0.10891759 -0.049909107 -0.19346084
000130 0e 10 66 be c5 c1 31 be 01 d6 5c 3e 2c ec ec bd
       -0.22467062 -0.17359073 0.21566011 -0.11568484
000140 02 d2 d9 be 9c f8 2f 3e bc 14 8a 3e 05 93 80 ba
       -0.42543036 0.1718468 0.26968944 -0.000980944
000150 f7 10 2a 3f c5 2a 38 3f 40 05 3a 3e b5 71 56 3e
       0.66432136 0.7194026 0.18166065 0.20941813
000160 26 d3 ad be 18 1d 9c 3b 38 54 5f 3d 3f 14 5e be
       -0.33950156 0.0047642104 0.054523677 -0.21687411
000170 4b 8a 9a be ab d1 93 bd 7c be f1 bd 11 83 d1 bd
       -0.30183634 -0.07217725 -0.1180391 -0.10230077
000180 25 26 77 be 9f ac 59 be ca e3 8a 3e b2 85 40 be
       -0.24135645 -0.21257256 0.27126914 -0.18801
000190 86 64 4e 3f eb a5 2e 3f 54 4e ae 3d a5 7a 18 3f
       0.80622137 0.6822192 0.08511034 0.5956214
0001a0 b5 63 99 3e 0e de 4b be af 7b d7 3e a0 0c ba 3e
       0.29958883 -0.19908926 0.4208655 0.36337757
0001b0 96 e3 ed be 52 51 e1 3e 03 2f 8b be 00 64 2d be
       -0.46462697 0.44007355 -0.27184305 -0.16932678
0001c0 ae 07 bb 3e 85 29 51 3e 41 c6 59 be 04 29 0c 3f
       0.36529297 0.20425995 -0.21267034 0.54750085
0001d0 6a 28 8a 3e 26 e2 40 3e 5b ac 60 be fc 9c ce 3d
       0.26983958 0.18836269 -0.21940748 0.10088536
0001e0 a5 00 8b 3d 9a 68 13 be 95 99 89 be d2 9c f3 bd
       0.06787232 -0.14395371 -0.26874986 -0.118951455
0001f0 86 ec 6d bd 60 23 0b be 5b 0a 5c be f8 fa 3e be
       -0.058086894 -0.13587713 -0.21488325 -0.18650424
000200 aa 9d 53 3e c1 3d 0e be d4 92 64 3b ca 00 65 3e
       0.20665613 -0.13890745 0.0034877555 0.22363582
000210 58 ac 09 3e ef 2d 01 be 4a 63 82 3e 18 6b aa be
       0.1344465 -0.12615179 0.25466377 -0.3328483
000220 cc ef b0 3d 02 ed 25 3e 40 39 3c be 0f 84 9b 3d
       0.086394876 0.16203693 -0.18381214 0.075935476
000230 10 e0 64 3e 29 93 a7 be fa 18 dd bb 21 21 14 3d
       0.22351098 -0.32729462 -0.006747362 0.036164407
000240 53 75 6a be 49 ac e9 3b d3 36 09 3d 99 92 4c 3d
       -0.22896318 0.0071311337 0.03349955 0.049944494
000250 b7 ac b8 3c 30 6b a3 bc 52 1e 60 3d fe 2c 24 be
       0.022543294 -0.019948572 0.054716416 -0.16032788
000260 70 fe 52 be 5e b4 c8 bd 6c b1 20 be 6b 31 88 be
       -0.20604873 -0.09800027 -0.15692681 -0.26600203
000270 7d f1 d9 bd 7d 2f 4e be 25 be 6c 3e 9a ef 22 bd
       -0.10641763 -0.20135303 0.2311941 -0.039779283
000280 db 30 e6 3c a8 ef 70 3e a8 63 9d 3e 80 7e 08 bf
       0.028099468 0.23528922 0.30740094 -0.53318024
000290 72 36 a8 3e 19 3e 07 bf 9f b3 0d 3e 9b e3 34 3e
       0.32854038 -0.5282913 0.13838051 0.1766495
0002a0 e3 7d 87 be fb 5d 9e 3d ab 0e b0 be 4c ab 3f 3e
       -0.2646323 0.07732769 -0.3438619 0.18717688
0002b0 a2 b1 f5 3d 71 ae f7 3d db 12 67 3e 35 68 f7 3d
       0.119967714 0.12093819 0.22565787 0.12080423
0002c0 d5 8e 05 3e 11 83 f3 3d 01 07 12 be 22 6d 5f 3d
       0.13042767 0.11890233 -0.14260484 0.054547437
0002d0 60 50 a9 3d 71 5c 10 bc 31 a7 34 3e 22 a3 58 3e
       0.082672834 -0.008811102 0.17641903 0.2115598
0002e0 b1 f4 11 bf 70 e6 83 be 81 f2 12 3e fc 79 ea 3d
       -0.57013994 -0.25761747 0.1435032 0.11449048
0002f0 44 10 a5 bd 70 22 1e 3e df 1e e5 3c 12 af 29 be
       -0.08059743 0.15442824 0.027968822 -0.1657069
000300 f2 7c 8e be f3 8b 35 bd b4 63 e1 bd 9e 09 e2 bd
       -0.278297 -0.04432292 -0.11005345 -0.110369906
000310 b3 7b 94 be 64 06 49 be 66 6e 9a 3e 21 89 1f be
       -0.29000625 -0.19631344 0.30162352 -0.15579654

bias f4 [20]
000000 95 6e 92 be 20 e4 ba be 74 ce 9f be d5 f1 2d 3e
       -0.28599992 -0.3650217 -0.312122 0.16986783
000010 b4 91 b9 bd 16 7b c5 3e a9 f2 a8 3e 88 80 af be
       -0.09060994 0.3857047 0.32997635 -0.3427775
000020 44 99 dd 3e a7 e7 f5 be dd e7 d4 3e 7b a8 fa 3e
       0.43280995 -0.480283 0.41583148 0.48956665
000030 5b 2d cb be 07 6f 37 3e 96 4d 9c bd aa 80 9d be
       -0.3968304 0.17913447 -0.07631986 -0.30762225
000040 2e b9 bb 3e 7a 0b 86 3e 3e 58 05 3e 4c 7a ed be
       0.36664718 0.2618063 0.13021943 -0.46382368
