Models/simulations/IV/n20_N300/17_12.pt (torch, 4703 bytes, 4 tensors)

weight f4 [10, 40]
000000 cd 66 58 bc e8 24 9f 3a eb e6 66 3d c2 b8 97 bd
       -0.013208103 0.0012141736 0.056372564 -0.07408287
000010 33 10 85 3f e8 23 8a bd 72 f1 c0 3d 49 4d 96 bd
       1.0395569 -0.0674513 0.09421052 -0.0733896
000020 20 79 92 3d 50 31 89 bd 46 db ec bb 91 b4 51 3e
       0.07152009 -0.06698859 -0.007228288 0.20479037
000030 ac c3 1c 3d 0d 33 3d be b6 33 22 be 87 6e d9 bc
       0.038272545 -0.18476506 -0.15840039 -0.026541961
000040 65 b7 38 bd a7 80 95 be 5a e0 09 be c1 ee 04 3d
       -0.045096774 -0.29199716 -0.1346449 0.032454256
000050 2c 3a 28 3c 1c 2c 5b bc 0c 5f 17 3c b6 23 ca 3b
       0.0102677755 -0.013377216 0.00923897 0.006168808
000060 f0 4d 6c 3b 41 55 08 bb b6 c1 66 3c 46 2b da 3b
       0.0036057197 -0.0020802768 0.01408427 0.0066579906
000070 c7 6d 6d 3c 13 e1 13 3c c6 fd 3b bc fa 3e ed 3a
       0.014491505 0.00902583 -0.0114740785 0.0018100434
000080 bd 41 ea 3b af 6f 12 3b bb e4 a5 3a 7a f7 05 3c
       0.00714895 0.00223444 0.0012656668 0.008176679
000090 79 4a f4 bb 18 f1 c3 3b 02 33 4e bc 3f b0 e7 3b
       -0.007455167 0.0059796683 -0.012585403 0.0070705707
0000a0 eb a8 a4 3d 2d 0a 39 bc b6 c9 f0 bc 97 8a 57 3c
       0.08040031 -0.01129393 -0.029393058 0.013155601
0000b0 5a 9e 54 be b5 ce f4 3c cf 1a 03 be fa 21 d7 bc
       -0.20763531 0.029883722 -0.12803195 -0.026261318
0000c0 f0 40 60 3d 83 af 9d 3b e2 b1 8a bc c2 10 37 bd
       0.05474943 0.0048121824 -0.016930524 -0.044693716
0000d0 ca b1 3c 3e 65 d6 13 3e b3 58 ee bc e9 6e 05 bc
       0.18427196 0.14437254 -0.02909503 -0.008144119
0000e0 db 1d 8b 3b 58 de 86 be 2e ba 17 3d 76 a5 03 bc
       0.0042455024 -0.2634151 0.03704279 -0.008035054
0000f0 0b cc a9 ba 20 0f 69 3c a9 5d 01 3c c2 88 3f bc
       -0.0012954486 0.0142247975 0.0078958655 -0.01169032
000100 08 33 ef bb 28 54 d1 3b 12 57 ce bb 28 58 19 bc
       -0.0072997846 0.006388206 -0.0062970007 -0.009359397
000110 49 d4 6d 3c 80 0a 05 3b 91 eb 4a bc f8 2f 2c bc
       0.014515945 0.0020300448 -0.012385265 -0.0105094835
000120 63 64 12 3c 87 d7 bc 3a 8f fb 6a bb be df 2e bc
       0.008935067 0.0014407494 -0.0035855507 -0.0106734615
000130 68 a7 4b bc d2 02 43 bc 08 04 c7 3b 22 67 60 3b
       -0.0124300495 -0.011902528 0.0060734786 0.003424116
000140 a2 6e cf bd fe 06 87 3d 78 62 81 bd 9b 3b 81 3c
       -0.101285234 0.065931305 -0.063176095 0.015775492
000150 d4 d3 6e 3d 96 15 30 be bd 53 19 bf 16 5e a6 3d
       0.058307484 -0.17195734 -0.598934 0.08123414
000160 3e b3 25 be 15 69 41 be 13 5d ba 3b a1 0d 42 be
       -0.16181657 -0.18887742 0.005687365 -0.18950512
000170 38 f4 ac 3e 13 38 86 3e bf 2a fd 3e 84 d5 d0 bd
       0.33780074 0.26214656 0.49446675 -0.10196975
000180 6f 01 8b 3d 41 23 74 3f c6 ec b9 be 89 80 5b bd
       0.06787383 0.95366293 -0.36313456 -0.053589378
000190 96 42 e1 3a bb 0d 0b 3b 7d 2b 60 bc a8 9e 71 bc
       0.0017185982 0.00212179 -0.013682243 -0.014747299
0001a0 81 77 2f ba 82 f3 d2 bb ae ef 4b 3c a1 64 33 3c
       -0.00066935277 -0.00643772 0.012447281 0.010949285
0001b0 d4 28 9d bb a3 6f 00 bc b6 00 72 bc 7b e2 df 39
       -0.004796127 -0.007839116 -0.014770677 0.00042702616
0001c0 c9 12 d9 3a c9 56 f0 bb 94 31 28 3c 74 30 3f bc
       0.0016561385 -0.0073345643 0.010265727 -0.011669267
0001d0 a7 ed 71 3c 82 09 75 bc 43 20 2d bb 45 9e d4 bb
       0.014766133 -0.01495588 -0.0026416935 -0.0064885938
0001e0 0b 12 61 3d 62 70 f2 bb 41 97 2b bd 90 d6 b1 3c
       0.054948848 -0.007398651 -0.041892294 0.021708757
0001f0 14 3d a9 be 60 f9 bd 3d 22 f1 d1 bb 99 41 c4 bc
       -0.3305441 0.0927608 -0.006406919 -0.02395706
000200 c3 40 aa 3d 28 af fa bc 69 33 af bb 6e 2f 8b bd
       0.083131336 -0.0306011 -0.0053467047 -0.06796156
000210 44 a2 59 3e 66 0b ac 3e 90 0b 84 bd 2b ea 7c 3c
       0.21253306 0.33602446 -0.06447518 0.015436689
000220 1c 61 54 3c d2 82 33 be c3 46 1d 3d 57 2f 95 bc
       0.012962606 -0.17530373 0.03839756 -0.01821105
000230 6e b4 58 bb d4 3e 38 3c cc b0 6f 3c 4c 0b 2e 3c
       -0.003306653 0.011245448 0.014629554 0.010622811
000240 1a f0 3d 3c 55 b7 44 3b cf 43 cc 3a c7 56 38 3c
       0.011592889 0.00300165 0.0015584173 0.011251158
000250 5a 41 68 b9 d3 cb 91 bb 30 e1 06 3c 2e ec 5d bc
       -0.0002214959 -0.0044493466 0.0082324 -0.013545079
000260 9d c3 2b 3c 51 06 46 bc 82 05 09 3b 79 fc b2 3b
       0.01048365 -0.012086467 0.0020907824 0.005462226
000270 1a f8 36 bb 32 99 6c bc f5 c7 c7 39 1c de cc bb
       -0.0027918876 -0.0144408215 0.00038105217 -0.0062520634
000280 e5 91 be bd 24 d6 6d 3c 53 fe 76 bd 4e b0 e3 3d
       -0.09305171 0.014516387 -0.060301136 0.11117612
000290 95 99 29 bf 5b b5 82 3d 5a cb 0a 3e 30 4b 10 3e
       -0.6624997 0.06382247 0.13554135 0.14091182
0002a0 d3 15 37 3d 2e 0a ed bd 88 2d 35 3d 2d 77 87 be
       0.044698548 -0.11574207 0.044232875 -0.2645811
0002b0 24 e4 1d be bb 2e ac 3e ba 5f aa 3e 58 08 37 3d
       -0.1541906 0.33629403 0.3327616 0.04468569
0002c0 4c 75 c6 3d e6 39 5f 3f aa 8a b8 bc f4 58 fd bc
       0.09690341 0.8719772 -0.022527058 -0.030926205
0002d0 b2 4b 45 bc 82 42 ad bb 59 c9 12 bc cc 36 d8 b9
       -0.012041973 -0.0052874694 -0.008959138 -0.00041239557
0002e0 ae 69 0d bc 0e 4a 70 37 cf 82 40 bc bf 2d 49 3c
       -0.008631153 1.4322357e-05 -0.011749937 0.012278973
0002f0 b7 4f 56 bc 0a ab 29 bc c2 9c 61 bc 3c 2f 0a bc
       -0.013080529 -0.01035572 -0.013770284 -0.008434113
000300 f5 7f af ba 3f 11 3d 3b 02 9e 5f bc 89 ee e9 3b
       -0.0013389575 0.002884939 -0.013648512 0.0071390313
000310 42 ef 20 3c b7 bd 66 3c 1f f1 11 bc 16 9b f9 3b
       0.0098226685 0.0140833175 -0.008907585 0.0076173646
000320 d6 01 1a bb 64 45 0c 3d 9e ad bb 3c be d2 b9 bd
       -0.002349963 0.034245864 0.022909936 -0.09073399
000330 59 6e 77 3f 95 6f 2a be bd c5 0e bf a9 0d 8c bd
       0.9665275 -0.16644128 -0.55770475 -0.06838543
000340 32 48 5d bd b3 b1 47 3d f7 84 f0 bc 10 f6 b7 3d
       -0.05402393 0.04875345 -0.029360278 0.089824796
000350 30 ec ad 3e b5 92 f4 bd 09 5c d0 3c 95 20 b7 bd
       0.3396926 -0.11942045 0.02543451 -0.089417614
000360 74 b1 2c bd 9b 8f 34 bc 87 13 c8 bd e2 81 59 3a
       -0.04216142 -0.011020566 -0.097693495 0.0008297247
000370 62 e7 43 bc af 94 18 3c 19 4c 72 3b e2 32 02 3c
       -0.011957021 0.009312793 0.0036971627 0.007946702
000380 d5 30 8d 3a 3c 8f 3f 3b 91 10 1f bc ed ee 0c bc
       0.0010771999 0.0029229661 -0.00970854 -0.008601886
000390 bd f1 7e bb 52 83 5e bc 8e 2a 0a bc 29 42 28 3c
       -0.0038901411 -0.013581114 -0.008432997 0.01026968
0003a0 4d 1b 98 bb 08 53 f4 bb 84 d8 5e bc 59 b4 76 3c
       -0.0046419264 -0.007456187 -0.013601426 0.015057647
0003b0 87 fa 5f bb 48 83 8e 3b e8 13 be 3a 73 62 99 3b
       -0.0034176426 0.004349146 0.0014501782 0.0046809255
0003c0 0d ea a2 3d 19 44 03 3c 80 bf f7 bc 47 4b a6 bc
       0.07954798 0.008011841 -0.030242682 -0.020299567
0003d0 b3 8e 88 be 5f b4 c0 bc 5c dd 88 be 8e a7 e6 bc
       -0.2667137 -0.023523508 -0.26731384 -0.028156068
0003e0 d9 ca b2 3c a1 4a 71 3d 5f af c3 bc b1 27 32 bd
       0.02182524 0.058909062 -0.023887334 -0.043494884
0003f0 b3 82 64 3e 5d 20 42 3d 93 cf 55 bd b0 dc de bc
       0.22315483 0.047394145 -0.05219991 -0.027204841

bias f4 [10]
000000 b9 eb 85 be 0a 0c 0f bf ba 92 93 be 37 76 14 bf
       -0.26156405 -0.55877745 -0.2882288 -0.5799288
000010 f4 f6 ca bd cf 06 8b be f1 5e 2c bf a2 b4 0e 3f
       -0.09910384 -0.27153632 -0.6733237 0.55744374
000020 87 e7 d2 3e 47 7c 27 bf
       0.41192266 -0.6542401

weight f4 [20, 10]
000000 8d 4b 34 3d 39 7d 92 be 1f 6f 3a 3f b3 b2 7f be
       0.044017363 -0.28611162 0.7282581 -0.24970512
000010 49 5f e8 3e 58 17 7d 3e ae 34 65 be c5 40 62 3e
       0.45385197 0.24715936 -0.22383377 0.2209502
000020 fb 73 8d be 87 54 0f be 9d df 58 3d ee 25 4e 3e
       -0.2762755 -0.13997088 0.05294763 0.20131657
000030 cf 72 97 3d 62 ba 4a 3e ac 2c de 3c 15 ec bf 3d
       0.07394945 0.19797662 0.02712091 0.09371201
000040 ef 77 86 3e 7d cb 35 be 91 6a 02 be 9a 51 7b 3e
       0.26263377 -0.17753406 -0.12735964 0.24542847
000050 ba 0c e0 3d f5 5f 29 3e 81 45 18 3e a2 b1 35 3e
       0.109399274 0.16540511 0.14870264 0.17743543
000060 fe 33 48 3c ba 2e 24 3e 20 6c 5a 3e 5c 48 34 be
       0.012219427 0.1603345 0.21330309 -0.17605728
000070 e3 0a 42 be 40 83 64 3e e9 9d ac bd b5 75 18 3e
       -0.18949465 0.22315693 -0.084285565 0.14888652
000080 24 e2 d1 3d 78 ef 28 3e 05 7e 41 3e b5 34 09 bd
       0.10248211 0.164976 0.18895729 -0.03349753
000090 14 73 1e 3e 28 a8 77 bd 54 fb 28 bd 36 30 06 3e
       0.15473586 -0.0604631 -0.04125531 0.13104329
0000a0 01 5d 1c bf bd 3f 6b be 76 4b 00 3f 8c 45 57 be
       -0.6107941 -0.22973533 0.50115144 -0.21022624
0000b0 be 59 34 3f 9a 42 f1 be 0e 5a 92 be 2e 65 b2 3e
       0.70449436 -0.47121125 -0.2858433 0.3484282
0000c0 73 e4 83 3e 2c a7 4e be 17 c0 70 3c af 16 e5 3d
       0.2576023 -0.20180959 0.014694235 0.11185967
0000d0 da e7 fb 3d 30 30 c6 3d 52 96 90 3b 44 e8 f5 3d
       0.123000816 0.0967716 0.004412451 0.12007192
0000e0 12 b8 13 3e 55 63 28 bd df b2 02 be cf 96 e4 3d
       0.14425686 -0.041110355 -0.12763546 0.11161577
0000f0 88 b2 ec bd a1 c9 81 be 2d c4 a3 3d 56 73 a8 be
       -0.1155749 -0.25349143 0.07996402 -0.32900494
000100 5c 5b 91 3d cc 5e 2a 3d 50 ed 35 be 9d 5b 70 3e
       0.070975035 0.04159431 -0.17766309 0.23472448
000110 4c 78 67 3e ad a4 a7 be 91 32 0a 3e 7f a0 d7 3c
       0.22604483 -0.32742825 0.13495852 0.026321648
000120 f7 fa a2 3e 76 79 92 3d f5 41 45 3e 07 5b 41 3e
       0.31832096 0.07152073 0.19263442 0.1888238
000130 61 64 7e 3d 09 78 9b bd d9 52 50 be 0b a2 07 3e
       0.062107448 -0.07591254 -0.20344104 0.13245408
000140 56 83 8f be 96 92 db bc ca bf 04 be c8 5c 0b 3c
       -0.2802989 -0.026803296 -0.12963787 0.0085060075
000150 ba 97 2c bd 2a b5 36 be 93 9c 15 be 98 1b 0c 3e
       -0.042136885 -0.17842546 -0.1461051 0.13682401
000160 8f af 2c 3e 27 ac 09 bd a7 f1 6e be e7 e4 10 be
       0.16863845 -0.033611443 -0.2333437 -0.1414982
000170 6a 06 9c 3e 5b a8 9b bd e3 9f e6 3e 63 ce 7d be
       0.30473644 -0.07600471 0.4504386 -0.24785762
000180 49 5f 25 be 97 5f 25 3e 5f f3 c8 3d 8b da d1 bd
       -0.1614963 0.16149746 0.09812044 -0.10246762
000190 e2 11 91 3d e4 7f 5c 3e 62 88 fe 3d 2f c8 79 3e
       0.07083489 0.21533161 0.12428357 0.2439277
0001a0 ec f6 87 3d 05 b3 7c 3d 61 ee 9d 3e 52 35 5c be
       0.066388935 0.061694164 0.3084593 -0.21504715
0001b0 d8 f8 c7 bd b2 34 78 3e 06 be 9c b9 e8 3a eb 3d
       -0.0976426 0.24238852 -0.00029896217 0.11485845
0001c0 61 e1 02 3e 8b f5 1d 3e f3 bd 91 3d bc 08 15 3d
       0.12781288 0.15425698 0.07116308 0.036385283
0001d0 ae b1 0f 3e 57 6b be bd 0d 27 b1 bd 47 a7 53 3e
       0.14032623 -0.09297817 -0.086500265 0.2066928
0001e0 0e 70 43 be ec dc 51 be 58 7a 1c bf 83 26 8e bc
       -0.19085714 -0.20494431 -0.6112418 -0.017352348
0001f0 01 fb 04 3f 4f 23 6a bf 7d c9 c7 be d2 d0 a2 3d
       0.519455 -0.91460127 -0.3902091 0.079499856
000200 0d cd 29 3f 31 db 2d be f6 e1 47 bd 19 3b 8d be
       0.6632851 -0.16978146 -0.048799478 -0.2758415
000210 ae 88 a8 be 5f e5 bc be cb 14 82 bd 5e fa 39 be
       -0.32916778 -0.36893746 -0.06351622 -0.18161914
000220 fb aa 8b be 90 f8 1c 3e c8 a3 8e 3e 60 45 d5 be
       -0.27278885 0.15329194 0.2785933 -0.4165449
000230 28 89 26 be 44 dd 86 bd fc 40 92 3d f6 8d 6b bd
       -0.16263258 -0.06585172 0.07141301 -0.05750843
000240 50 f6 b5 3d 45 05 c1 bd 72 12 9b bd 73 71 b1 3d
       0.08884871 -0.09424833 -0.075718775 0.08664217
000250 f5 60 0b 3d ab 5b 44 bc 08 f1 fe 3d 2a 12 c5 3d
       0.034028012 -0.011984746 0.12448317 0.09622605
000260 59 d4 1c 3d f7 f8 e9 3d 08 c8 31 3b 27 4e 25 3e
       0.038288448 0.114244394 0.0027127285 0.16143094
000270 57 3a d2 3d 95 fd c3 bc ea ac 47 bd 22 92 1d 3e
       0.10265034 -0.023924628 -0.048748888 0.15387776
000280 29 2b d1 3c 28 27 6f 3e 53 54 4d 3d 8a 57 75 3e
       0.025533276 0.2335478 0.050129246 0.23959175
000290 ad ae 8c bb 34 6f 55 3d 29 27 8c 3e 3f da 4d be
       -0.004293284 0.052108005 0.27373627 -0.20102786
0002a0 7f 11 f3 bd 58 9b 8b 3e b8 ad 1d 3f a6 6f 6e be
       -0.118685715 0.27266955 0.615932 -0.23284778
0002b0 33 24 73 bf 3f 2f b8 be fe 35 5f bf 94 3d 29 3e
       -0.9497711 -0.35973546 -0.8719176 0.16527396
0002c0 f0 61 cb be 2f 06 d7 3d 8d 2d 7c 3e 70 aa db be
       -0.39723158 0.10499226 0.24626751 -0.4290347
0002d0 40 3a 5c 3f 87 41 a9 be 5e e8 f3 3e 1b 06 df be
       0.8602638 -0.33057806 0.4763822 -0.43559346
0002e0 57 2a c9 be 37 32 53 3f 5f ef df be f0 20 83 3e
       -0.39290115 0.82498497 -0.43737313 0.25611067
0002f0 a7 57 7e bf f7 47 b4 be 74 34 57 3b 47 85 39 3e
       -0.99352497 -0.35211155 0.003283766 0.18117248
000300 c4 e6 02 3e ea 4f 8d 3e 16 bd 1b bb e4 92 85 3d
       0.12783343 0.27600032 -0.0023763827 0.06522158
000310 a7 2c 84 3e 5c 8e 2d be c0 79 11 be 4d 5d 92 3e
       0.25815317 -0.16948837 -0.142066 0.28586808

bias f4 [20]
000000 80 fe 45 3e 82 24 f1 be f5 10 c8 be b5 aa 63 be
       0.19335365 -0.47098166 -0.39075437 -0.22233088
000010 f2 ee fc 3e 58 20 4f be 06 72 c8 3e b1 14 a1 be
       0.4940105 -0.20227182 0.39149493 -0.314611
000020 e9 9d c8 3e 5d a9 3e 3e 2e 15 fa be 72 5c 74 be
       0.39182976 0.18619294 -0.48844284 -0.2386339
000030 35 1a 94 3e 6a 52 d8 3e 24 0f e2 3d 54 fa 31 be
       0.28926244 0.42250377 0.11038044 -0.17380649
000040 22 d7 e5 be 2a 94 f0 3e 27 3b c1 3e 81 7f c6 be
       -0.44890696 0.4698804 0.37740442 -0.38769153
