Models/simulations/effectSize/T_0_R_11_model.pt (torch, 3103 bytes, 4 tensors)

weight f4 [5, 30]
00000000: 2033 943f 685f 0e3e f852 4e3f 7001 593f
00000010: 8cb7 133f 5af2 a5bd d82f 3bbe bd82 ab3d
00000020: 95be 58bd 073a f9bd 861c d5bd d30d b8bd
00000030: 6a63 5f3a 054a 7e3e 343b c23d 7766 43ba
00000040: 5dec 65b9 a2a9 c738 c4b4 6ab8 9c77 cdb8
00000050: f86a dd37 b8d2 fb37 40b9 b5b6 aec4 8538
00000060: d751 49b9 f20f bfb8 20a0 5337 446f 6b38
00000070: 2e8e 1039 817d 0039 3a21 1bbf 6349 65bf
00000080: 69a1 193f 617b 1dc0 bd10 cc3d 1136 14bd
00000090: bbe9 10be 0527 12bb 2514 c1bc f89c a83d
000000a0: 7caf 373c 9d8d 6dbd 5f2b 8ebd 185c 563e
000000b0: e104 be3c b7aa 4cbf 70f8 07b9 29e2 1eb9
000000c0: 3249 9738 02f3 d1b8 b852 e1b7 d1b3 1e39
000000d0: 0197 1939 2857 1fb8 810e 0db9 483c f637
000000e0: 5742 2ab9 7071 f237 d71d 47b9 89d5 4e39
000000f0: f8ba 2a38 cf62 5039 4eaf 3039 fd52 29b9
00000100: ea57 b338 961b d538 0eba 9b38 14e3 f8b8
00000110: a8c7 d738 58ee 1138 8088 2a39 80c8 1838
00000120: 3723 47b9 60b1 8638 904d bc37 5a02 4539
00000130: cd9b 4539 920b 9ab8 c997 0e39 6c2c d5b8
00000140: 6cd0 ea38 30bb a537 c962 1c39 29ac 02b9
00000150: 2033 68b7 ac97 eeb8 0268 d3b8 cf5e 4139
00000160: 6822 1d38 6c70 a938 f291 07bf 64b5 3a3f
00000170: 1578 b23f fa92 553d be89 9bbe d471 33be
00000180: 9317 e5bb 53f6 1bbe 1b9a 16bb 160a fbbe
00000190: e96f e63d d344 b13b 8501 88be fb12 babc
000001a0: f59b 053d c4fd a0bb 1cb5 1239 d118 4bb9
000001b0: 44cf 58b8 02dc f938 480f 2d38 005c 41b4
000001c0: f8ef 0eb8 b882 93b7 5f23 0739 ac37 b4b8
000001d0: cfb4 45b9 fd6c 3a39 4285 8ab8 c046 9936
000001e0: 0259 c1b8 8ca9 fa38 14c3 ad38 75e0 2839
000001f0: acec 08b8 f422 72b8 6279 c6b8 8670 c2b8
00000200: f8a1 dcb7 003e adb6 2c8a 9ab8 fbd2 0239
00000210: aa74 af38 22d0 0239 4a06 88b8 78ec f238
00000220: 8e87 b238 5258 f6b8 485c c037 ce24 0939
00000230: 02a4 86b8 582f 35b8 be92 8738 f233 9f38
00000240: 8c7b 95b8 643f 5ab8 ccc7 dc38 9748 4f39
00000250: 8c73 8638 28aa 18b8
1.1578102 0.13903582 0.8059535 0.8476782 0.57701945 -0.081028655 -0.1827997 0.08374546
-0.05291613 -0.12169271 -0.10405831 -0.08987012 0.0008521589 0.24832924 0.09483948 -0.0007453928
-0.00021927194 9.520656e-05 -5.59583e-05 -9.797441e-05 2.6395064e-05 3.0019655e-05 -5.4157863e-06 6.378569e-05
-0.00019199341 -9.11056e-05 1.2613862e-05 5.613199e-05 0.00013785876 0.00012253785 -0.60597575 -0.89565104
0.6001192 -2.4606555 0.0996413 -0.036184374 -0.14151661 -0.002230109 -0.023569176 0.082330644
0.011211272 -0.05799638 -0.06941866 0.20933568 0.023195686 -0.7994799 -0.00012967153 -0.00015152305
7.213875e-05 -0.0001001116 -2.6860609e-05 0.00015135041 0.0001464747 -3.7989725e-05 -0.00013452211 2.9353556e-05
-0.00016237177 2.8901472e-05 -0.00018989235 0.00019725239 4.0705287e-05 0.00019873235 0.00016849974 -0.00016148011
8.5517604e-05 0.0001016177 7.425631e-05 -0.00011867858 0.00010289188 3.479267e-05 0.00016263314 3.6426354e-05
-0.00018991237 6.4226566e-05 2.2447464e-05 0.0001878826 0.00018845424 -7.3454474e-05 0.0001359872 -0.00010164906
0.00011196811 1.9756699e-05 0.0001491412 -0.00012461901 -1.3840181e-05 -0.000113769755 -0.00010080637 0.00018441233
3.746376e-05 8.079488e-05 -0.5295707 0.7293303 1.3942896 0.05214212 -0.30378526 -0.1752389
-0.0069913357 -0.15230684 -0.0022980038 -0.49031132 0.11251814 0.005409816 -0.2656366 -0.022714129
0.032619435 -0.0049130637 0.00013991114 -0.00019368833 -5.1691444e-05 0.00011914225 4.1260646e-05 -1.8007995e-07
-3.4078927e-05 -1.7584636e-05 0.0001288778 -8.5934385e-05 -0.0001885474 0.00017778944 -6.605174e-05 4.5679917e-06
-9.219536e-05 0.000119525095 8.285619e-05 0.00016105345 -3.2645345e-05 -5.772985e-05 -9.463985e-05 -9.2716e-05
-2.6301466e-05 -5.1630195e-06 -7.369029e-05 0.00012476362 8.366381e-05 0.00012475302 -6.486157e-05 0.00011583505
8.5129504e-05 -0.00011746645 2.2931155e-05 0.00013079049 -6.420167e-05 -4.3197855e-05 6.4646345e-05 7.5913864e-05
-7.127886e-05 -5.2034287e-05 0.000105276325 0.000197681 6.41114e-05 -3.6398094e-05

bias f4 [5]
00000000: 16b3 11bf 8d8c 4d3f d9dc 11c0 365a 08bf
00000010: 619d 1840
-0.5691389 0.8029259 -2.2791045 -0.5326265 2.3846056

weight f4 [10, 5]
00000000: b90e 4abf d19b 413f 9d7e 62bb 8b54 973d
00000010: 90e4 e83a 2cad 6f40 107f c0be 363d b7bc
00000020: cd20 833f 28c8 b53c 1940 e03f 74d3 26bf
00000030: 9199 f3bb 11c8 1ac0 58c6 f73b 6efd 423e
00000040: 85c6 8dc0 fbb0 ebbe 521e 163e 19f0 023f
00000050: ff7e 6a3f fc6f 5cbf 342e 4bbd c678 f43f
00000060: b479 5a3d 1851 abbf 94ba e03a 9bbb a13d
00000070: a4d4 24b9 93fe a5bd 0b3a 22bf f52f f03e
00000080: a915 da3d f25b 5ebf bd74 dfbd cae7 92bf
00000090: 8995 043f 4a97 f93c 23c7 843e 5c68 ffbc
000000a0: 7d3a afbf 2654 3b3e 6825 d83b 343c 9d39
000000b0: 9c61 14bc 60f3 82bf 527f d43e abec 1abe
000000c0: 20e1 fc3c da09 81ba
-0.78928715 0.7562838 -0.003456033 0.07389172 0.0017768312 3.7449446 -0.3759694 -0.022368055
1.0244385 0.022190168 1.7519561 -0.651664 -0.007434078 -2.418461 0.007561486 0.19041988
-4.4304833 -0.46033463 0.14660004 0.5114761 0.9160003 -0.86108375 -0.04960461 1.9099357
0.05333872 -1.3384123 0.0017145448 0.07897111 -0.00015719474 -0.08105197 -0.63369817 0.46911588
0.106486626 -0.8685905 -0.10910938 -1.1476986 0.5179067 0.030467648 0.2593318 -0.031177692
-1.3689724 0.18293819 0.006596256 0.00029990228 -0.009056475 -1.0230522 0.41503388 -0.15129344
0.030869067 -0.0009844855

bias f4 [10]
00000000: e92a 93bf 8e36 3940 4ca4 223e 1ae7 0640
00000010: 6461 fd3f 45de 41bf 8c84 75bf 8384 81bf
00000020: 1228 88bf 2051 a0bf
-1.149747 2.8939548 0.15882987 2.1078553 1.9795346 -0.7572978 -0.95905375 -1.0118564
-1.0637228 -1.2524757
