Models/simulations/IV/n10_N300/16_11.pt (torch, 2023 bytes, 2 tensors)

weight f4 [10, 10]
00000000: 034c 29bd c05b 0abd 871c d4bc 2409 fbbd
00000010: 358a 813d 670e 213d 02a1 23be 06f1 15be
00000020: 974a 91bd 8b10 25be 516e 25bd 7b44 5dbd
00000030: 583f 3d3e 76b8 7abd b171 9c3c 3a81 4dbb
00000040: 8c15 453d 89de 9f3c a0be dabd d8e1 9c3d
00000050: 9264 ebbb 0578 053e f3ad 24be 5c75 ef3c
00000060: 4bf7 db3c c723 88bc 464a 863f e7df 673e
00000070: d42f 38bd 7b47 b2be 25f3 4cbc 3511 ad3e
00000080: 841b a43f 4d4e 7dbf 62aa b6bd 3028 02bd
00000090: 02ac b23e 5883 fb3f 5e87 e5be 2012 cc3d
000000a0: ac1f edbb 2b1d 64bc e260 1cbd 9edb 573e
000000b0: 0e13 06bd a954 16bd b61a 9fbc ffc2 5d3d
000000c0: 6574 0fbe a9a8 423d cfda b83c e414 55bd
000000d0: fbc6 453e 3cff c23b 151c 5a3b 453e d63a
000000e0: 927d 9abd aed7 20be 6154 97bd 9ad7 3ebd
000000f0: fdae 653e fc12 fdbc fa0c 1abd a422 893e
00000100: af59 343f c482 ee3d c9d1 61bf 7aae 8e3d
00000110: 4b7b f03d 9e0f a63f 0df6 3d3e abc8 19be
00000120: 10ed 143e 760c 043e 80b2 31be a294 963b
00000130: 5fdb f0be 3e07 93bf c6c2 c93e 1880 f73e
00000140: 0919 dc3d 7cc8 883e 2da9 35bc b0d2 953f
00000150: 16d5 f1bd b2ec b73d be94 d63d 4ee3 853f
00000160: 41ea 37bf 5a99 febe 2bd0 09be 8444 483d
00000170: 680d 52be 4032 4b3d a5f5 f1bd c5e6 083e
00000180: 4166 d73d 990d 28bf 7004 0fbf 773a 3dbf
-0.041332256 -0.033778906 -0.02589251 -0.12257603 0.06325189 0.039320376 -0.15979388 -0.14642724
-0.07094305 -0.16119592 -0.04038841 -0.054020386 0.18481195 -0.061211072 0.019097181 -0.0031357543
0.04811625 0.019515293 -0.1068089 0.07660264 -0.00718362 0.13034065 -0.16081981 0.029230766
0.026851317 -0.016618622 1.0491416 0.22644006 -0.044967487 -0.3482016 -0.012509142 0.3380219
1.2820897 -0.989476 -0.08919217 -0.031776607 0.34896857 1.9649458 -0.4482984 0.099643946
-0.0072364416 -0.01392297 -0.038178332 0.21079871 -0.032733016 -0.036701832 -0.019421916 0.05414104
-0.14009245 0.047524128 0.022565274 -0.052021876 0.19314186 0.0059508365 0.0033280898 0.0016345462
-0.07543482 -0.15707275 -0.07389141 -0.046592332 0.22430034 -0.030892842 -0.03761003 0.2678424
0.70449346 0.11646035 -0.8821073 0.069668725 0.11742266 1.2973516 0.18550892 -0.15017955
0.14543557 0.12895378 -0.17353249 0.004595355 -0.47042367 -1.1486585 0.39406413 0.48339915
0.107469626 0.26715457 -0.011087698 1.1704922 -0.11808221 0.08980693 0.10477589 1.0459993
-0.7184182 -0.49726373 -0.13458316 0.048893467 -0.20512927 0.04960847 -0.11814431 0.13369282
0.1051755 -0.6564575 -0.55866146 -0.73917335

bias f4 [10]
00000000: 1fba 9dbf e86c 64bf 3de0 a4be 77ad 093f
00000010: da21 88bf e181 99bf c297 7b3f 013f b83f
00000020: afb0 2c3f 778b 943f
-1.2322425 -0.8922868 -0.3220233 0.5378031 -1.0635331 -1.1992761 0.9827844 1.4394227
0.674571 1.1605061
