Models/simulations/IV/n10_N300/1_11.pt (torch, 2023 bytes, 2 tensors)

weight f4 [10, 10]
-0.14141533 0.0019124253 1.1298714 0.36869228 1.262851 0.3778272 0.4631052 0.21762462
-0.015839752 0.39523166 0.098711744 -0.026862692 -0.081670105 -0.05403492 -0.15608071 -0.028538933
-0.18064438 0.037950963 0.06680547 -0.11413998 -0.009787021 -0.027877206 -1.1396837 -0.15721455
0.24610896 0.065072455 1.7119538 0.13708031 -0.17673919 0.37644538 0.14460382 0.17648438
-0.31930903 -0.9687206 1.981993 -0.06405778 -0.6088212 -0.26001605 -0.13812521 -0.41414323
-0.022755243 0.043014158 1.4846876 0.049773015 -1.4446026 -0.4405616 0.30082628 0.15013589
-0.023659252 0.18606794 -0.039332844 -0.06598787 0.9995356 -0.5073057 -0.13791765 -0.56033546
-0.49542215 -0.15739809 0.07831619 -0.18018217 0.20906283 -0.039547723 0.03356972 0.15150662
0.035055775 -0.3041016 -0.48719773 0.84735745 -0.09518712 0.14120218 0.014517788 -0.054233927
-0.052804288 0.023838375 -0.20340629 0.13340537 0.19973868 -0.081044465 0.3142071 0.18012545
0.09569825 -0.056945845 0.085737 0.03170454 0.07559856 0.875649 0.22740978 -0.067773856
-0.07343927 0.015383798 0.14404367 0.06331537 0.74028164 0.00658094 0.03836888 0.04172355
0.7568555 -0.06214191 -0.010589746 -0.32456726
00000000: 2ecf 10be 58aa fa3a a09f 903f 3cc5 bc3e
00000010: 1aa5 a13f 9172 c13e 201c ed3e fdd8 5e3e
00000020: 5ec2 81bc ce5b ca3e 6229 ca3d 260f dcbc
00000030: a842 a7bd b853 5dbd 9fd3 1fbe 7bca e9bc
00000040: d7fa 38be 7872 1b3d 4ed1 883d 39c2 e9bd
00000050: be59 20bc bd5e e4bc 28e1 91bf dafc 20be
00000060: fd03 7c3e b544 853d 4d21 db3f c85e 0c3e
00000070: 1efb 34be 73bd c03e 0613 143e 52b8 343e
00000080: 797c a3be 13fe 77bf f2b1 fd3f ba30 83bd
00000090: b5db 1bbf d320 85be b270 0dbe 950a d4be
000000a0: 3469 babc 9d2f 303d 3e0a be3f cade 4b3d
000000b0: bde8 b8bf 4a91 e1be e705 9a3e 39bd 193e
000000c0: 0cd1 c1bc 9888 3e3e 7a1b 21bd a624 87bd
000000d0: 91e1 7f3f c9de 01bf 493a 0dbe 2572 0fbf
000000e0: f9a7 fdbe f72c 21be 3d64 a03d ad81 38be
000000f0: 9114 563e cbfc 21bd 6780 093d 8d24 1b3e
00000100: a596 0f3d 34b3 9bbe fb71 f9be 6bec 583f
00000110: 77f1 c2bd 4e97 103e 04dc 6d3c 6524 5ebd
00000120: 4f49 58bd b248 c33c bd49 50be 6b9b 083e
00000130: 4c88 4c3e a4fa a5bd c1df a03e ce72 383e
00000140: 72fd c33d 0c40 69bd e196 af3d 9fdc 013d
00000150: 6bd3 9a3d 882a 603f 1cde 683e 05cd 8abd
00000160: 5467 96bd 530c 7c3c 2f80 133e 7dab 813d
00000170: 1983 3d3f eda4 d73b b028 1d3d 50e6 2a3d
00000180: 48c1 413f 8488 7ebd 9d80 2dbc ae2d a6be

bias f4 [10]
-1.0139508 -0.92681754 0.7549974 0.4415583 1.1196406 0.5872531 0.3470062 -0.60832834
-0.7951815 0.05718352
00000000: 24c9 81bf ea43 6dbf 8247 413f ee13 e23e
00000010: 6250 8f3f 3856 163f ccaa b13e 68bb 1bbf
00000020: 0491 4bbf 4439 6a3d
