Models/simulations/IV/n10_N300/8_12.pt (torch, 3871 bytes, 4 tensors)

weight f4 [10, 30]
00000000: c416 ebbd 03a8 9fbe 76d4 3ebe a721 9dbc
00000010: a743 173d fb56 423d e1d6 06bf 6443 9ebe
00000020: 11d0 f73e a934 d23d b2c1 0b3c 4c87 8e3b
00000030: 51fc 393c 413e 1a3c 3adb cd39 20f2 943b
00000040: eb24 f6ba 6cec 00bc 6c36 703c 914b 333c
00000050: 74fc b83b 9dc4 8d3c 7fad 5dbb 736b f13a
00000060: fd22 4abc 7314 813c b055 cd3b 067e 4e3c
00000070: 25e9 38ba 1a5a 173a 1111 febe a1d7 e8be
00000080: 2a3f f8be f072 ebbd 596a d03d 3d7a d93d
00000090: 18df e8be a550 953c 0436 e23e 7564 263c
000000a0: d7e7 87bc 5335 7c3b 82d9 5cbc 8bbf 19bb
000000b0: e21f 213c 32d1 c83a 67c7 b83b 4ffb b8bb
000000c0: ced5 f439 90db 653c 9adb 823a 41f3 ddbb
000000d0: 58d1 8a3a 1158 263b 9aa3 f0bb 6877 a03b
000000e0: adc6 9abb f824 c2bb 40aa 17bc 6b86 dcba
000000f0: d9f1 c6be 2a61 ab3c 2353 10bf a14d a0bd
00000100: acfc 1b3e b937 ab3e 0572 76bf 94a5 5e3d
00000110: 0ff0 cf3e de2e b63c fca4 363b 8da2 4b3c
00000120: 18e5 8a3b e729 8ebc a2ef 073b 566a cc3b
00000130: 632e 153c 55c7 593c c42a 61bc 35bf 05bc
00000140: 6f61 81bc 2543 87bc 82df 81bc 4067 60bb
00000150: 7f2a 5b3c 3253 1b3c f0a9 f13a f67f 7bbc
00000160: 7bc9 4b3c cd6f 55bc 032e e33d 61de a53f
00000170: 0b4b c8bd 5054 c13d 9e14 8f3d d2f7 ea3e
00000180: 1875 1abe b8d2 6e3e d328 e2bd df96 66bd
00000190: e8ba 093c 8524 633c 6fb4 733c 6e2c 25bb
000001a0: 936a 20bc e275 51bc 7b56 2ebc 3e32 76bc
000001b0: fd41 023c 80ce 31bc 0015 6d3c 2d83 e0bb
000001c0: ca9a 643b 05d7 8d3c 1d8b 053c 77a4 58bc
000001d0: b956 85bc 94b4 05bc edc2 1eba c6f1 473c
000001e0: 2cb8 fd3e 714f 24be 24d3 803e 5439 acbc
000001f0: 7b91 d83c 9cac 973c b429 9a3d eb35 473f
00000200: 6b66 b1bd c436 b0be 426a 5cbc 4663 23bc
00000210: e455 513c d21e 403c 292b 243c b43c 5a3b
00000220: 2925 0c3c e0fc 133c 24d7 68bc a495 3a3c
00000230: ade1 00bc 410b 863b 7e77 f8bb 184c a9bb
00000240: 49dc 613c f91e 50bc 2b67 3a3b 5a1c 0cbc
00000250: debc 483c d46a 5b3c 3fd5 40be 8795 40be
00000260: 8ecd a1bc 5018 31bd d858 53bd 4a29 fc3d
00000270: 967c 933f 9555 083f d1f7 573e 4b2a 2ebe
00000280: 1863 84bb bc8c 39ba 4e2e a73b 78bb a73b
00000290: d99c 5ebc 5787 563c d993 e6bb 8a24 23bc
000002a0: eae6 c9bb 47aa 1eb9 d439 963b d7f9 8f3b
000002b0: 27e5 813a 94c9 10bc c1fb 3abc e566 53bc
000002c0: 5681 63bc a227 7c3c dd62 7039 b70b 803a
000002d0: 0596 a9be 235c bdbd 9956 d7be f168 c5bd
000002e0: b284 e33d 4c11 633e 1d78 65bf 8b15 0e3e
000002f0: 5209 6c3e 911d 78bc 4593 543c 4452 2f3b
00000300: 554c 09bc 58d7 89bc cc98 8dbc 3460 98bb
00000310: 2598 823c c980 ad3b e236 99ba 1112 ba3b
00000320: 33bd 063c e3ec 09bc a5c6 64bc 0ad5 cb3b
00000330: 9057 883b e02c 3cbc 832c d6bb 90fc 0abb
00000340: 612d e43b 1f06 e0ba f95b 8e3f f9de e63d
00000350: c9fb fa3d 3573 4c3d 35c1 c53d 410c ee3e
00000360: 74d6 ebbe 3200 17be 9f91 7e3f 9034 13be
00000370: c44d 8c3c d362 43bc 4d0c eabb f172 a6bb
00000380: 3179 483c bed7 0a3c 50a2 293c b973 f63b
00000390: 0c96 8e3b 5a75 3a3c 2cd6 16bc 8382 06bc
000003a0: 2f89 153a f61e 023c b790 4ebc ba75 473c
000003b0: ae77 97bb 4207 313c 49f2 643c 9903 433c
000003c0: 8297 9cbd 9b7e 953e 59f0 4c3e 5085 083e
000003d0: 6260 e8bd 970e cbbe 12bc cc3e 46be 81bf
000003e0: a9f0 8bbe 9ae2 633e 15b3 0b3c 2aa7 d33b
000003f0: c790 4bbc 815a 80ba 7f9f 853c 104c cf3a
-0.114789516 -0.3118287 -0.18635735 -0.019181086 0.036929753 0.047446232 -0.5267163 -0.3091079
0.4840093 0.102639504 0.008530067 0.0043496247 0.011351661 0.009414257 0.00039263983 0.004545465
-0.0018779313 -0.007868867 0.014661413 0.010943309 0.005645329 0.017305667 -0.0033825336 0.0018418863
-0.012337443 0.015756821 0.0062663183 0.0126032885 -0.0007053784 0.0005773619 -0.49622396 -0.45477012
-0.4848569 -0.11496532 0.10176534 0.10619018 -0.45482707 0.01822693 0.44181836 0.010155787
-0.016590042 0.0038483932 -0.013479592 -0.0023460116 0.009834262 0.0015321134 0.005639005 -0.0056451927
0.00046698604 0.014029399 0.0009983659 -0.006773383 0.0010590954 0.0025382082 -0.0073437216 0.004897047
-0.004723391 -0.005924817 -0.009256899 -0.0016824728 -0.3885639 0.020920355 -0.56376857 -0.078273065
0.15233105 0.3344095 -0.9626773 0.054357126 0.40612838 0.022239145 0.0027869334 0.012428892
0.004238736 -0.017353965 0.0020742198 0.006238262 0.009105298 0.013292153 -0.013743106 -0.008163263
-0.01579353 -0.01651151 -0.015853647 -0.003424123 0.013376831 0.0094802845 0.0018437486 -0.0153503325
0.012438173 -0.013027144 0.110927604 1.295849 -0.09779938 0.094399095 0.06986354 0.45892197
-0.1508373 0.2332257 -0.11042943 -0.056296226 0.008406378 0.013863687 0.014874562 -0.0025203484
-0.009791034 -0.012784453 -0.010640736 -0.015026627 0.007950303 -0.010852456 0.014470339 -0.006851575
0.00348823 0.017314443 0.008150843 -0.013222805 -0.016276704 -0.008160729 -0.0006056268 0.012203639
0.49554574 -0.1604593 0.25161088 -0.02102343 0.026436558 0.018514924 0.075274855 0.7781665
-0.08662113 -0.34416783 -0.013453068 -0.009972399 0.012776826 0.011726098 0.010020056 0.0033300342
0.008553782 0.009032458 -0.01421145 0.011388216 -0.007866305 0.004090697 -0.007582604 -0.005166542
0.01378543 -0.012702697 0.002844284 -0.008551681 0.012252061 0.013392169 -0.18831347 -0.1880704
-0.019751336 -0.043236077 -0.0515984 0.12312563 1.1522396 0.5325559 0.21090628 -0.17008321
-0.004040133 -0.0007078161 0.0051019555 0.0051187836 -0.0135872 0.013093791 -0.007036668 -0.009957442
-0.0061615603 -0.00015131487 0.0045845304 0.004393797 0.0009910212 -0.0088371225 -0.011412562 -0.01290295
-0.013885817 0.015390309 0.00022925013 0.0009769116 -0.33122268 -0.09246089 -0.42058256 -0.096391566
0.11109294 0.22174567 -0.89636403 0.13875405 0.2305043 -0.015143768 0.012974565 0.0026751915
-0.008380015 -0.016826317 -0.017284773 -0.00465014 0.015941689 0.0052948934 -0.001168933 0.005678423
0.00822382 -0.008418295 -0.013963376 0.0062204646 0.004160829 -0.011485308 -0.006536068 -0.0021207668
0.0069634174 -0.0017091668 1.1121818 0.112729974 0.122550555 0.049914557 0.09655992 0.46493724
-0.46062052 -0.14746168 0.9944095 -0.1437552 0.017126925 -0.011925417 -0.0071425796 -0.00507962
0.0122359255 0.0084742885 0.01035364 0.0075211194 0.004351383 0.011380518 -0.009206336 -0.008209827
0.0005704341 0.007941952 -0.012607745 0.012174064 -0.004622421 0.010804953 0.013973781 0.011902713
-0.07646085 0.29198155 0.2001356 0.13332105 -0.113465086 -0.3965957 0.39987236 -1.0136192
-0.27332047 0.2225441 0.008526583 0.0064591365 -0.012424654 -0.0009792597 0.016311405 0.0015815515

bias f4 [10]
00000000: 4207 bd3e 93fc 593e 6c98 303e bd68 e9be
00000010: 99d5 16bf 7e9f 25bf cbfa 0d3e bb48 bfbd
00000020: 0c6e a23d 1248 12be
0.369196 0.21287756 0.17245644 -0.4558772 -0.58919674 -0.6469649 0.13865201 -0.09340044
0.07931146 -0.14285305

weight f4 [10, 10]
00000000: 655b 1dbf 5fa9 d7be 46d4 e4be fb64 4b3f
00000010: bc4f a6be 6450 533f 35a4 f3be 3ecf 9abf
00000020: 6b87 c23e 7a7c dabd 0d1e 9b3d 15cd c9bd
00000030: 927b 11bf 9280 6ebf dd10 8abd a6f7 213f
00000040: eef9 15bf 16b9 913e a276 583e 5ef1 33bf
00000050: d167 923e 0080 ac3e 8e51 f73d 4fb9 99be
00000060: 8f6f c7be a189 ca3e 284a 50bd ea0e 883e
00000070: e207 623e 23c7 aebe 3214 82be ba1d 42bd
00000080: f8b3 4d3d 5cdf ca3e 4e6a ea3e 0ed1 833e
00000090: d21a e03d 111c 9cbd e91d b5bc 17fd 253e
000000a0: 431e f9bd 305b 0abe 7c54 1abe 1647 973e
000000b0: 30fe 633e d38c 1f3f 3d92 31be a63e 9f3e
000000c0: d87d 6f3d 655f 163e 7d84 993d 9e01 fd3d
000000d0: ce12 dcbc 1896 19be ca70 55bc 66bb 8b3e
000000e0: 5530 25bc 4eec 4b3c 15d8 bd3d 530e 67be
000000f0: 9294 083f 2dd7 0f3f a58d 873f 30cf fa3e
00000100: 8931 b8be db57 f0be b450 353f 6e58 693f
00000110: 2400 0abf 8e1d 4e3f d20a 11be 1763 54bf
00000120: 8ccf 0fbf 043b 4c3f 2e9e d6be caf4 01bf
00000130: ec24 1dbf 529e 383f fa9c 833f 57b4 5c3e
00000140: 9084 04be a2bd 11be 8063 2dbe 0637 5abd
00000150: efa7 f33d 2d33 11be 412d a6bd ea17 90be
00000160: c4d4 2e3d 5bc3 07bd 0fe4 02bf b940 f9be
00000170: 133f 03bf 4fd6 1a3f 5c01 803f 75b1 6c3f
00000180: 6e81 d8be b55e 443f ff96 34bf bad4 263f
-0.6146758 -0.42121407 -0.44693202 0.7945096 -0.32482708 0.8254454 -0.47586218 -1.2094495
0.3799394 -0.10668273 0.07574091 -0.098535694 -0.5682918 -0.9316493 -0.06741498 0.63268507
-0.5858449 0.28461522 0.21139005 -0.7029017 0.2859483 0.33691406 0.12076102 -0.30024192
-0.389523 0.39558128 -0.05085197 0.2657388 0.2207332 -0.34136304 -0.25406033 -0.04739163
0.05022046 0.39623535 0.4578423 0.25745434 0.109426156 -0.07622541 -0.022108989 0.16209827
-0.12163975 -0.13511348 -0.1507129 0.29546422 0.22264934 0.62324256 -0.17340942 0.31102484
0.058469623 0.14684828 0.07495973 0.12353824 -0.026864436 -0.14998662 -0.013027379 0.2729141
-0.010082324 0.012446476 0.0926973 -0.22564058 0.533517 0.5618771 1.0590101 0.48986197
-0.35975292 -0.46942028 0.7082627 0.9115056 -0.53906465 0.80513847 -0.14164284 -0.829637
-0.56176066 0.7977755 -0.41917557 -0.50764143 -0.61384463 0.7211658 1.028228 0.21553169
-0.12941194 -0.14232495 -0.16932487 -0.05327513 0.11897265 -0.14179678 -0.081141 -0.28143245
0.042683378 -0.03314529 -0.5112924 -0.48682192 -0.5126812 0.6048326 1.0000415 0.9245828
-0.42286247 0.7670701 -0.705429 0.65168345

bias f4 [10]
00000000: da18 703e 5a7e b63e 055a 673e b690 93bf
00000010: ab53 04bf 19da 9cbe ee5e 183f d037 e13e
00000020: 6d54 313d abf9 173e
0.2344698 0.35643274 0.22592933 -1.1528537 -0.5169017 -0.30635145 0.5951985 0.43987894
0.043293405 0.14841335
