Models/simulations/nonlinear/T_0_R_5_model.pt (torch, 3103 bytes, 4 tensors)

weight f4 [5, 30]
1.0033714 0.89845663 -0.11591054 -0.076723896 -0.0030229567 -0.001695275 -0.0693702 -0.19416988
-0.2767313 -0.054311626 0.3773899 -0.5159918 -0.23457797 -0.001061152 -0.10080065 0.06280574
-9.00475e-05 7.466748e-05 -5.4902528e-05 -2.149868e-05 1.0736112e-06 -0.00013349332 0.00015963452 7.833062e-05
-1.3732031e-05 0.00010330825 -8.147037e-05 5.5946424e-05 -0.00014770158 -2.8766663e-05 -0.00017284541 6.0798004e-05
4.900663e-05 -7.915695e-05 -8.7926834e-05 0.00011550404 8.402292e-05 -1.8605191e-05 0.00017390451 -1.0996577e-05
-0.00017734783 0.00021647364 0.00010551223 -9.7577155e-05 3.7407866e-05 -0.00018698686 9.6432675e-05 -6.4534586e-05
-0.00019676365 -9.541531e-06 8.906984e-05 -0.0001852066 0.00018129263 6.487816e-05 0.00010892816 0.000122047626
5.2974225e-05 0.0001262827 -0.00010226494 -5.308354e-05 0.00014962221 0.000100906356 0.000120618424 5.097527e-05
-8.831476e-05 -0.00018041139 9.7854354e-05 -7.130929e-05 -0.0001799271 -9.648909e-05 -9.057185e-06 -4.1189356e-05
2.4070614e-06 -8.909075e-06 -1.8106657e-06 -4.6278336e-05 0.00019964766 -1.0869029e-05 -0.00016083267 -4.084347e-05
-0.0001577637 8.8043525e-05 -5.9047336e-05 -2.434972e-06 0.00012454322 -5.8474398e-06 -7.26961e-05 -3.4681725e-05
-8.585224e-05 -2.5603193e-05 -0.00012316761 4.2881817e-05 -3.0049516e-05 -0.000101806145 8.999171e-05 5.856571e-05
-0.00017774888 -0.00017188845 0.00017014866 8.3648134e-05 0.12853228 8.98334e-05 9.714792e-05 -0.00013503304
-0.00015073648 9.769254e-06 -0.00010545843 -5.0572693e-05 0.00013052799 -8.405968e-05 0.00016113739 0.00012288547
-1.556937e-05 -0.00018882008 8.999683e-05 7.969701e-05 7.8735495e-05 -2.9019982e-05 0.00016467574 -6.628271e-05
1.2809218 1.1250596 -0.197461 -0.42254826 -0.00025749076 -0.021742074 0.00030739474 -0.29769117
-0.44395027 -0.35880297 0.37746647 -0.30232176 -0.14685073 0.0244109 -8.653797e-05 -6.332017e-05
0.0001349716 2.8517461e-05 4.5231864e-05 5.7585552e-05 -6.811893e-05 -5.5550918e-05 -9.811601e-05 0.00018526545
-0.00015930187 -0.00017317398 -0.00015228208 -3.107675e-05 5.9599188e-05 -0.000102248174
00000000: 796e 803f 4101 663f 8162 edbd 6b21 9dbd
00000010: cc1c 46bb fd33 deba f711 8ebd 78d4 46be
00000020: baaf 8dbe de75 5ebd 4039 c13e 0a18 04bf
00000030: 3535 70be 5a16 8bba 9270 cebd 4ca0 803d
00000040: e2d7 bcb8 cc96 9c38 2447 66b8 1058 b4b7
00000050: 0019 9035 57fa 0bb9 9163 2739 6e45 a438
00000060: a062 66b7 32a7 d838 12db aab8 04a8 6a38
00000070: 57e0 1ab9 f04f f1b7 d63d 35b9 5c01 7f38
00000080: 788c 4d38 1001 a6b8 5c65 b8b8 c23a f238
00000090: 7635 b038 5812 9cb7 235a 3639 f07d 38b7
000000a0: 72f6 39b9 33fd 6239 7246 dd38 56a2 ccb8
000000b0: 64e6 1c38 e711 44b9 e63b ca38 be56 87b8
000000c0: 5752 4eb9 9014 20b7 02cb ba38 0534 42b9
000000d0: 5f19 3e39 320f 8838 5c70 e438 d2f3 ff38
000000e0: a430 5e38 c16a 0439 1277 d6b8 04a6 5eb8
000000f0: e8e3 1c39 b09d d338 86f4 fc38 48ce 5538
00000100: a035 b9b8 d02c 3db9 2837 cd38 e28b 95b8
00000110: d0aa 3cb9 305a cab8 50f4 17b7 bcc2 2cb8
00000120: 0089 2136 3078 15b7 0006 f3b5 fc1a 42b8
00000130: 8358 5139 205a 36b7 31a5 28b9 584f 2bb8
00000140: 5f6d 25b9 02a4 b838 98a9 77b8 8068 23b6
00000150: d197 0239 2035 c4b6 6c74 98b8 3877 11b8
00000160: 920b b4b8 70c6 d6b7 8e26 01b9 00dc 3338
00000170: d812 fcb7 c280 d5b8 eeb9 bc38 74a4 7538
00000180: 1a62 3ab9 f43c 34b9 ef69 3239 406c af38
00000190: f79d 033e f064 bc38 e4bb cb38 a897 0db9
000001a0: 040f 1eb9 a0e6 2337 9029 ddb8 041e 54b8
000001b0: 57de 0839 3249 b0b8 fdf6 2839 d1da 0039
000001c0: f89a 82b7 01fe 45b9 aebc bc38 0223 a738
000001d0: cc1e a538 f06f f3b7 cfac 2c39 4201 8bb8
000001e0: 3ff5 a33f f401 903f 3733 4abe 3f58 d8be
000001f0: d3ff 86b9 6f1c b2bc d329 a139 fa6a 98be
00000200: 734d e3be 06b5 b7be 4943 c13e ebc9 9abe
00000210: 0a60 16be 5ef9 c73c b87b b5b8 c2ca 84b8
00000220: 2a87 0d39 c838 ef37 58b7 3d38 0488 7138
00000230: 12db 8eb8 58ff 68b8 a2c3 cdb8 d143 4239
00000240: 450a 27b9 0996 35b9 e9ad 1fb9 6858 02b8
00000250: 24fa 7938 126e d6b8

bias f4 [5]
-1.1178044 -1.7363667 -1.9666014 2.1850033 0.08192911
00000000: 3714 8fbf 4441 debf 98b9 fbbf 18d7 0b40
00000010: 73ca a73d

weight f4 [10, 5]
-0.55174184 -0.053436466 -0.06213153 0.05902696 -0.80364865 -0.2523437 -0.053795047 -0.057204966
0.06233018 -0.9758153 -1.7209603 0.06294967 0.2274515 -0.0812539 -0.44693354 -2.0007904
0.04552084 0.049834237 -0.051751003 -0.3704418 0.5543092 -0.09738333 -0.1573729 0.14052609
-0.42703727 -1.8047701 0.080948316 0.20739941 -0.19590643 -0.4535022 1.1166419 -0.34972236
-0.3278352 0.2595217 -1.0306904 -1.9755467 0.091712356 0.17982666 -0.09719501 -0.16479425
-2.3873684 0.11203845 0.11923019 -0.14945138 -0.10747025 1.1181146 -0.27662247 -0.26988885
0.31466886 -0.90774274
00000000: f43e 0dbf 32e0 5abd a27d 7ebd 41c6 713d
00000010: ebbb 4dbf 3233 81be 3258 5cbd c14f 6abd
00000020: ee4d 7f3d 08cf 79bf 6d48 dcbf c2eb 803d
00000030: 0ce9 683e 7268 a6bd 79d4 e4be f30c 00c0
00000040: 0f74 3a3d fc1e 4c3d dcf8 53bd 8caa bdbe
00000050: 35e7 0d3f e970 c7bd 5d26 21be 12e6 0f3e
00000060: a1a4 dabe b502 e7bf 3bc8 a53d 8360 543e
00000070: b29b 48be 7131 e8be 1fee 8e3f cf0e b3be
00000080: 04da a7be 07e0 843e aaed 83bf b7de fcbf
00000090: b0d3 bb3d 7b24 383e 2d0e c7bd d3bf 28be
000000a0: a5ca 18c0 6a74 e53d f52e f43d c809 19be
000000b0: 5d19 dcbd 611e 8f3f 76a1 8dbe df2e 8abe
000000c0: 471c a13e d461 68bf

bias f4 [10]
1.5596296 1.7510387 -0.5381528 -1.025001 0.16586618 -0.4340736 0.28708538 -0.8639543
-1.0285447 0.3196628
00000000: f1a1 c73f 0922 e03f 62c4 09bf 3c33 83bf
00000010: d3d8 293e e53e debe dbfc 923e 1c2c 5dbf
00000020: 5aa7 83bf d8aa a33e
