Models/simulations/nonlinear/T_0_R_0_model.pt (torch, 3103 bytes, 4 tensors)

weight f4 [5, 30]
0.03373426 -0.052818757 0.043530945 0.00028185942 -0.06665104 0.013086955 0.04397716 0.25003648
0.0069226897 -0.058394447 0.102923684 -0.0774066 -0.0015685091 -0.014118846 0.0015349161 0.26962405
4.1827574e-05 1.7674261e-05 -0.00010214736 -0.00019572665 -0.00010659547 0.00015097622 3.605857e-05 -8.3309336e-05
0.00015784639 -0.00018242303 5.476411e-05 0.00019586027 4.997292e-05 5.8203834e-05 0.19704227 -0.71689224
-0.0003388786 -2.3537956e-05 0.00025913608 -0.22807086 -0.0004154304 4.7996582e-05 0.1299888 6.055055e-05
-0.0005044688 -0.022140974 -0.0005305647 0.31627375 -7.854805e-05 3.469322e-06 -9.4567615e-05 -8.4736166e-05
6.122819e-05 4.3621316e-05 -3.8695973e-05 -7.2479845e-05 1.6080696e-05 -0.00015648532 4.6281784e-06 6.7601344e-05
-0.0001601962 5.368948e-05 0.00014284103 -0.00015845722 -1.5945247e-05 0.00016831317 -0.000106009786 -0.0003034285
0.00010884859 2.8347364e-05 -9.2352624e-05 -0.00019991133 0.00020864143 0.00029221026 -0.00018463121 -0.15116549
0.00044934958 0.00014154163 -0.00020029947 -0.00013157353 -0.00015062588 7.193723e-05 0.00016668359 0.00019190971
-4.9086768e-05 -4.9433875e-05 -1.1833763e-05 -0.00016578972 -0.00015669376 0.00015520815 -0.00019802143 -7.456368e-05
-0.00011211181 -0.00015551723 2.1627617 2.1366525 0.00015244691 -4.6053523e-05 -0.068779156 -0.0010485362
-0.16702475 -0.00069183065 -0.0051540253 -0.31487495 4.586624e-05 -0.9314652 -0.093232594 -0.1523371
0.00012643596 0.00010144533 -4.2196043e-05 0.00013588366 0.00010569325 -7.013974e-05 -2.4356734e-05 9.320736e-05
0.00014075114 -0.00017222164 0.00010963608 -7.6815384e-05 -7.7083605e-05 0.00015490371 -7.529488e-05 5.8503836e-05
-0.0003284022 0.10437286 -0.0005247934 0.47180542 2.2630236e-05 0.01100913 0.2811671 -0.00013903252
0.00042370887 -0.00012587104 -0.588587 -0.0006615736 -0.00055167684 0.00039758423 0.2125293 0.00020586747
-0.00018346478 2.4319306e-05 6.3987827e-06 -8.716436e-05 -0.00015420231 -0.00010734868 -5.9685874e-05 -9.564137e-05
3.2789627e-05 3.3868419e-06 0.00018820273 0.00012803114 1.4067715e-05 0.00015949305
00000000: ef2c 0a3d 7b58 58bd 814d 323d 88c6 9339
00000010: 5780 88bd ab6a 563c 6521 343d c804 803e
00000020: bbd7 e23b 042f 6fbd a7c9 d23d 5a87 9ebd
00000030: 6f96 cdba bb52 67bc 3d2f c93a 2a0c 8a3e
00000040: 0470 2f38 3043 9437 f237 d6b8 f93b 4db9
00000050: 028c dfb8 5f4f 1e39 983d 1738 5cb6 aeb8
00000060: 9183 2539 cf48 3fb9 84b2 6538 d75f 4d39
00000070: 049a 5138 e41f 7438 73c5 493e 4086 37bf
00000080: 84ab b1b9 6073 c5b7 a8dc 8739 688b 69be
00000090: 20ce d9b9 f04f 4938 c91b 053e a8f7 7d38
000000a0: 543e 04ba fd60 b5bc 9815 0bba a2ee a13e
000000b0: 2aba a4b8 80d2 6836 9a52 c6b8 62b4 b1b8
000000c0: a267 8038 08f6 3638 7c4d 22b8 5200 98b8
000000d0: 08e5 8637 3516 24b9 c04b 9b36 32c5 8d38
000000e0: 57fa 27b9 a430 6138 99c7 1539 8927 26b9
000000f0: 28c2 85b7 397d 3039 9251 deb8 7c15 9fb9
00000100: a445 e438 80cb ed37 70ad c1b8 4a9f 51b9
00000110: c2c6 5a39 cc33 9939 9099 41b9 20cb 1abe
00000120: ae96 eb39 cb6a 1439 7b07 52b9 00f7 09b9
00000130: 54f1 1db9 02dd 9638 c9c7 2e39 5f3b 4939
00000140: 84e2 4db8 3857 4fb8 a089 46b7 d7d7 2db9
00000150: 294e 24b9 5fbf 2239 f9a3 4fb9 125f 9cb8
00000160: 921d ebb8 5712 23b9 b06a 0a40 eabe 0840
00000170: 28da 1f39 9829 41b8 16dc 8cbd 096f 89ba
00000180: 8908 2bbe f85b 35ba 19e3 a8bb 4a37 a1be
00000190: 8060 4038 8174 6ebf bbf0 bebd 42fe 1bbe
000001a0: e593 0439 0cbf d438 a8fb 30b8 fe7b 0e39
000001b0: a2a7 dd38 fc17 93b8 b051 ccb7 5278 c338
000001c0: 9996 1339 6596 34b9 6cec e538 f217 a1b8
000001d0: f2a7 a1b8 a66d 2239 a2e7 9db8 0462 7538
000001e0: 662d acb9 70c1 d53d 4a92 09ba 7b90 f13e
000001f0: 10d6 bd37 a35f 343c 22f5 8f3e 42c9 11b9
00000200: 3e25 de39 40fc 03b9 a3ad 16bf 746d 2dba
00000210: 689e 10ba da72 d039 48a1 593e 21de 5739
00000220: 7460 40b9 5001 cc37 20b5 d636 02cc b6b8
00000230: 5eb1 21b9 6220 e1b8 3857 7ab8 1293 c8b8
00000240: 9887 0938 8049 6336 4958 4539 1940 0639
00000250: 6004 6c37 973d 2739

bias f4 [5]
1.3747184 -0.044782974 -1.2309834 -3.1476805 -0.46781963
00000000: c6f6 af3f 5a6e 37bd dd90 9dbf 9973 49c0
00000010: 0e86 efbe

weight f4 [10, 5]
0.0029375898 0.0014323599 -0.0024647461 -0.004257938 0.07749216 -0.0014289252 -0.0001341983 0.0021129344
0.0024187814 -0.12496308 -0.2814486 -0.17185411 0.1288896 -0.6683767 0.062577076 0.23460685
-0.0011372583 -0.15832758 1.3652679 -0.70501196 -0.01566545 0.6388513 0.45703748 -0.803189
0.25968665 0.44523478 0.21774322 -0.053878184 1.5484086 -0.76572514 0.055124097 -0.14063114
-0.49720636 1.1370327 0.23514466 -0.049437538 0.00045036947 0.059500497 -0.5287745 -0.02437017
0.038022883 -0.4660066 -0.52787524 1.0420895 -0.0019427846 -0.14570428 -0.00012434181 0.20351253
-0.8478199 0.31400976
00000000: 9484 403b 06be bb3a 9487 21bb 2c86 8bbb
00000010: 36b4 9e3d c64a bbba 95b7 0cb9 2879 0a3b
00000020: 6b84 1e3b a5ec ffbd 081a 90be 86fa 2fbe
00000030: a3fb 033e bc1a 2bbf 6928 803d c73c 703e
00000040: 0e10 95ba a020 22be 19c1 ae3f aa7b 34bf
00000050: d454 80bc c28b 233f d100 ea3e cb9d 4dbf
00000060: a6f5 843e d0f5 e33e 14f8 5e3e 5faf 5cbd
00000070: 4132 c63f 9006 44bf cec9 613d 9c01 10be
00000080: d591 febe 4a8a 913f c3c9 703e 047f 4abd
00000090: 911f ec39 cbb6 733d c45d 07bf f3a3 c7bc
000000a0: e2bd 1b3d 6b98 eebe d522 07bf 3063 853f
000000b0: 09a5 feba 8133 15be c061 02b9 9765 503e
000000c0: ba0a 59bf e3c5 a03e

bias f4 [10]
1.2215983 1.198004 -0.81866837 0.2300697 -0.5587088 0.12908007 0.25087985 -0.95943516
0.037957866 -0.76885027
00000000: 555d 9c3f 3258 993f 4094 51bf 6497 6b3e
00000010: 8a07 0fbf 912d 043e 5373 803e 8b9d 75bf
00000020: b579 1b3d 5fd3 44bf
