Models/simulations/IV/n15_N300/11_11.pt (torch, 2407 bytes, 2 tensors)

weight f4 [14, 14]
000000 fc d8 3f bd 3f ca 8b 3c 9e e7 dc 3e a5 25 99 bd
       -0.04683779 0.017064212 0.4314546 -0.07477883
000010 7b a4 27 bd 5b 19 9a 3c 74 b7 a1 bd 74 d1 15 bd
       -0.040928345 0.018810919 -0.07896319 -0.036576703
000020 95 52 12 be 31 4c ac bc 72 4e 5e be 0e 9d 15 3d
       -0.14289315 -0.021032425 -0.21709612 0.036526732
000030 c7 61 44 3c 99 05 19 be 74 17 cb bc 0a cd 9c be
       0.011986203 -0.14943542 -0.024791457 -0.30625182
000040 38 09 25 be ca 78 83 3d 1c 82 de ba 2f b4 bb bd
       -0.16116798 0.06419523 -0.0016976031 -0.09165227
000050 a6 7d 94 3d 2e cc 6f 3e 9e 5f bb bc c2 9e 94 bd
       0.07250528 0.23417732 -0.022872742 -0.07256843
000060 0c 0e a7 3f 46 44 6c 3c 90 23 3a bd 03 bd 83 3e
       1.3051162 0.0144205745 -0.04544407 0.25730142
000070 c6 00 15 bd 02 64 43 3f 1e 4a de be fb 1c 50 3e
       -0.03637769 0.76324475 -0.43415922 0.20323555
000080 d1 60 fa bd 47 24 0c 3e 43 96 86 bd 26 5a a1 bd
       -0.122254975 0.13685714 -0.06571629 -0.078785226
000090 d3 8e 8c be 1d 23 a1 3d 0b 6b 14 3e a5 1c 95 3a
       -0.27452716 0.078680255 0.14493959 0.0011376335
0000a0 9d 9b 6d bc 76 7b b0 3e 6c c0 03 be ae c2 9b bd
       -0.014502433 0.34469193 -0.12866372 -0.076054916
0000b0 0c 26 3f be 4e 3a ae be f8 84 ad 3e 57 a9 43 3e
       -0.18666857 -0.34028858 0.3389051 0.19107567
0000c0 28 09 41 3e f6 6c ef bc 15 80 ad 3f 89 2a 63 bd
       0.18851149 -0.029226761 1.3554713 -0.055460487
0000d0 85 60 17 3e d1 15 58 3e c2 dc f7 3c 69 b5 11 be
       0.14782913 0.21102072 0.030256633 -0.14229359
0000e0 ae d6 fd 3c a1 4e 3e 3e ee 9a cd 3e 0b 58 47 3e
       0.030986156 0.18584682 0.40157264 0.1946718
0000f0 c8 e1 3f bd 14 41 50 bd 92 66 a8 3d b0 1c 70 bb
       -0.04684618 -0.050843313 0.08222689 -0.0036638193
000100 a9 a0 0a 3f 79 68 fc 3c 38 fa 94 3d 1f 39 2f bd
       0.541514 0.030811535 0.07274288 -0.042779084
000110 2f e6 dc bc 68 5f ca bc ef 0f 1b 3d 5a 6f 5f bd
       -0.026965229 -0.024703696 0.037856992 -0.054549553
000120 d4 e5 a6 bd 9b 4e ec 3c 42 45 77 bd 27 ee ad ba
       -0.08149305 0.028846076 -0.060368784 -0.0013269827
000130 8e 8c 26 bc 4e 19 ff 3c 72 b9 00 be 1a b2 03 bd
       -0.010165347 0.031139996 -0.12570742 -0.032152273
000140 0f 6f 33 be e3 5a 08 bd b2 9b 0a 3d b6 a6 58 3a
       -0.17522834 -0.0332898 0.03383989 0.0008264588
000150 4a aa 94 3d 11 82 56 3f 51 2c 6d 3d bb f4 9f 3c
       0.072590426 0.83792216 0.05790359 0.019525876
000160 85 f7 2a 3e df a8 4e 3d 63 ae ed bd 85 7f 88 bc
       0.16695984 0.050454017 -0.11605527 -0.016662369
000170 68 46 df 3d 8f 76 a4 bc 33 0d 13 3f ad d1 39 bc
       0.10902101 -0.020076064 0.57442015 -0.0113414945
000180 5e e6 0c 3d a2 66 74 3e a6 24 60 bd ae f4 af bd
       0.034399383 0.23867276 -0.05472245 -0.08591591
000190 3b 13 db bb f4 c6 e7 bc f9 4a 89 bd 58 c4 bf bc
       -0.006685642 -0.02829311 -0.06703753 -0.023409054
0001a0 90 bc 3e bc 03 12 46 bd 83 c6 b4 bd 6b 9b 07 bd
       -0.0116416365 -0.04835702 -0.088269256 -0.033107203
0001b0 d2 36 c1 bd d8 55 06 3d b9 20 08 bd 9c 97 c0 3b
       -0.09434284 0.03279671 -0.03323433 0.0058774482
0001c0 3f 42 70 bd 06 00 d4 bd 6a 1c 65 3d 93 9b 0d be
       -0.058656927 -0.10351567 0.0559353 -0.13828878
0001d0 bc 7f 62 bd 01 86 8b bd 8b a1 ec bd 26 7b 76 bd
       -0.0552976 -0.068126686 -0.115542494 -0.060176037
0001e0 20 7b b8 be ff fd 1c 3d 30 fd 04 bf 59 96 95 3a
       -0.36031437 0.038328167 -0.51948833 0.0011412605
0001f0 7a 1e 9c 3b 74 85 54 be 15 dc f0 bb 28 85 13 bd
       0.0047643753 -0.20754033 -0.0073504546 -0.03601566
000200 8d 08 dc bc 70 67 27 bc 74 07 68 bd 17 0c fc bc
       -0.026859546 -0.0102175325 -0.056647733 -0.030767484
000210 ee cd c1 bc f1 16 0e bd fb ae dd bd ba e1 47 3c
       -0.023657765 -0.034689847 -0.108243905 0.0121998135
000220 ef 45 f7 bd 44 db 94 3c 3d 9d 1b 3d f0 11 6f bd
       -0.12073886 0.01817096 0.03799175 -0.058366716
000230 b2 18 aa 3c 37 7b 62 bd 98 22 1d be 5b 34 4b be
       0.020763729 -0.055293288 -0.15345228 -0.19844191
000240 c5 ee 52 3e 53 da 25 3e 5b ef aa 3e 1b 2a 09 3d
       0.20598896 0.16196565 0.3338574 0.03348742
000250 52 a9 17 be a0 23 80 3d 8e f0 3a bf d2 73 3f bd
       -0.14810684 0.06256795 -0.7302331 -0.046741314
000260 49 63 e5 bb 16 69 1c 3f c4 ad 52 bd 9f 93 12 bd
       -0.007000361 0.6109785 -0.051435247 -0.035785314
000270 da 66 a3 bd d2 83 6b bd 2e 87 e5 b9 c8 d4 f5 bc
       -0.07978602 -0.05749876 -0.00043779 -0.030008689
000280 1f 0e c9 39 04 d6 a2 3a 6a fb 96 bd 47 a1 95 bb
       0.0003834823 0.0012423401 -0.07372172 -0.004566345
000290 39 1e 2e bd ed 7f 12 3d dc dd 54 3b c6 86 ed 3c
       -0.04250929 0.03576653 0.0032480871 0.028994929
0002a0 17 ce f6 bc 6a f7 dc 3c 62 db 96 bb f4 8e 11 bd
       -0.030127568 0.026973445 -0.004603789 -0.03553672
0002b0 3a ed e6 bb 64 85 49 bd 54 2e 96 bc ca aa 40 3e
       -0.0070473226 -0.049199477 -0.018332638 0.18815151
0002c0 76 b4 b3 bd d4 58 25 bd 27 9a a7 3e 7e 30 b9 bc
       -0.087746546 -0.040367916 0.32734796 -0.02260613
0002d0 5d b6 9d bc 4d b1 6f 3e 6e f1 20 3f 01 1b 16 3f
       -0.019251997 0.23407479 0.6286839 0.58634955
0002e0 2f 38 c2 3e 58 0e a5 3e a2 de 91 3e 47 98 00 be
       0.3793349 0.32237506 0.28490168 -0.12558089
0002f0 27 43 6d 3e b7 10 a4 bd bc 68 96 3e fa 8a 71 3d
       0.23170148 -0.080110006 0.2937678 0.05897043
000300 f0 4d c5 3f c0 2d 60 bd 22 ee 08 bd 21 c8 24 bf
       1.541441 -0.05473113 -0.033430226 -0.6436787

bias f4 [14]
000000 e3 73 8d be b9 ff 85 3e 69 0a 8e 3f 1e 1e 34 3f
       -0.27627477 0.26171663 1.1096927 0.70358455
000010 5f 9b af bd bb 2f 58 bf 04 c6 83 bd c4 2b 53 bf
       -0.085745566 -0.8444783 -0.06434253 -0.82488656
000020 67 ff 57 3f e4 b1 62 bf 5e bf 97 3f 23 da 81 bf
       0.8437409 -0.8855269 1.1855276 -1.0144695
000030 8a 97 63 bf 15 51 25 3f
       -0.88903105 0.64576846
