Models/simulations/IV/n15_N300/16_12.pt (torch, 4191 bytes, 4 tensors)

weight f4 [10, 34]
0	0xbe2232ad	-0.15839644
1	0x3be53f46	0.006996068
2	0xba8ea240	-0.0010882095
3	0x3d9c3b4f	0.076285
4	0xbd0a58ce	-0.033776097
5	0x3cf9279a	0.030414391
6	0xbe7273a5	-0.23676927
7	0xbec59846	-0.38592738
8	0x3de2cf03	0.110746406
9	0xbeb85e05	-0.3600923
10	0xbd778132	-0.060425945
11	0xbdd0e6a7	-0.102002434
12	0x3ca39661	0.019969167
13	0x3c0ed471	0.008717642
14	0x3b59b5e9	0.003322
15	0xbb3612d8	-0.0027782228
16	0x3b9cd5f8	0.0047862493
17	0x3c33ff62	0.010986181
18	0x3a80457d	0.0009786334
19	0xbbc7cdc9	-0.0060975295
20	0x3c2a6ead	0.010402364
21	0x3c6524ae	0.013985796
22	0xbc42506b	-0.011859993
23	0x3b559caa	0.00325946
24	0x3c0143a1	0.007889659
25	0xbbd61520	-0.00653328
26	0x3c66c8c8	0.014085956
27	0x3b0e9ce6	0.0021761
28	0x3b89d5f1	0.004206412
29	0x3b371e14	0.0027941512
30	0xbb4398f9	-0.0029845817
31	0xbb5f0e1c	-0.003403551
32	0x3b0e926e	0.002175476
33	0x3c0d5345	0.00862581
34	0xbe42dea2	-0.1903024
35	0x3c4683b0	0.012116358
36	0xbc6c7f11	-0.014434592
37	0x3e06ec7d	0.1317615
38	0xbca51f7a	-0.02015661
39	0xbd7146f6	-0.058905564
40	0xbdc0a37e	-0.09406184
41	0xbe4929e0	-0.1964488
42	0x3cf19374	0.029489256
43	0xbe93e466	-0.28885192
44	0xbd8c8b0b	-0.06862458
45	0xbdb317c0	-0.08744764
46	0xbb9beb78	-0.0047582947
47	0x3bcba6a4	0.0062149335
48	0xbc02ed99	-0.007991218
49	0x3b51ae51	0.003199477
50	0xbbc69818	-0.0060606115
51	0xbc845cf2	-0.016157601
52	0x3c30c19b	0.010788347
53	0xbc3d96df	-0.011571615
54	0xbb07fee2	-0.0020751287
55	0x3c0e2812	0.008676546
56	0x3c64efba	0.013973171
57	0x3c22f779	0.009946697
58	0x3be70444	0.007050069
59	0x3afbbb3c	0.001920558
60	0xbc1cf287	-0.009579307
61	0x3c7c1982	0.015386941
62	0x3bd8f336	0.00662079
63	0x3b7988ee	0.0038076001
64	0xbb6e0c2a	-0.0036323168
65	0x3c0d863b	0.00863796
66	0xbc500225	-0.012695824
67	0x3c007928	0.007841386
68	0xbf2b148a	-0.66828215
69	0x3c593378	0.0132569
70	0x3d403a18	0.046930403
71	0x3e82769d	0.2548112
72	0xbd144274	-0.036196187
73	0xbca2ed09	-0.019888418
74	0xbe874f28	-0.2642758
75	0xbf108fa4	-0.5646918
76	0x3e539716	0.20663103
77	0x3e98eb14	0.2986685
78	0xbdf55be2	-0.11980416
79	0xbc8e18cc	-0.017345808
80	0x3c5eed66	0.013606405
81	0x3d318b8b	0.04334597
82	0x3be2c273	0.006920153
83	0x3bbc9746	0.005755338
84	0xbc6553ef	-0.013997062
85	0xbb03245d	-0.0020010688
86	0x3c810f12	0.015754256
87	0xba283f02	-0.00064180803
88	0xbbbc62e8	-0.005749095
89	0xbb929dee	-0.004474393
90	0xbc6b3990	-0.014356986
91	0xbb9d75eb	-0.0048053167
92	0x3c7eb211	0.015545384
93	0x3c520149	0.012817689
94	0xbc737760	-0.014860004
95	0xbc5cbe84	-0.013473157
96	0x3c611a77	0.01373922
97	0xba848e51	-0.0010113214
98	0xbc80a88f	-0.015705375
99	0xba439f07	-0.00074623566
100	0xbc21f1c6	-0.009884303
101	0xbc3cee8e	-0.011531485
102	0x3e6df260	0.2323699
103	0xbd9ec31a	-0.077520564
104	0xbcb0095d	-0.02148884
105	0xbda39e97	-0.07989233
106	0x3df31b7b	0.11870476
107	0x3db101dc	0.08642933
108	0xbe4bf1fd	-0.1991653
109	0x3d3c43f6	0.04596325
110	0x3dffcb25	0.124899186
111	0x3f9065da	1.1281083
112	0x3e5e5961	0.21713783
113	0xbc4cec6d	-0.01250754
114	0xbbda02ec	-0.0066531803
115	0x3cf48d52	0.029852543
116	0xb9cabf8c	-0.00038671156
117	0xbc0dedd0	-0.008662656
118	0x3be8208c	0.007083958
119	0x3c86a389	0.016435402
120	0xbb7b351e	-0.003833122
121	0xbbafeecb	-0.0053690425
122	0x3b9a6c81	0.0047126417
123	0x3c0faee3	0.008769724
124	0x3c358f65	0.011081551
125	0x3a86d154	0.0010285773
126	0x3b46f8ef	0.0030360778
127	0xbc024896	-0.007951876
128	0xbc41fd37	-0.011840156
129	0x3aac6fa5	0.0013155831
130	0x392336fc	0.00015565375
131	0xbb849ba9	-0.0040468764
132	0x3c80aa9c	0.015706353
133	0x3aa2a7d9	0.0012409642
134	0x3bf00e48	0.007325921
135	0xbc74d2de	-0.014942853
136	0xbe353afd	-0.17698283
137	0x3cc37736	0.023860555
138	0xbccedb25	-0.02525098
139	0x3e9fd6f5	0.31218687
140	0xbd1f4ecb	-0.038893502
141	0xbdeadbf3	-0.11467733
142	0x3e2b384f	0.16720699
143	0x3efeb42d	0.49746838
144	0xbdea8bc2	-0.11452438
145	0xbead8d7f	-0.33897015
146	0xbe20f6f5	-0.15719207
147	0x3c5cfdc0	0.013488233
148	0xbc9359ea	-0.01798721
149	0x3ae4c780	0.0017454475
150	0x3bfea515	0.007771144
151	0xbc312189	-0.010811218
152	0x3c36d7a5	0.011159812
153	0x3c45d155	0.012073834
154	0x3bf68943	0.007523687
155	0xbc066fa6	-0.00820533
156	0x3bf5f8bb	0.0075064576
157	0xbc1a453f	-0.009415924
158	0xbb93e840	-0.0045137703
159	0x3a8f269d	0.0010921542
160	0x3bd6db88	0.006556932
161	0xbb8c415f	-0.004280254
162	0x3c84c7eb	0.01620861
163	0xbaf795d0	-0.0018889252
164	0xbc0d296e	-0.008615835
165	0x3c676f60	0.014125675
166	0xbbfe2d72	-0.0077568823
167	0x3b49f7ec	0.003081794
168	0x3c5ef595	0.013608356
169	0xbc81aac7	-0.015828503
170	0x3e8d27d1	0.2756944
171	0xbd8bc9d4	-0.06825605
172	0x3cec8e9b	0.028876593
173	0xbf0b8db8	-0.5451312
174	0x3da432e1	0.08017517
175	0x3e097c8b	0.13426416
176	0xbed6e812	-0.4197393
177	0xbf512a0f	-0.817048
178	0x3e4505bc	0.19240469
179	0x3eb6edba	0.35728246
180	0x3ea28572	0.31742436
181	0xbe324d76	-0.17412362
182	0x3bdfdc4f	0.0068316828
183	0xbc64c18e	-0.013962163
184	0xbc846286	-0.01616026
185	0xbbc0a850	-0.0058794394
186	0xbbb34d42	-0.0054718563
187	0xbb3857e0	-0.002812855
188	0x3c02152d	0.007939619
189	0xbc4ef4bd	-0.012631592
190	0xbb2aeea1	-0.0026082175
191	0xbbcb093e	-0.00619617
192	0x3c6b6caa	0.014369169
193	0xba93f860	-0.0011289231
194	0xbc55de84	-0.01305354
195	0xbb90ea58	-0.004422467
196	0xbb9e5445	-0.004831823
197	0x3ac2296b	0.0014813369
198	0xbc1b7d8a	-0.00949038
199	0x3bd940ac	0.006630024
200	0xbbcd1810	-0.006258972
201	0xbc821f1d	-0.015883977
202	0xbc57738f	-0.01315011
203	0xbc15d204	-0.00914431
204	0xbd5ddee9	-0.05416766
205	0xbc624fb0	-0.013812944
206	0xbb7207e6	-0.0036930977
207	0x3dc66e55	0.09689013
208	0xbc6b6023	-0.0143661825
209	0x3bed97ba	0.007250753
210	0xbe16d3a6	-0.14729175
211	0xbe0f4cb8	-0.1399411
212	0x3bf2cfce	0.007410026
213	0xbea2ef5c	-0.31823242
214	0xbd445bed	-0.04793923
215	0xbd960811	-0.07325757
216	0x3bb8805e	0.005630537
217	0xbc3f55c4	-0.011678163
218	0x3c037bde	0.008025138
219	0xbc53d869	-0.012930014
220	0xbb3ab251	-0.0028487633
221	0x3bf5b2af	0.0074981074
222	0x3b3e7c6c	0.002906586
223	0x3972d468	0.00023158046
224	0x3c5a69b1	0.013330863
225	0x3c11a0df	0.008888452
226	0x3b070356	0.0020601354
227	0xbbd86980	-0.0066043735
228	0x3b94afa9	0.004537542
229	0x3c7fd4f4	0.015614737
230	0xbb8ebd1e	-0.0043560406
231	0xbc6753d4	-0.014119107
232	0xbc5542e4	-0.013016436
233	0xbb9f18ed	-0.0048552663
234	0xbc23007d	-0.009948847
235	0x3a91c3e6	0.0011121004
236	0x3c4810bf	0.012211024
237	0x3be62c25	0.0070243054
238	0xbe3d7cb9	-0.18504609
239	0xbd8633d7	-0.065528564
240	0xbc945912	-0.018108878
241	0x3e18f6e7	0.14937936
242	0x3cbb42c7	0.02285899
243	0xbcd27aad	-0.025693262
244	0xbe4d1e6d	-0.20031138
245	0x3aee984f	0.001820335
246	0x3de2778e	0.110579595
247	0x3f894d8b	1.0726789
248	0x3d97fe75	0.07421581
249	0xbc530ec3	-0.012881937
250	0xbbc09616	-0.0058772666
251	0x3d3acb82	0.045604236
252	0xbb2ee243	-0.0026685155
253	0x3c62b25d	0.01383647
254	0x3c820b49	0.015874522
255	0xbb943ab9	-0.004523602

bias f4 [10]
0	0xbea7144e	-0.3263268
1	0xbf0f7504	-0.56037927
2	0x3d16f070	0.036850393
3	0xbecbe47e	-0.39822763
4	0xbed15702	-0.40886694
5	0x3e9416b9	0.28923586
6	0xbf09a7f4	-0.537719
7	0xbef4bd72	-0.47800785
8	0x3f1913a7	0.5979561
9	0xbd147dcb	-0.036252778

weight f4 [14, 10]
0	0xbedf6377	-0.43630573
1	0xbea70c39	-0.32626513
2	0x3ee62148	0.44947267
3	0x3f78f086	0.9724201
4	0xbe77cbc3	-0.24198823
5	0x3dd31149	0.10306031
6	0xbed425c4	-0.41435063
7	0x3f7e70f5	0.9939111
8	0xbd29aedc	-0.041426525
9	0xbe3aeec9	-0.18255152
10	0x3e140d8b	0.14458291
11	0x3e3cb4b1	0.18428303
12	0x3da43b13	0.0801908
13	0x3e082262	0.13294366
14	0x3e14a500	0.14516068
15	0xbe1d4bcb	-0.15360944
16	0x3e31c88a	0.17361656
17	0x3e2b82bc	0.1674909
18	0xbe629e54	-0.2213071
19	0xbd81a860	-0.06330943
20	0x3e3a3c0f	0.18186973
21	0x3e9cb405	0.30606094
22	0x3ca10fc2	0.019660834
23	0x3d8a36bb	0.0674872
24	0x3e63c02e	0.2224128
25	0xbd9a439e	-0.07532428
26	0x3e83f2bc	0.2577113
27	0x3e43e5f4	0.19130689
28	0xbe9aaa60	-0.3020811
29	0xbd3fec62	-0.04685629
30	0xbed05417	-0.40689155
31	0xbeeca732	-0.4622131
32	0xbf19fceb	-0.6015155
33	0x3f1cf07c	0.6130445
34	0xbefcb991	-0.49360326
35	0x3f2c0f53	0.6721088
36	0xbe9c2863	-0.30499563
37	0x3daa1221	0.08304239
38	0x3f0c71da	0.54861224
39	0x3f0aebf5	0.5426629
40	0xbe1b3959	-0.15158595
41	0xbdebd6fb	-0.11515614
42	0xbe074b61	-0.13212349
43	0x3efc76e4	0.49309456
44	0x3d87dbc4	0.06633714
45	0xbe25c5c3	-0.16188721
46	0xbdb5218e	-0.08844291
47	0x3ee39025	0.4444591
48	0xbdbd3b46	-0.09239821
49	0x3e1e58e0	0.1546359
50	0x3d2c3b5d	0.0420488
51	0x3c9b072c	0.018924318
52	0x3e780b6d	0.24223109
53	0xbd3501dc	-0.044191226
54	0xbc87d1d0	-0.016579539
55	0xbd32b300	-0.04362774
56	0x3c30c029	0.010788002
57	0x3d8bd1a1	0.06827093
58	0xbe25e118	-0.16199148
59	0xbe1c98a7	-0.15292607
60	0x3db0b336	0.08627932
61	0xbd3d15b6	-0.046163283
62	0x3e2df48e	0.16987821
63	0xbe42b273	-0.19013385
64	0xbe5b03ff	-0.21388243
65	0x3e6be26e	0.23035595
66	0xbd58dbfe	-0.052944176
67	0xbe1212d4	-0.14264995
68	0x3e254d55	0.16142781
69	0xbe2dec55	-0.16984685
70	0x3a572e08	0.00082084583
71	0xbe4181de	-0.18897197
72	0x3ea77f19	0.32714155
73	0xbe39a04b	-0.18127553
74	0xbeea313f	-0.45740697
75	0x3f056428	0.5210595
76	0xbe64e343	-0.22352318
77	0xbe6caca8	-0.23112738
78	0x3ea6ee81	0.3260384
79	0xbeb73fd0	-0.35790873
80	0x3de7dd3b	0.11321493
81	0x3e20bae2	0.1569629
82	0x3d5205fc	0.05127524
83	0x3c900e6c	0.017585002
84	0x3e00e382	0.12586787
85	0xbdf1d8af	-0.11808907
86	0x3dd3e7cc	0.10346946
87	0x3dada4b8	0.08478683
88	0xbe4e3bfe	-0.20140073
89	0xbdaed6c8	-0.0853706
90	0xbee5eeec	-0.44908845
91	0xbe80e11c	-0.25171745
92	0xbf1c6383	-0.6108934
93	0xbf1abfe0	-0.6044903
94	0x3ed3f230	0.41395712
95	0xbf7d1c25	-0.9887107
96	0xbe8382b4	-0.25685656
97	0xbf1f6a72	-0.622718
98	0x3e96b434	0.2943436
99	0x3f0a5c87	0.54047436
100	0xbe55ea57	-0.20890175
101	0xbe688d1f	-0.22710083
102	0xbe5a0ce6	-0.21293983
103	0x3e7355ff	0.23763274
104	0xbc09341b	-0.008374239
105	0xbe2f07e8	-0.1709286
106	0xbe1afea9	-0.15136208
107	0x3df1ae4a	0.11800821
108	0x3e329729	0.17440476
109	0x3e5dad08	0.21648037
110	0xbd4d0cb1	-0.05006093
111	0xbdb211a2	-0.086947694
112	0xbde92a2b	-0.11384996
113	0xbd432af6	-0.047648393
114	0xbe750021	-0.2392583
115	0x3ec6390c	0.38715398
116	0xbdfdb994	-0.12388912
117	0xbe2c6993	-0.16837148
118	0x3e7fc149	0.24976076
119	0x3d9eb1fd	0.07748792
120	0x3e529539	0.20564736
121	0x3ea5f09e	0.3241014
122	0xbccafcf3	-0.024778819
123	0x3e12f2cf	0.14350437
124	0x3e8d5e9d	0.27611247
125	0xbe43a5e0	-0.19106245
126	0x3e8f4143	0.27979478
127	0x3e27e941	0.16397573
128	0xbea2cda5	-0.3179752
129	0xbc3886e7	-0.011262632
130	0x3e42f5da	0.19039097
131	0x3e9d0d51	0.30674222
132	0x3be7076e	0.0070504462
133	0x3e2f49f0	0.17118049
134	0x3e52ee29	0.20598663
135	0xbdf1c22d	-0.11804614
136	0x3e824016	0.2543952
137	0x3e80ec1c	0.25180137
138	0xbe9ab5f1	-0.30216935
139	0x3c725317	0.014790318

bias f4 [14]
0	0x3e94850a	0.2900775
1	0xbeae4736	-0.34038705
2	0xbf06ff7b	-0.5273358
3	0x3eca7b0e	0.39547008
4	0xbd21c630	-0.039495647
5	0x3d62cbbb	0.055370074
6	0x3e38e982	0.18057826
7	0x3f0a8c16	0.54120004
8	0xbe4a335d	-0.19746156
9	0x3ec0495d	0.37555972
10	0x3e50ec10	0.2040255
11	0x3e4e6c47	0.20158492
12	0xbf1b3897	-0.60633224
13	0xbf185bdf	-0.59515184
