Models/simulations/IV/n15_N300/17_12.pt (torch, 4255 bytes, 4 tensors)

weight f4 [10, 35]
0.054746196 0.08258051 -0.046727564 -0.0063090962 -0.0020674947 0.089655854 -0.22307621 -0.0778216
-0.006417881 0.03682606 -0.067823656 0.13937375 -0.28232762 -0.02656742 0.0075546447 -0.0072983084
-0.012202714 -0.0114609515 0.0044866125 0.015714776 -0.007961414 0.0063149924 0.0005144722 -0.0125897825
-0.010032711 0.009178634 0.0074865804 0.012384159 0.008007022 0.006098713 -0.001643151 -0.009972481
0.0029769533 0.01521327 -0.00045744094 -0.03960601 0.053547617 -0.045873754 -0.0031812873 -0.012022834
-0.0072871814 -0.21886441 -0.09097572 0.0391154 0.03801947 -0.114839554 0.06356261 -0.2809401
-0.032177955 -0.016607339 -0.002488567 0.0013431007 0.010776567 0.0047846963 -0.012054913 -0.0053531416
-0.0038814961 -0.010080937 -0.006041339 0.016043793 -0.012976171 0.010752298 -0.009411807 -0.004896591
-0.01478737 -0.0008057264 -0.004708209 -0.011851028 0.0034358928 0.007565146 0.177883 0.007172873
0.09092614 -0.0358443 0.048942037 0.3565395 0.33686695 -0.098157145 -0.07264398 -0.012666559
-0.7031316 0.21783105 0.068604894 0.01851847 0.050482247 -0.012846068 -0.011572344 -0.012195884
0.0032519398 0.008635397 -0.0031887938 0.00280014 -0.014941676 0.011171467 0.0073819924 0.0028630593
0.0036502078 0.0152151 0.0070730257 -0.012398854 0.009193332 -0.012975114 -0.0052365586 0.016189096
0.014449675 -0.311716 0.1490298 0.16910985 0.012415046 -0.006728387 -0.6218981 0.4932324
-0.049364023 0.13361216 -0.029184652 -0.69186306 -0.1451321 0.63459086 -0.071870975 -0.068651624
-0.010841681 0.014373537 0.011680533 0.00050252705 0.00495503 0.004539162 -0.012180668 -0.011271187
0.0027990404 0.0066141053 0.0024037368 -0.012734614 0.015275834 -0.01097069 -0.00013325746 -0.006390466
0.010878573 0.007567051 -0.010196575 0.0008136679 0.0719571 -0.019602805 0.019859347 -0.014617703
0.117743485 -0.04599058 -0.060304366 -0.11123655 -0.0056853076 -0.06927431 -0.7344227 0.081764385
-0.20506012 0.011182267 0.045586787 0.012752857 0.00309692 -0.012946144 -0.006556228 -0.00047430117
-0.0047003212 -0.015619717 -0.00023564936 0.0048320713 -0.01255976 -0.012780514 -0.013269154 -0.013618807
-0.015652556 -0.0142086465 0.0016524835 -0.004676807 -0.010699935 -0.0034118183 0.007276867 -0.26971874
-0.06814657 0.06500656 0.028980926 -0.0374429 -0.5687298 0.3216361 0.17634304 0.09103609
-0.05949027 0.2473181 -0.3736541 0.5488979 -0.023588233 -0.06256062 0.005661087 -0.012236166
-0.010245175 -0.008077272 -0.013631451 0.0026671311 0.007992722 0.0117801055 0.0036862197 0.012585788
0.014950923 0.0021337678 -0.011246389 0.008199109 -0.0081140185 -0.0019324983 0.0097666895 0.008668645
0.0036705087 -0.0018093138 0.15996994 -0.003500036 0.038075134 -0.001052617 0.0674128 0.1132154
-0.22540037 -0.0038952003 -0.10373814 -0.10953971 -0.49438846 0.10582259 0.20951515 0.042282123
0.0373169 -0.0087268725 0.008617547 0.011180464 0.004425842 0.0035299645 -0.016078064 0.00035276226
0.004839913 0.011192854 -0.009747388 0.012677765 -0.012154694 -0.0014095763 0.013405545 0.008748212
0.009744286 0.014190005 -0.00033515826 -0.004067442 0.0080288 0.27433878 -0.0989974 -0.1044139
0.016074646 -0.10182457 0.6406788 -0.21815644 0.14547297 -0.046308916 0.110986374 0.9143859
00000000: 8c3d 603d f81f a93d 6765 3fbd 89bc cebb
00000010: ce7e 07bb 7d9d b73d 176e 64be ee60 9fbd
00000020: 174d d2bb ecd6 163d 21e7 8abd feb7 0e3e
00000030: 3f8d 90be eba3 d9bc f48c f73b a626 efbb
00000040: e4ed 47bc b7c6 3bbc 6f04 933b 46bc 803c
00000050: 9770 02bc ffed ce3b a5dd 063a 6045 4ebc
00000060: 3d60 24bc fb61 163c fd51 f53b ede6 4a3c
00000070: e22f 033c b6d7 c73b 005f d7ba 9e63 23bc
00000080: fd18 433b 1441 793c afd4 efb9 e939 22bd
00000090: bf54 5b3d 1ee6 3bbd 257d 50bb 6cfb 44bc
000000a0: 4fc9 eebb fe1d 60be 7a51 babd 7837 203d
000000b0: 4eba 1b3d 0031 ebbd 1d2d 823d 61d7 8fbe
000000c0: 08cd 03bd 1d0c 88bc 3a17 23bb fb0a b03a
000000d0: 3390 303c f1c8 9c3b f881 45bc 6869 afbb
000000e0: b360 7ebb 842a 25bc 6df6 c5bb 466e 833c
000000f0: 029a 54bc 682a 303c fb33 1abc 9573 a0bb
00000100: ba46 72bc 6237 53ba 5247 9abb d02a 42bc
00000110: b72c 613b 0be5 f73b f626 363e 6b0a eb3b
00000120: 7c37 ba3d 79d1 12bd 7277 483d 588c b63e
00000130: d379 ac3e 9d06 c9bd 5ec6 94bd 6687 4fbc
00000140: 6f00 34bf 1a0f 5f3e b980 8c3d 0cb4 973c
00000150: 79c6 4e3d 5078 52bc ee99 3dbc 3fd1 47bc
00000160: 7f1e 553b 7b7b 0d3c 15fb 50bb 8e82 373b
00000170: eecd 74bc 8708 373c a4e4 f13b 2aa2 3b3b
00000180: 5338 6f3b c148 793c d7c4 e73b 9024 4bbc
00000190: a19f 163c 9395 54bc 7097 abbb ff9e 843c
000001a0: 54be 6c3c 3d99 9fbe 459b 183e 222b 2d3e
000001b0: 7a68 4b3c cd79 dcbb b734 1fbf f588 fc3e
000001c0: ee31 4abd a0d1 083e a714 efbc f01d 31bf
000001d0: 829d 14be 8c74 223f 1731 93bd 3999 8cbd
000001e0: 4ea1 31bc fc7e 6b3c b55f 3f3c 05bc 033a
000001f0: ce5d a23b 40bd 943b 6d91 47bc c9aa 38bc
00000200: 1b70 373b 23bb d83b 0388 1d3b d8a4 50bc
00000210: 7e47 7a3c 69be 33bc 07bb 0bb9 1d67 d1bb
00000220: 0b3c 323c 06f5 f73b 890f 27bc 544c 553a
00000230: 3e5e 933d 1096 a0bc 12b0 a23c 177f 6fbc
00000240: 7f23 f13d 9e60 3cbd b601 77bd fdcf e3bd
00000250: d14b babb b0df 8dbd 2003 3cbf 1674 a73d
00000260: 48fb 51be d435 373c 36b9 3a3d 5cf1 503c
00000270: b2f5 4a3b 101c 54bc a0d5 d6bb a0ab f8b9
00000280: 2705 9abb d7e9 7fbc a518 77b9 5a56 9e3b
00000290: 74c7 4dbc 5c65 51bc de66 59bc 6b21 5fbc
000002a0: ca39 80bc 62cb 68bc 2598 d83a e73f 99bb
000002b0: c84e 2fbc d098 5fbb c972 ee3b 9318 8abe
000002c0: 6e90 8bbd 2922 853d 6869 ed3c ba5d 19bd
000002d0: 4798 11bf 7dad a43e 4593 343e 2171 ba3d
000002e0: 12ac 73bd f540 7d3e 974f bfbe 9384 0c3f
000002f0: 1c3c c1bc c81f 80bd a480 b93b 337a 48bc
00000300: 61db 27bc 8956 04bc 7356 5fbc 09cb 2e3b
00000310: e8f3 023c 5801 413c 8194 713b 9f34 4e3c
00000320: b7f4 743c afd6 0b3b c642 38bc 8e55 063c
00000330: a9f0 04bc e24b fdba 7704 203c ef06 0e3c
00000340: eb8c 703b 7f26 edba 29cf 233e dc60 65bb
00000350: acf4 1b3d f7f7 89ba b90f 8a3d 7add e73d
00000360: 5bcf 66be 9e46 7fbb a974 d4bd 5b56 e0bd
00000370: 7c20 fdbe 84b9 d83d 248b 563e 0530 2d3d
00000380: 9bd9 183d 28fb 0ebc 9d30 0d3c 442e 373c
00000390: a706 913b fa56 673b 25b6 83bc f3f2 b839
000003a0: 2298 9e3b 3b62 373c 82b3 1fbc 67b6 4f3c
000003b0: 7b24 47bc 88c1 b8ba eea2 5b3c a954 0f3c
000003c0: 7fa6 1f3c 327d 683c 2eb8 afb9 2d48 85bb
000003d0: 3a8b 033c 2276 8c3e 26bf cabd f4d6 d5bd
000003e0: faae 833c 6689 d0bd 8703 243f 6764 5fbe
000003f0: def6 143e 6bae 3dbd d34c e33d 3215 6a3f

bias f4 [10]
-0.6113473 -0.6191016 0.26984373 -0.0722652 0.4274742 0.25285032 0.53349644 -0.19569224
0.20404176 -0.060258366
00000000: 4281 1cbf 717d 1ebf f528 8a3e c7ff 93bd
00000010: e6dd da3e 9975 813e 3993 083f 8c63 48be
00000020: 53f0 503e 7ad1 76bd

weight f4 [15, 10]
-0.19787557 -0.17253156 -0.1078493 0.05534237 -0.18650652 0.26037243 0.12438317 -0.0016398467
-0.060057446 0.099677995 -0.28864595 -0.25881785 0.13048923 0.25672832 0.04712407 0.29861486
0.15375665 -0.15150781 0.010493562 0.24650678 0.28069273 0.2688918 0.11007631 -0.19415742
-0.0685594 -0.43324855 -0.107972585 0.2303657 -0.12394352 0.052986007 0.25208467 0.2554865
-0.12597218 0.039475612 -0.222183 -0.124684624 -0.2976107 0.121172614 -0.0625161 0.023898924
0.21854338 0.17354381 -0.08998385 0.08356277 -0.07181102 -0.13016383 -0.16484886 0.018355513
-0.015036898 0.017594296 -0.114976875 -0.07327883 0.110325575 0.13328677 0.27071565 0.08432414
0.16123825 -0.20823953 0.11821595 0.0023153576 -0.2768752 -0.33894846 -0.46347785 -0.4359015
-0.37207144 0.40040767 0.054093327 0.5525626 -0.26621804 -0.3977148 0.1270279 0.10590473
-0.20760761 -0.05095105 -0.24945717 0.010243009 -0.24194427 0.18943852 -0.13002847 -0.03394532
0.023710713 -0.12420767 0.6372818 -0.6465764 0.22411205 -0.6761588 0.46368557 0.46318242
-0.2620437 0.18343234 0.06941048 0.08493506 -0.030578272 -0.07526842 0.030125909 -0.06692681
-0.0809879 0.060441546 -0.029754125 -0.027221844 -0.4552128 -0.4455285 0.5528992 1.1519039
0.24330455 0.67291814 0.38177434 -0.95689183 0.39000046 0.8734587 -0.29338244 -0.3123909
0.05761407 -0.25664514 -0.31165433 0.21497819 -0.32251373 0.53570163 0.119479224 0.047617055
-0.15807046 -0.15504973 0.25940263 -0.12031315 0.5190447 -0.13994095 0.32950845 -0.27269453
0.24820986 -0.14820634 0.29946807 0.26388282 -0.18429054 0.12578835 -0.24479662 -0.12923093
-0.2620371 -0.023325657 -0.07221992 0.09057112 0.2260938 0.2726298 -0.07150089 0.13986586
-0.112981275 -0.12631887 -0.17845525 -0.07340633 -0.05092399 0.0538558
00000000: e59f 4abe 1dac 30be 18e0 dcbd aeae 623d
00000010: 91fb 3ebe 894f 853e 9abc fe3d 20f0 d6ba
00000020: ccfe 75bd fa23 cc3d 67c9 93be c683 84be
00000030: f89e 053e e571 833e 2b05 413d 0ce4 983e
00000040: 6272 1d3e dd24 1bbe 30ed 2b3c 466c 7c3e
00000050: f5b6 8f3e 30ac 893e b06f e13d 34d1 46be
00000060: df68 8cbd c1d2 ddbe bb20 ddbd fce4 6b3e
00000070: 1ad6 fdbd db07 593d 3e11 813e 20cf 823e
00000080: dafe 00be 2eb1 213d f183 63be a75a ffbd
00000090: 6e60 98be 5929 f83d 7108 80bd adc7 c33c
000000a0: d6c9 5f3e 78b5 313e 7449 b8bd f522 ab3d
000000b0: a811 93bd ab49 05be 24ce 28be 4d5e 963c
000000c0: 525d 76bc ea21 903c ff78 ebbd 3613 96bd
000000d0: 60f2 e13d 547c 083e 3e9b 8a3e 22b2 ac3d
000000e0: a41b 253e be3c 55be 341b f23d 41bd 173b
000000f0: 96c2 8dbe a78a adbe f84c edbe 7b2e dfbe
00000100: 2680 bebe 3c02 cd3e f790 5d3d be74 0d3f
00000110: bb4d 88be 46a1 cbbe 9a13 023e 94e4 d83d
00000120: 1797 54be 0cb2 50bd b371 7fbe 4bd2 273c
00000130: 3dc0 77be 2cfc 413e 2f26 05be 3f0a 0bbd
00000140: f83c c23c 9760 febd e624 233f 0886 25bf
00000150: a17d 653e be18 2dbf 3268 ed3e 3f26 ed3e
00000160: 982a 86be b0d5 3b3e 1527 8e3d 6ff2 ad3d
00000170: 497f fabc 5426 9abd 9cca f63c ec10 89bd
00000180: fcdc a5bd 8e91 773d ecbe f3bc 5800 dfbc
00000190: a711 e9be 501c e4be cd8a 0d3f 9671 933f
000001a0: d424 793e 5d44 2c3f ed77 c33e ddf6 74bf
000001b0: 24ae c73e fd9a 5f3f 3936 96be b3f1 9fbe
000001c0: bbfc 6b3d fe66 83be 2891 9fbe 3e23 5c3e
000001d0: 8520 a5be be23 093f 86b1 f43d 1a0a 433d
000001e0: 39dd 21be 5bc5 1ebe 6cd0 843e be66 f6bd
000001f0: 1de0 043f ae4c 0fbe 55b5 a83e 9e9e 8bbe
00000200: ba2a 7e3e 67c3 17be e153 993e a61b 873e
00000210: a9b6 3cbe a9ce 003e f7ab 7abe 1d55 04be
00000220: ba29 86be 7315 bfbc 0ae8 93bd 5a7d b93d
00000230: 2285 673e 2296 8b3e 0f6f 92bd ff38 0f3e
00000240: ba62 e7bd bc59 01be f9bc 36be 0f56 96bd
00000250: ac95 50bd e697 5c3d

bias f4 [15]
0.1708156 0.3189169 -0.4081169 -0.4927891 -0.37976497 0.24141413 0.4210038 -0.32107562
0.34674647 -0.13667516 0.44151622 0.32064432 0.5256779 -0.5467236 -0.47936663
00000000: 49ea 2e3e 1349 a33e b3f4 d0be da4e fcbe
00000010: 8e70 c2be 4435 773e cf8d d73e 0664 a4be
00000020: c188 b13e 93f4 0bbe 6a0e e23e 7e2b a43e
00000030: d492 063f 14f6 0bbf 8b6f f5be
