Models/simulations/IV/n15_N300/17_11.pt (torch, 2535 bytes, 2 tensors)

weight f4 [15, 15]
00000000: fb8c 0abe c66b 0b3e 7925 5ebd b976 c33c
00000010: 7b39 1fbd 75f4 063d b62d 0ebe 1003 20bd
00000020: 7111 00be b216 b9bc 271c 783e fa2f 5c3d
00000030: 65fe e03e 1978 06bd a3c9 14bd 6d68 debd
00000040: a76b 6bbe 5718 813d acdd 4abd 1364 d2bc
00000050: 4f6a bb3d 6098 d43d ac09 c73c 46c8 b53e
00000060: 80ed d4bd d07c a8bd f50e 32be 223a f53e
00000070: c3de a13c 0b53 3cbd bd24 8fbd af3b 68bd
00000080: da7f 0e39 f92d 193c 1430 1e3c 2ab9 be3e
00000090: fc7d bfbd 3488 273b a529 1f3e d0b8 4c3d
000000a0: 8cfa e6bd d59a cd3e effd bdbd 4d23 18bd
000000b0: ab0a 8dba dc84 b1bc bdf7 4bbd d557 353c
000000c0: 33ec f7bc 251c 3fbd f3c5 b8bd 5b41 0e3e
000000d0: 60cb 00bc 008c 5bbc ce3f 953d ac9e 2c3d
000000e0: 7dce 8b3d 7736 a2bd b702 7cbc d164 02bd
000000f0: 8821 a7bc 9870 373e 4f05 8fbb fb6e 9e3d
00000100: 954b 08bd 5feb c8bd 21c8 023a 20c3 59bc
00000110: 9955 41bd 6a5f 573d 2b47 a3bc 84d4 263d
00000120: cdf8 0ebe 3c2c f2bc 1dcb 153c 7a72 4f3e
00000130: 344d 103e 9085 c63c d9ef 223c f17a 3fbd
00000140: 7181 5bbe 240c 90bc 0566 6c3d 40c8 0d3e
00000150: e1e8 e33c 8769 8bbe 79a2 04be 94be b8bd
00000160: 13f0 51bb 5d64 6fbd 42b3 5f3e 40fb bebd
00000170: a959 24bc bcaf 3e3d 002c 4dbd a71e 43bd
00000180: 8ddb 98be 8ede a53e 1afc c43b 8559 0abd
00000190: f7a0 993f 99d6 5abd f936 3b3e 0601 4d3d
000001a0: 6a1b 733c 538b 773d 25a5 103d 14d8 26bd
000001b0: c583 64bb f20b 45bd e774 a1bd 5158 163c
000001c0: 73e5 57bc 6e07 523c 805e 30bd 6972 7b3e
000001d0: 6b01 033e 07a2 313d 18ec 18bc 373f edbc
000001e0: fe7c 1e3f 5e2f 7a3d 648a 733d 1689 45bd
000001f0: f117 41bd acb9 883f b34b 43be ffc4 95bc
00000200: efbe 26be 4a37 2a3d 3bc5 43be fd7b fb3e
00000210: 7c96 d1bd af55 5b3d cb4b 563c bd24 b53d
00000220: da27 7abd 6554 1fbb 5e33 533c 4c34 64bc
00000230: 3f2f 4fbd e020 b4bc ee01 4dbd bbd0 e13d
00000240: b2d1 88bd bea2 bd3b 64e0 14bd d8bd 2ebe
00000250: f605 193c 3166 40bc bacd 2bbe bdcb 8c3e
00000260: 5226 ea3d fd55 8a3d 763d 333d f4ca eabe
00000270: f2ad 7e3f 2536 ab3d 2432 55bd 69cc aabd
00000280: 19d2 89bf 8215 b53c 5642 cd3f 37ed 20bd
00000290: 9b18 39bd 99a8 60bd c445 9dbd 8fd5 61bd
000002a0: eb1e 9d3c 334f 55bd 22f6 973e 86bd 593f
000002b0: f78b 333e 9110 d0bb 0c53 523e 976e 2e3f
000002c0: 3f9c 05be 7364 6fbe 57d1 e4bc 22a3 3f3b
000002d0: ff23 a8bd 0fb9 b7bd 3e83 39bc 0f74 ecbc
000002e0: bbb7 963e 5a05 45bd 8efd c5bc c9b0 75bd
000002f0: 7d63 00be 2557 b3bd cc02 debe 1970 353e
00000300: b751 dcbe db3b a33d 64ae 1c3e c374 bcbc
00000310: 1441 8c3d acfd c4bc a287 cb3c fc29 33bd
00000320: 208e 06bd 35e2 32bd a629 b1bc ab44 95bc
00000330: 42bb c2bc c5a3 2cbb ffac 84bd 5f2c 723d
00000340: 6bab 7dbb b304 4abc 1ca6 46bd b251 da3c
00000350: 9305 f4bc 9064 293c adda ce3c 503e 9ebd
00000360: cbfc 37bd a895 dfbc 7ba0 433c 3275 03bc
00000370: 97ad bdbd 6373 9ebd 1452 38bd e9ea c638
00000380: c9b1 e2bc
-0.13530342 0.13615331 -0.054234955 0.023860322 -0.038873177 0.032947976 -0.13884625 -0.03906542
-0.12506653 -0.02259383 0.2422949 0.05375669 0.43944088 -0.032829378 -0.03632511 -0.108597614
-0.22990285 0.063034706 -0.04952781 -0.025682485 0.09151136 0.10380626 0.024296604 0.3550436
-0.10396862 -0.08226931 -0.17388518 0.47895914 0.019759541 -0.045977633 -0.06989429 -0.056697544
0.00013589804 0.00934934 0.009655017 0.37250644 -0.093502015 0.002556336 0.1554323 0.04998094
-0.11278257 0.4015719 -0.092769496 -0.03714304 -0.0010760626 -0.021669798 -0.04979681 0.011068304
-0.030263996 -0.0466577 -0.09022131 0.13892119 -0.007860988 -0.013400078 0.072875604 0.04214351
0.06826494 -0.079205446 -0.015381507 -0.031834427 -0.020401731 0.17914045 -0.0043646465 0.077360116
-0.033275206 -0.098105185 0.0004988928 -0.01329115 -0.047200773 0.05258123 -0.019931396 0.040730014
-0.13962097 -0.029562108 0.009142664 0.20258513 0.1409195 0.02423361 0.009944879 -0.046748105
-0.21436097 -0.017583914 0.05771448 0.1384592 0.027821006 -0.27228948 -0.12952603 -0.09020725
-0.0032033965 -0.058445323 0.21845725 -0.09325266 -0.010031142 0.046554312 -0.05009079 -0.047636654
-0.29855004 0.32396358 0.006011498 -0.03377678 1.2002248 -0.053427313 0.18282689 0.050049804
0.014838079 0.060435604 0.035313744 -0.040733412 -0.003486858 -0.048107095 -0.078836255 0.00917633
-0.013177264 0.012819154 -0.043058872 0.24555363 0.1279351 0.043367412 -0.009333633 -0.028960807
0.6190947 0.06108033 0.05945815 -0.04822644 -0.047141973 1.0681663 -0.19071846 -0.018282412
-0.16283773 0.041556634 -0.19118206 0.49118033 -0.10233781 0.05354851 0.013079594 0.08844898
-0.06107316 -0.0024311778 0.012890665 -0.013928484 -0.050582167 -0.021988332 -0.05005067 0.1102614
-0.06680621 0.0057872226 -0.036346808 -0.17064607 0.0093398 -0.011743114 -0.16777697 0.2749919
0.1143309 0.06754682 0.043759786 -0.45857966 0.9948417 0.083599366 -0.05204977 -0.083397694
-1.0767242 0.022104982 1.6035869 -0.039288726 -0.04518948 -0.054848287 -0.07679322 -0.055135306
0.019179782 -0.052077483 0.29679972 0.85054815 0.17533861 -0.006349631 0.20539492 0.68137497
-0.13047884 -0.23378162 -0.027931852 0.0029241522 -0.08209991 -0.08970844 -0.0113227945 -0.028863935
0.2943705 -0.048100807 -0.024168756 -0.05998305 -0.12537952 -0.08756856 -0.4336151 0.17718543
-0.43031093 0.07970401 0.153009 -0.023004895 0.0684835 -0.024046741 0.024844948 -0.04374121
-0.032850385 -0.04367276 -0.021626305 -0.01822122 -0.023770932 -0.0026342731 -0.06478309 0.059124347
-0.003870691 -0.012330222 -0.048498258 0.026650283 -0.029787814 0.010338917 0.025250757 -0.07726729
-0.044918817 -0.027293041 0.011940117 -0.008023547 -0.09261625 -0.07736852 -0.04500015 9.485131e-05
-0.027672665

bias f4 [15]
00000000: 5f77 583e 29c7 1b3f 9f01 44bf c2da 60bf
00000010: fd6b 2ebf 93bd e63e 5bcd e53e 612a 26bf
00000020: d0d6 f23e 0187 a0be 3772 be3f 0fd4 823e
00000030: 8b55 833f 1760 74bf ac8a 4dbf
0.21139286 0.6085077 -0.76564974 -0.878338 -0.6813353 0.4506651 0.44883236 -0.64908415
0.47429514 -0.31353 1.4878606 0.25552413 1.0260481 -0.9545912 -0.8028972
