Models/simulations/II/T_1_R_11_model.pt (torch, 3671 bytes, 4 tensors)

weight f4 [5, 40]
000000 78 08 41 3f 1c be 0e bf 5b fb ad be 5d 51 2f bf
       0.7540355 -0.55758834 -0.33980832 -0.68483526
000010 43 fe c4 3e 2e ee ad 3c f0 ac a5 3c ba a4 27 bb
       0.38475236 0.021231737 0.020224065 -0.0025580362
000020 8f 90 74 3f c2 68 2d be 3e 44 ce bb 44 f3 99 ba
       0.9553308 -0.16934493 -0.006294756 -0.0011745472
000030 33 be 70 3e 73 c7 51 3a dd c3 74 be 5b ed c9 bc
       0.23510055 0.00080024375 -0.23902841 -0.024649313
000040 ac 18 6b be 28 e9 a0 b8 81 c3 3a 3e 45 c4 cc 3e
       -0.2295863 -7.672823e-05 0.18238641 0.39993492
000050 41 32 1a bf d1 3a cd be ac cd b1 3a 28 1e b0 3e
       -0.6023293 -0.40083936 0.0013565323 0.34398007
000060 8e 0a 3e 3e 91 87 3d 39 12 7f de 38 b0 9b 90 b7
       0.18558714 0.00018074947 0.000106094536 -1.7238635e-05
000070 89 07 4b b9 f8 9a ae b7 20 7a 21 b7 a8 78 38 38
       -0.00019362396 -2.081458e-05 -9.624782e-06 4.398139e-05
000080 f2 8b dc b8 91 4f 41 b9 20 53 3f 37 12 8f e1 38
       -0.00010516484 -0.00018435555 1.1403841e-05 0.00010755485
000090 f9 cf 24 b9 57 00 1e 39 66 df 12 b9 12 9f b9 b8
       -0.00015717735 0.00015068181 -0.00014006867 -8.8511166e-05
0000a0 f9 0c d9 be 9b 0d f5 39 7b b8 a6 bc 7f e7 4a be
       -0.4239271 0.00046740178 -0.020351639 -0.19814871
0000b0 09 6d 81 3e 8f 89 ab bf 62 02 1f bf cf 34 da bf
       0.252785 -1.3401355 -0.6211301 -1.7047366
0000c0 bc d4 14 3a 62 ec bc 3f de c4 08 bd 6e 7c 82 b9
       0.0005677452 1.4759638 -0.033390872 -0.0002488824
0000d0 b0 6b ea 38 7e 3d a7 3e e6 01 2b b9 ae a3 bc 3a
       0.00011178048 0.32664102 -0.00016308538 0.0014392042
0000e0 04 be fd 39 da ee 93 b9 fe 42 87 3f 93 7b ea ba
       0.00048397493 -0.00028215983 1.0567319 -0.0017889611
0000f0 c1 a5 01 3f 5f 79 04 3f ea 53 09 3e 89 12 4f bf
       0.50643545 0.517477 0.13410917 -0.8088766
000100 98 66 a4 bc c9 96 1d 39 24 9e 6a b8 f9 c7 08 b9
       -0.020068452 0.00015028859 -5.5937227e-05 -0.00013044466
000110 a1 ca 36 b9 42 95 f3 38 18 18 1e b8 be 8a 89 38
       -0.00017432358 0.000116149444 -3.7692575e-05 6.558512e-05
000120 10 ec fc 37 10 bc cd 37 92 cb 83 b8 90 44 a1 b7
       3.0150666e-05 2.4525478e-05 -6.284485e-05 -1.9224623e-05
000130 d1 7b 02 39 57 f0 05 39 70 65 49 37 be e6 d5 b8
       0.00012443891 0.00012773402 1.2004151e-05 -0.000101996106
000140 7c 86 1e bf c4 bc 4e 3f 35 e2 56 3f 06 74 7e 3f
       -0.61923957 0.80756783 0.83938915 0.9939579
000150 ec 3f e1 be 23 00 a2 3e 5b 2f 61 3f 22 d6 b9 3e
       -0.4399408 0.3164073 0.87962884 0.36296183
000160 98 66 40 3f fb 5e b4 3e d2 3e 82 bf 2c f4 c9 3e
       0.75156546 0.35228714 -1.0175421 0.394441
000170 2c 3c 01 bf 81 32 7b 3e 85 bc 28 be 9d d1 ce 3e
       -0.5048244 0.24530984 -0.16478164 0.40394297
000180 7a 81 25 3d e1 e6 ff 3c 40 e7 f8 be e9 02 9f bc
       0.04040668 0.031238021 -0.4861393 -0.019410567
000190 60 7d 04 be 7b ea 9d be f8 47 28 bc 10 6a 77 3e
       -0.12938452 -0.30842957 -0.010271065 0.24161553
0001a0 a5 fb 2b 3f 58 4f 06 38 02 1c ba b8 c9 97 10 39
       0.67180854 3.2021984e-05 -8.874388e-05 0.00013789455
0001b0 04 c4 62 b8 89 83 2d b9 60 43 3c 37 01 bd 3d 39
       -5.4065153e-05 -0.00016547566 1.122136e-05 0.00018094854
0001c0 92 b7 fa b8 35 e6 48 39 38 13 3f 38 29 6e 10 b9
       -0.000119551216 0.00019159245 4.5555847e-05 -0.00013773948
0001d0 7c 55 6d b8 89 b7 16 39 5f 31 49 b9 31 95 33 b9
       -5.6584817e-05 0.00014373487 -0.00019187246 -0.00017126348
0001e0 74 c8 80 3e 8a 3e 8b bf 0d a6 93 bf 86 1b 82 bf
       0.25152934 -1.087846 -1.153505 -1.016465
0001f0 b0 86 83 ba ea 07 ac 3f 00 ab c2 3f 23 d5 87 3f
       -0.0010034647 1.3439915 1.5208435 1.0611919
000200 d2 f3 92 3e af 7e 12 3f bd fd 19 3f 17 2b 8b bf
       0.28701645 0.57224554 0.601528 -1.0872525
000210 8c ec dd be d6 51 d6 3e 4a a8 4b 3a 51 09 72 bd
       -0.43344533 0.4185931 0.00077689125 -0.059090916
000220 73 e6 d0 be 1e 40 dd be 40 ef 8f 3e f1 89 0e ba
       -0.4080082 -0.4321298 0.2811222 -0.0005437425
000230 63 80 56 3d 82 7d a8 bc 5a d7 0d 3b 1e 1c c1 be
       0.052368533 -0.02056766 0.0021643252 -0.37716764
000240 4b f5 39 39 91 d7 4c 39 24 47 74 b8 24 af 5f 38
       0.00017734354 0.00019535261 -5.8240388e-05 5.3330456e-05
000250 62 bc aa b8 62 da c6 b8 08 5a 23 38 48 9c 90 b7
       -8.141321e-05 -9.482053e-05 3.8946077e-05 -1.7238912e-05
000260 78 95 6e 38 24 7e 57 b8 42 cd 8f 38 a2 f7 a9 38
       5.6882825e-05 -5.1377472e-05 6.8570036e-05 8.104673e-05
000270 89 ef 32 b9 08 ee 1f b8 a0 9c 5d b7 36 4e 21 b9
       -0.00017064637 -3.8130238e-05 -1.3209094e-05 -0.00015383292
000280 e6 59 e5 3f 71 29 07 bf 86 82 27 bb 51 8d f0 be
       1.791806 -0.5279761 -0.0025559976 -0.46982816
000290 ed 30 5e 3e fb 28 96 3e 95 cf 4f 3e 7d 3e b5 3b
       0.21698351 0.2932814 0.2029403 0.005531131
0002a0 ce 24 c0 bf d0 0d 5e ba a6 c5 05 bf 2c a3 2d 3b
       -1.5011232 -0.0008470686 -0.5225471 0.0026494963
0002b0 46 55 62 bd ed 98 f2 3e 9f 3f 5e b9 2a 8d 5d ba
       -0.055257104 0.47382298 -0.0002119527 -0.0008451516
0002c0 be fc 0e 3f 28 f3 ee 3a 25 f7 3f bf c1 94 5a 3e
       0.55854404 0.0018230425 -0.7498649 0.21345808
0002d0 74 fa e4 3d 5d 0f 8f be f4 ff 8e bd d4 88 ae 3e
       0.11180583 -0.2794141 -0.06982413 0.34088767
0002e0 92 bc 33 b9 91 df 42 39 89 53 14 b9 02 5f 86 38
       -0.00017141018 0.00018584567 -0.00014145499 6.4073145e-05
0002f0 c9 67 33 b9 48 6f 12 38 24 ae 57 b8 08 2e 27 b8
       -0.00017109433 3.491275e-05 -5.1422176e-05 -3.9858773e-05
000300 49 b0 0e 39 89 03 21 b9 56 95 1d b9 d8 51 13 b8
       0.00013607847 -0.00015355473 -0.00015028319 -3.5123754e-05
000310 89 77 29 39 ac 2e 80 38 30 12 d9 37 e0 f6 f6 36
       0.00016161626 6.112209e-05 2.5876885e-05 7.3601113e-06

bias f4 [5]
000000 88 9a 0e bf c7 ba 50 3e b7 89 4d 3e f2 a3 5e be
       -0.55704546 0.2038375 0.20072065 -0.21742228
000010 bc ba be be
       -0.37251842

weight f4 [20, 5]
000000 ae 74 4d bf 40 72 2a be 33 82 88 bd 36 34 12 bf
       -0.80256164 -0.16645145 -0.066654585 -0.5711092
000010 e3 21 b7 3e 08 ce c3 3e 10 e5 94 3e e5 88 9b bf
       0.3576804 0.38243127 0.2908101 -1.2151152
000020 ae a7 d7 3e e3 ff 4c 3f a6 78 ff 3a bc dd b2 3e
       0.42120117 0.8007795 0.0019490912 0.34934795
000030 ba 57 b1 bf 9a 07 02 3f 12 71 77 3f e1 90 01 3f
       -1.3854897 0.5079285 0.96656907 0.5061169
000040 20 bf 7f 3f c3 f6 8f bf 3c bc a6 3f 79 ef 86 3f
       0.9990101 -1.1247181 1.3026195 1.0541831
000050 82 c3 9c be 1a 44 a0 be 3b 9c 85 3f f1 aa a6 bf
       -0.3061791 -0.31301957 1.0438303 -1.3020917
000060 9a 76 84 3f 4f f2 86 bf fe 2d 98 3f a6 f7 63 bf
       1.0348694 -1.0542697 1.1889036 -0.89049757
000070 fd cc de bf ee 73 33 be fc 1a c8 be fb 9d 16 40
       -1.7406307 -0.17524692 -0.39083087 2.3533924
000080 9d e8 64 3f 44 a7 6a bf e8 65 b6 3e 10 31 c0 bf
       0.8941744 -0.9166148 0.35624623 -1.5014973
000090 d3 c8 25 3f c8 0a 71 bf 25 d6 ca bf 08 e0 2d 3b
       0.6475956 -0.94157076 -1.5846602 0.0026531238
0000a0 47 50 20 bd 97 58 9e bf 28 1c d6 3f b8 08 9b 3f
       -0.03913906 -1.2370785 1.6727343 1.2112036
0000b0 6b 20 9c bf 3e 3e 45 3f 60 1a c5 b9 f4 03 70 3e
       -1.2197393 0.770481 -0.0003759442 0.23439008
0000c0 e9 57 52 be 6b 4e 8a bf 71 2b 16 3f 12 43 ea 3e
       -0.20541348 -1.0805181 0.58660036 0.45754296
0000d0 97 39 d6 3e 80 fc 1b b7 0f fb bb bf df 61 cf 3e
       0.41840813 -9.29751e-06 -1.4685992 0.40504357
0000e0 38 b2 a0 39 4b 20 14 be 24 03 a5 3e 12 86 a2 bf
       0.0003065036 -0.14465444 0.3222896 -1.2697165
0000f0 fc c9 a7 bf 13 2e 22 be b0 d8 3c bf a2 40 ac 39
       -1.3108516 -0.15837888 -0.7376814 0.00032854552
000100 74 75 34 bf 5e 85 44 bf 8b 7b 7c 3d 8d 35 78 be
       -0.7049172 -0.76766 0.061641257 -0.24239178
000110 3e 83 f4 be f2 90 ef be 4b 18 30 bf 3c c2 ab 3e
       -0.4775638 -0.46790272 -0.6878707 0.33546627
000120 5a 3f 90 b8 19 21 2a be b0 72 ca be 85 08 7f bf
       -6.878255e-05 -0.16614188 -0.39540625 -0.99622375
000130 92 37 2f 3f a6 72 fa b9 3d be 3b 3a ad d0 74 bf
       0.6844417 -0.00047769136 0.00071618316 -0.95630914
000140 08 c8 89 bf fa 2a 31 bf 74 93 44 b9 be c3 4f bf
       -1.076417 -0.692062 -0.00018746947 -0.81158054
000150 19 69 78 bf 94 6a f0 be ff 7b a1 be 44 ee 51 bf
       -0.97035366 -0.46956313 -0.31539914 -0.8200419
000160 8c 72 2a b9 3d f0 02 bf e2 be 5f bf ac 01 e8 3a
       -0.00016255135 -0.51147825 -0.8740064 0.0017700694
000170 88 6f d3 3e 96 cd c4 be 22 39 88 be 0f 31 79 bf
       0.4129603 -0.384381 -0.2660609 -0.9734048
000180 82 34 32 3e ac d1 5b b9 b0 bf 3e ba a0 c2 64 bf
       0.17402843 -0.00020963576 -0.00072764885 -0.89359474

bias f4 [20]
000000 b3 87 d2 3f 52 4d 42 3f 8f 0f 0a 3f d3 7d 2c 3f
       1.6447662 0.7589923 0.5392999 0.6737949
000010 4a 2e b8 bd 42 a2 ea 3d ff 21 37 3e 7a ae b0 3e
       -0.08993204 0.114567295 0.17884062 0.34508115
000020 d8 58 ed 3e e8 ec b2 3e 20 ce 64 ba 8f f9 bb 3d
       0.46356845 0.3494637 -0.0008728225 0.09178459
000030 1c ac 55 bf 93 d7 d0 be 55 7a 39 bf 4d 27 62 bf
       -0.83465743 -0.4078947 -0.7245229 -0.8834122
000040 6b e4 41 bf 76 78 d6 be 7b 1e 61 bf 32 be 84 bf
       -0.75739163 -0.4188878 -0.87937135 -1.0370543
