Models/simulations/II/T_1_R_13_model.pt (torch, 3671 bytes, 4 tensors)

weight f4 [5, 40]
0	0x3c7d315c	0.015453663
1	0xba5804a8	-0.000824044
2	0x3e5ac318	0.21363485
3	0xbf0e685b	-0.55627984
4	0xbe4fa289	-0.20276846
5	0x3f0d26e5	0.55137473
6	0xbc9619e8	-0.0183229
7	0xbd71da43	-0.05904604
8	0x3d3a741c	0.045520887
9	0x3a66e1d2	0.00088074536
10	0xbed44438	-0.41458297
11	0x3e0e224e	0.13880274
12	0x3d79d43a	0.06099341
13	0xbe818259	-0.2529476
14	0x3e8b03cd	0.27151337
15	0xbce058b9	-0.027386056
16	0x3e8d947f	0.27652356
17	0xbe44db66	-0.19224319
18	0x3aae5468	0.0013300302
19	0x3c80f753	0.015742933
20	0xbec18555	-0.37797037
21	0x3c2b501e	0.010456113
22	0x3e954350	0.29152918
23	0x3dfe1afd	0.12407491
24	0x38933bfc	7.020679e-05
25	0xb8244818	-3.916779e-05
26	0xb891d712	-6.954199e-05
27	0xb8deaf02	-0.00010618383
28	0x38d67f02	0.00010227972
29	0xb81b1978	-3.69786e-05
30	0x35720200	9.0154936e-07
31	0xb93293d1	-0.00017030469
32	0x38d2065c	0.00010014765
33	0xb88b68ae	-6.6475346e-05
34	0x38c5945c	9.421326e-05
35	0xb7ca1c10	-2.4093344e-05
36	0x38a56902	7.887372e-05
37	0xb7a99c48	-2.0219144e-05
38	0x344ff800	1.9368599e-07
39	0xb884f712	-6.340271e-05
40	0xbfe0e0e3	-1.756863
41	0xbfe55625	-1.7916914
42	0xb8c1f5a8	-9.248714e-05
43	0x3e5ff207	0.2186967
44	0xbe8d9e37	-0.2765977
45	0xbd1d57b9	-0.038413737
46	0x3eaeb313	0.34120998
47	0x3f1f05fd	0.6211851
48	0x3e6a675b	0.2289099
49	0x3f648d22	0.8927785
50	0xbe8a31da	-0.2699116
51	0x3ec932c5	0.39296547
52	0x3f6d45f7	0.9268488
53	0xba2d4b84	-0.0006610679
54	0x3f6acfb3	0.91723174
55	0x3f33d89e	0.70252407
56	0xba145fce	-0.0005660028
57	0x3e9ec6f3	0.3101116
58	0x3e9d0dd4	0.30674613
59	0xbe3c2c94	-0.1837638
60	0x3eb0f355	0.34560648
61	0x3d8653b5	0.065589346
62	0xbd89be16	-0.06725709
63	0xbc0bab5b	-0.008524741
64	0x391dc695	0.00015046664
65	0xb90a8cce	-0.0001321316
66	0xb8ffa3a2	-0.000121898265
67	0x37a1bc48	1.928037e-05
68	0xb8b7d712	-8.76618e-05
69	0x37f45410	2.9126211e-05
70	0xb82b6e08	-4.087205e-05
71	0x38cbbf12	9.715384e-05
72	0xb8171c08	-3.602731e-05
73	0xb9487389	-0.00019116527
74	0xb934f1d7	-0.0001725623
75	0xb687f520	-4.05185e-06
76	0x38ce5f12	9.840554e-05
77	0xb904452e	-0.00012614272
78	0x39253f89	0.00015759295
79	0xb9149f99	-0.00014173835
80	0x3f3ebea3	0.7450964
81	0x3f57327a	0.84061396
82	0x3fc755fc	1.5573115
83	0xb9a4fcfc	-0.00031469006
84	0xbe7ee3cc	-0.24891585
85	0xbeda0c2b	-0.42587408
86	0xbc90590d	-0.017620588
87	0xb9b16e29	-0.00033842147
88	0x38cd1c6e	9.780457e-05
89	0x38b34110	8.547504e-05
90	0xb9aec1ec	-0.0003333235
91	0xba0aa27b	-0.00052884937
92	0x393737eb	0.00017473071
93	0xbee7ecd2	-0.45297867
94	0xba9ac05a	-0.0011806593
95	0xb8dbfef4	-0.000104902225
96	0xbf2e59cf	-0.6810579
97	0xbe874fcf	-0.26428077
98	0x3c2c12f3	0.010502565
99	0xbe9e13a3	-0.30874357
100	0x3af85500	0.001894623
101	0xbfaf058f	-1.3673571
102	0xbed6a99a	-0.4192627
103	0x3edaae3d	0.42711058
104	0x39414c44	0.00018434325
105	0xb91ec02e	-0.00015139647
106	0xb91b2789	-0.0001479668
107	0x394e9f89	0.00019705122
108	0x39166ea1	0.00014346327
109	0x390a5657	0.0001319287
110	0xb85e0758	-5.2935764e-05
111	0xb92bce5d	-0.00016384707
112	0xb8176e24	-3.6103782e-05
113	0x3801857c	3.0880314e-05
114	0x38ef2f12	0.000114051756
115	0xb8faef12	-0.00011965459
116	0x3934c95f	0.00017241154
117	0xb854ee24	-5.0766525e-05
118	0x38b0df12	8.433884e-05
119	0x38ddf5fc	0.00010583919
120	0x3ade1a2a	0.0016945053
121	0xbf376341	-0.71635824
122	0x3e65365a	0.22384015
123	0xbec91832	-0.39276272
124	0x39713608	0.00023003679
125	0x3f223a0f	0.6336984
126	0xbc10a703	-0.008828881
127	0xba5ddf67	-0.00084637705
128	0x3d1d7adf	0.038447257
129	0xbee5f476	-0.4491307
130	0xbc702381	-0.014656902
131	0xbadd571e	-0.0016886925
132	0xbd217743	-0.039420377
133	0x3a2b09a7	0.00065245706
134	0xbe3f4990	-0.18680406
135	0x3ed37112	0.41297203
136	0xba969d6e	-0.001149101
137	0x39f546a8	0.00046782685
138	0xbec6af35	-0.38805547
139	0x3f03990c	0.51405406
140	0xbf349eb2	-0.7055465
141	0x3cac0976	0.021000605
142	0x3a8cb8c6	0.0010736219
143	0xbb15f86b	-0.0022883664
144	0x38e8d800	0.00011102855
145	0x38f03f12	0.000114558396
146	0xb92e3791	-0.00016614633
147	0xb8e50702	-0.00010920876
148	0xb8425d7c	-4.634027e-05
149	0x390c3789	0.00013372129
150	0xb9458029	-0.00018835127
151	0xb925392d	-0.00015756926
152	0x38ffc80c	0.00012196609
153	0xb8a92712	-8.0658254e-05
154	0x3910b789	0.00013801282
155	0xb938ec89	-0.00017635724
156	0xb9010ea1	-0.00012307848
157	0xb8cd740c	-9.796777e-05
158	0x39488791	0.00019123989
159	0x38119988	3.471368e-05
160	0x3e83d633	0.2574936
161	0x3ebfb9de	0.37446493
162	0x3e857d9d	0.26072398
163	0x3908b45c	0.0001303716
164	0xb88cbcd0	-6.710889e-05
165	0x38e66616	0.000109862696
166	0xb9134519	-0.00014044753
167	0xb7140a50	-8.8238885e-06
168	0xb3651000	-5.333277e-08
169	0xb953c3e0	-0.00020195497
170	0xb859674c	-5.1833034e-05
171	0xb82d842c	-4.136951e-05
172	0x394c40a7	0.00019479041
173	0x37958870	1.7825718e-05
174	0xb92f962a	-0.00016745241
175	0xb86618e0	-5.485944e-05
176	0xb8c96a22	-9.604196e-05
177	0x3945b2c7	0.00018853984
178	0x38e149ce	0.00010742583
179	0x38eb65c4	0.000112246285
180	0x3f2f91d7	0.6858191
181	0x3efb28b3	0.4905449
182	0x3ed6cd54	0.41953528
183	0x3942a108	0.0001856127
184	0x3843938c	4.6629037e-05
185	0xb8892f02	-6.541425e-05
186	0xb8cc1712	-9.731775e-05
187	0x39253089	0.00015753707
188	0xb9444591	-0.00018717932
189	0x391b1781	0.00014790708
190	0xb8f32d02	-0.00011595526
191	0x3929df89	0.0001620037
192	0x37a120b0	1.9207917e-05
193	0x390a1c19	0.00013171173
194	0x38425e5c	4.6341083e-05
195	0xb86ab098	-5.5954413e-05
196	0xb6b4f6e0	-5.393158e-06
197	0x37fffcb8	3.051605e-05
198	0xb891152e	-6.918084e-05
199	0xb91a1389	-0.00014693862

bias f4 [5]
0	0x3d877ad1	0.06615222
1	0x3f76f3f1	0.96465975
2	0xbfac765b	-1.3473619
3	0xbf125c13	-0.57171744
4	0x4018a067	2.3847902

weight f4 [20, 5]
0	0xbfb1573f	-1.385475
1	0x4029d372	2.6535306
2	0xbb1062e7	-0.0022031607
3	0x3fd1e57f	1.6398162
4	0xbf22858b	-0.6348502
5	0xbf6a4adb	-0.9152047
6	0x401a0948	2.4068165
7	0x3df62ac3	0.12019875
8	0x3f741ac6	0.95353353
9	0xbf5a817f	-0.85353845
10	0x3f618251	0.8808947
11	0xc002d3a4	-2.0441675
12	0x3a817a30	0.0009878334
13	0x39a66ed4	0.0003174456
14	0xbec554e5	-0.38541332
15	0x3a6af7e7	0.0008963332
16	0x3eca67b2	0.39532238
17	0x3fe5d6ac	1.7956138
18	0xbeae093b	-0.33991417
19	0x3efc7d65	0.49314418
20	0xbedbc37f	-0.4292259
21	0x3b2275f6	0.0024789548
22	0x3fd656bf	1.6745223
23	0xbef13e3f	-0.47117803
24	0x3f3abb86	0.7294239
25	0x39997874	0.0002927218
26	0x3ed044c8	0.40677476
27	0xbe5fdde3	-0.21861987
28	0xbad9823e	-0.0016594601
29	0x3d59c992	0.053170748
30	0x3ab8b111	0.0014090856
31	0x3e7a6bda	0.24455205
32	0xbe687545	-0.22700985
33	0xba472edf	-0.0007598232
34	0xb966c0e0	-0.00022006361
35	0xbf5114fb	-0.8167264
36	0xbcd4797c	-0.025936835
37	0xbdf92fbd	-0.121673085
38	0x3b66e166	0.0035229563
39	0x3e465d12	0.19371441
40	0x3eeb583f	0.45965764
41	0x3ef5df93	0.48022136
42	0x3b14bfe1	0.0022697377
43	0x3834c800	4.310161e-05
44	0xba84e298	-0.0010138331
45	0xb9f1c5a8	-0.00046114367
46	0xbe32a270	-0.17444777
47	0xbec43ab2	-0.3832603
48	0xbe91e7a9	-0.28497055
49	0x3ae574d4	0.0017506131
50	0xb9100fb8	-0.00013738766
51	0xbafd902d	-0.0019345336
52	0xbf34a6c5	-0.7056697
53	0xbb298bd2	-0.0025870693
54	0xbadce950	-0.00168542
55	0x3f664565	0.8994964
56	0xbcaf337e	-0.021386858
57	0xbf76d1e9	-0.9641405
58	0x3b8636ed	0.004095903
59	0xbb9a31a0	-0.004705623
60	0xbf488176	-0.7832254
61	0x3de553d9	0.11197633
62	0xbf0f1765	-0.5589507
63	0xba0047c0	-0.0004893504
64	0xba356aa0	-0.00069204904
65	0xba2b0018	-0.00065231463
66	0x3eae4b2d	0.3404173
67	0xbda00ccc	-0.07814941
68	0x3e62d077	0.22149836
69	0x3d74db9c	0.05977975
70	0xbf5bb20c	-0.8581855
71	0x3e860aa5	0.26179996
72	0xbf053135	-0.5202821
73	0xbe55d1a1	-0.20880748
74	0xb9e60532	-0.0004387289
75	0xb9621036	-0.00021559079
76	0x3ea1888c	0.3154949
77	0xbe9dc6d3	-0.30815753
78	0xbb834475	-0.0040059634
79	0x3b84db52	0.0040544653
80	0xbee79e53	-0.4523798
81	0xbbacf31d	-0.005278005
82	0xbeaadbbb	-0.33370766
83	0x39a3dd62	0.00031254726
84	0xba8409c0	-0.0010073707
85	0xbf38f03c	-0.7224157
86	0xbd43cd55	-0.04780324
87	0xbef13f1c	-0.4711846
88	0xbe9be644	-0.30449116
89	0xbbbf3c66	-0.0058360575
90	0x3d271640	0.040792704
91	0xbdfb8940	-0.12282038
92	0xbf12b9fc	-0.5731504
93	0xbe77c941	-0.24197866
94	0x3ac01bba	0.0014656701
95	0xbfa49a6f	-1.2859629
96	0xbd836f0f	-0.06417667
97	0xbd7b10c0	-0.06129527
98	0xba39dd1e	-0.0007090139
99	0x3bf2ceb4	0.007409895

bias f4 [20]
0	0x3fafd66c	1.3737311
1	0x3fc03790	1.5016956
2	0x400ab031	2.1670039
3	0x3f32f0a8	0.6989846
4	0x3efd07f6	0.49420136
5	0xbf104960	-0.5636196
6	0xbec51bf2	-0.38497883
7	0xbe50e4f0	-0.20399833
8	0xbe105aad	-0.1409709
9	0xbef2d755	-0.4742991
10	0xbf2fb396	-0.686334
11	0xbf23f537	-0.64046043
12	0xbf05088e	-0.5196618
13	0x3d7283d7	0.059207764
14	0xbf193005	-0.59838897
15	0xbec5fcbf	-0.38669392
16	0xba410ff2	-0.0007364742
17	0xbf172e86	-0.59055364
18	0xbee91c13	-0.4552923
19	0x3bf4361b	0.007452739
