Models/simulations/II/T_1_R_10_model.pt (torch, 3671 bytes, 4 tensors)

weight f4 [5, 40]
00000000: ad15 4d3f 695e 643f 3abf 3d3f ca14 e53d
00000010: cf5d ae3c d502 a43e ba52 603a c080 e4be
00000020: 019e 0d3f e7e8 143f 7265 453f 39e3 893c
00000030: d202 a0bd 51ca ebbd fcfe 10be fc26 cc3b
00000040: e01d 6dbe 7bff 70be 0b4d cabc ff3d 03be
00000050: 26aa 16be 6c63 39be 711a a43b f6ec 983a
00000060: fa8f 083f d18e 1639 4265 b038 404c dab6
00000070: 401a a736 8123 1eb9 241e 0238 9c2b b438
00000080: cc96 e838 c97a 1f39 06c0 1ab9 126f d638
00000090: aedc 8b38 124f 9438 d8d6 78b8 5740 0539
000000a0: eecc f73f 1314 bf3f b217 ae3f 31b9 8dbe
000000b0: e65d 2fbb a75d 03bf 57bf c7be ce98 5e3c
000000c0: e18b fcbf 43b2 f7bf b76b f2bf f873 153f
000000d0: d20e c43e 13ac 553e 9255 92be 461c c2ba
000000e0: 0fb5 6a3c 0338 90ba a084 e9bc d81c e63e
000000f0: 5045 30be 1861 4f3c 236a 433c adc2 8f3e
00000100: 52fa f9be 245e 4038 6282 b9b8 ac13 ecb8
00000110: 919f 4439 813c 08b9 10e4 c5b7 0067 f435
00000120: 48bc b737 0c58 ee38 022b 8eb8 8967 3a39
00000130: f817 1fb8 d15f 3db9 89eb 29b9 81ab 1eb9
00000140: 7508 e13f 253f ca3f ee26 d03f 4dca 07c0
00000150: d9bf 0dc0 3a25 cdbe 8861 af39 0adc efbd
00000160: 594b fa3e 8891 e93e 80fc c63e aeeb 61bf
00000170: 9edd 2dbf 8dc2 8939 bb68 49bf e60d 35bb
00000180: 7340 8b3e 0c0e c2bb 13b8 6339 602c 4cba
00000190: d366 303d c293 2c3e 4eb0 5fbd 90f8 c23a
000001a0: c559 04bf 02ff bb38 903a 06b7 ac4b b1b8
000001b0: a8c8 2738 20f5 be36 29b6 4db9 e88f 0ab8
000001c0: 120f 8238 9147 42b9 704e e537 aca7 91b8
000001d0: c4bc 6eb8 a132 0d39 b81c 7ab8 ac83 91b8
000001e0: 2b17 9a3e eaa5 c439 6c4c 083a 15e5 af3e
000001f0: 6a39 b7b9 b9b1 5539 4f56 63b9 7a0c bbb8
00000200: ce25 b33c 8005 cabb 792a 9abe d557 b039
00000210: 5ab6 d9b8 c027 a9b8 6dbf 5fb9 41b7 69ba
00000220: fc75 a5b8 955c 30b9 bc1e 8eb9 4446 5db9
00000230: b6ed 203f 0df7 39bf 3fe2 2d3f 8c29 85b9
00000240: 9617 efb8 028b b6b8 c929 0339 08fe 00b8
00000250: 5ffd 2039 8977 21b9 d783 46b9 125f dcb8
00000260: 043e 5738 124f d038 129f a638 242e 3eb8
00000270: 8987 3439 81bb 05b9 911f 21b9 8963 1bb9
00000280: 99a8 593e 3da7 8cbd 1757 803e bc9f 31bd
00000290: 242c 91b8 48b6 9537 b038 0bbf a2b2 0939
000002a0: 1e4b 323e e583 1d3f 5eb1 a53e 33fa 043e
000002b0: ec17 a83e 60ff e9b6 30bc 6138 f04c ca39
000002c0: 0047 0239 dcc4 8739 2c81 14b8 401c 1737
000002d0: a345 09bf 8e7b a13e facd faba 9d58 f33e
000002e0: c01f 55b8 890f 0939 8907 12b9 20da 1db7
000002f0: 02ae cfb8 1297 beb8 089e 0f38 893f 4339
00000300: 19d0 1939 976f 09b9 30b6 a937 185b 42b8
00000310: a415 4a38 98f4 63b8 b0c7 a337 e076 a5b6
0.801112 0.8920656 0.74119914 0.11185606 0.021284966 0.3203341 0.0008557249 -0.44629478
0.5531922 0.5816788 0.7710792 0.016831981 -0.07813038 -0.11513198 -0.14159769 0.0062302332
-0.23155928 -0.23534958 -0.02469494 -0.12816618 -0.14713344 -0.18104333 0.005008035 0.00116673
0.5334469 0.00014358318 8.411195e-05 -6.505783e-06 4.9800437e-06 -0.0001508128 3.1022486e-05 8.591192e-05
0.0001109071 0.00015209163 -0.00014758119 0.00010225004 6.669141e-05 7.071918e-05 -5.9327896e-05 0.00012707837
1.9359415 1.4928001 1.3600981 -0.27680352 -0.0026758849 -0.5131478 -0.39013168 0.013586236
-1.9730188 -1.9351276 -1.8939122 0.5838008 0.38292557 0.20866422 -0.2858091 -0.0014809452
0.014325394 -0.0011003021 -0.028505623 0.4494388 -0.1721394 0.012657426 0.01192716 0.28078213
-0.48823792 4.5864042e-05 -8.845773e-05 -0.00011257021 0.0001875146 -0.0001299251 -2.359043e-05 1.8209394e-06
2.1902975e-05 0.000113651244 -6.7790985e-05 0.00017776912 -3.7930877e-05 -0.00018060139 -0.0001620484 -0.00015131944
1.7580706 1.580052 1.626188 -2.1217225 -2.2148345 -0.40067464 0.00033451268 -0.11711891
0.4888561 0.45618844 0.38864517 -0.88250244 -0.67916286 0.00026275628 -0.7867543 -0.0027626692
0.27197608 -0.0059220847 0.0002171698 -0.0007788595 0.04306681 0.1685324 -0.054611497 0.0014875103
-0.5169948 8.964354e-05 -8.0006575e-06 -8.454113e-05 4.000278e-05 5.6909776e-06 -0.00019618183 -3.3035787e-05
6.20169e-05 -0.00018527942 2.7335453e-05 -6.94537e-05 -5.6919424e-05 0.00013465669 -5.963139e-05 -6.9386646e-05
0.300958 0.0003750765 0.0005199376 0.34354463 -0.00034947257 0.0002037947 -0.0002168056 -8.919179e-05
0.021868613 -0.0061652064 -0.3011053 0.00033634776 -0.00010381332 -8.065952e-05 -0.00021338249 -0.00089155516
-7.8897894e-05 -0.00016819157 -0.0002710725 -0.00021102378 0.6286272 -0.72642595 0.6792335 -0.00025398692
-0.00011400801 -8.7043285e-05 0.000125087 -3.0754163e-05 0.00015353177 -0.00015398687 -0.00018931866 -0.00010508126
5.131775e-05 9.932941e-05 7.945126e-05 -4.5342502e-05 0.00017216628 -0.00012753719 -0.00015365916 -0.00014819032
0.21255721 -0.06867836 0.25066444 -0.043365225 -6.9223606e-05 1.7847065e-05 -0.54383373 0.00013131884
0.17411467 0.6152938 0.32361883 0.12986068 0.3283075 -6.9736707e-06 5.3819444e-05 0.00038585765
0.00012424216 0.00025895878 -3.540625e-05 9.006879e-06 -0.5362188 0.31539577 -0.0019134872 0.47528544
-5.0812727e-05 0.00013071125 -0.00013926452 -9.408715e-06 -9.902941e-05 -9.088045e-05 3.4241035e-05 0.00018620318
0.0001466874 -0.00013106909 2.0231208e-05 -4.6338042e-05 4.8180707e-05 -5.4348813e-05 1.9524101e-05 -4.931222e-06

bias f4 [5]
00000000: a93f dfbe 322e 383e 358e e8be 1ca5 f63e
00000010: b645 b03e
-0.43603256 0.17986372 -0.45420995 0.48172843 0.34428185

weight f4 [20, 5]
00000000: 6ef2 22c0 eabc 84bf 6943 4ebf 346e 7bbe
00000010: dc82 af3a 20cb 25c0 9ef3 a7bf d213 63bf
00000020: 7e1f f2be 3798 e4be 1b1a 3dc0 3ba7 64bf
00000030: aa24 4cbf bf57 1fbf 81f4 c23a d5bd 393e
00000040: c716 6b3f 8fc0 833f 11c7 9abe 6a62 7a3e
00000050: d062 82b8 b82f 5f3f 4f2b d53f 3e67 953e
00000060: 08be c5b9 e4c7 be3f 8c3f 633f 0d5b c6bf
00000070: cd25 a03e 1ec8 05bf f7e5 443e 43a1 713f
00000080: 8138 a3bf 2e03 16be 893b c43e eede 5b3f
00000090: 037e 233f e297 b6bf 7e33 dbbd d046 5539
000000a0: 5e65 20c0 9368 f03f 4812 64ba d617 4f3a
000000b0: ce1c c3be c1b6 2dc0 40d8 d23f 74d6 d7b9
000000c0: 0cfa 083e bc76 a5bc 6250 0fc0 9b29 d13f
000000d0: cee7 593b bd72 adbd d61a 0fbf 2cb2 c5bd
000000e0: 3ce0 04c0 430e 9a3f 806c f736 b41f 8a3e
000000f0: 68a6 d23c 8b9e f9bf abed 653f f937 08bf
00000100: 239f 93bc 6ba8 f73e f9e3 57bf a680 cbbf
00000110: 05c0 a93d 3eda 3a3f fae0 91bf d55c 16ba
00000120: be46 3abd db3e e0be 512b ea3e c432 8bbf
00000130: 55c6 f7be 0154 1e3f 32df 2cbd 9004 4cb9
00000140: 46a6 79bf 9219 b4be 2317 803e 1ae3 043e
00000150: 4dbe c33a 34aa 9fbf 95bb 3abc d91e bb3e
00000160: 4597 96be 1e09 e039 5b80 42bf d43d a93a
00000170: d2cb 24b9 5c52 87b9 1087 4e38 49f9 b3bf
00000180: b4c1 2e3b 89ef 6c3a b72f c6be 3ca3 1338
-2.5460467 -1.0370152 -0.8057161 -0.24553758 0.001339044 -2.5905228 -1.3121221 -0.8870212
-0.47289652 -0.4464738 -2.9547184 -0.89317673 -0.79743445 -0.62243265 0.0014873893 0.18138821
0.9183163 1.0293139 -0.3023 0.24451604 -6.217288e-05 0.8718219 1.6653842 0.2918033
-0.00037716352 1.4904752 0.8876884 -1.5496536 0.3127884 -0.5225848 0.1922835 0.9438669
-1.2751619 -0.1464965 0.38326672 0.8588704 0.63864154 -1.4265101 -0.10703181 0.00020339643
-2.506187 1.8781914 -0.0008700234 0.0007899975 -0.38107914 -2.7142794 1.6472244 -0.00041167776
0.13376635 -0.020198219 -2.2392812 1.6340822 0.0033249739 -0.0846915 -0.55900323 -0.09653124
-2.0761862 1.2035602 7.3738047e-06 0.26977313 0.025714114 -1.9501508 0.8981578 -0.5321041
-0.018020218 0.4837068 -0.84332234 -1.5898635 0.08288578 0.7298926 -1.1396782 -0.0005735879
-0.04547762 -0.43797955 0.45736173 -1.0874867 -0.48393503 0.6184693 -0.042205043 -0.00019456656
-0.9751934 -0.3517576 0.25017652 0.12977257 0.0014934033 -1.2473817 -0.011397262 0.36546972
-0.29412284 0.00042731402 -0.75977105 0.0012912103 -0.00015716188 -0.0002581057 4.9240014e-05 -1.4060451
0.002666575 0.0009038379 -0.3870828 3.5199555e-05

bias f4 [20]
00000000: 76b1 003f 9645 003f 0cfe f33e 17b4 093f
00000010: be32 2e3e 0bc1 1ebf 84aa 1bbd 340a 51be
00000020: 6c30 af3e 7e32 ad3e f3ed 113f 423b ae3e
00000030: 67c3 363f 621a 2dbf 71a7 08bf b7f6 b8be
00000040: 2787 c9be ea02 cbba 6815 52bf e425 08bf
0.50270784 0.5010618 0.4765476 0.5379042 0.17011544 -0.6201331 -0.038004413 -0.20414048
0.3421663 0.33827585 0.57003707 0.34029585 0.7139191 -0.6761838 -0.53380495 -0.36125728
-0.39360926 -0.0015488539 -0.82063913 -0.53182817
