Models/simulations/II/T_1_R_28_model.pt (torch, 3671 bytes, 4 tensors)

weight f4 [5, 40]
00000000: e056 89be 7587 c8bc eed0 dbbe 89f9 d13c
00000010: 9bb4 8b3a 6467 823e 84df ddbe 3d50 db3e
00000020: 34bd 1e3c b499 0c3f cfad 9ebe 4673 393a
00000030: 9250 773e 61f7 8ebc ab2d 49be 1d16 4e3b
00000040: 1cdf f83e addb 603f b39f 2d3f b3c4 adbe
00000050: dae9 10bf 37e1 05be 2d0a 8a3d be87 193e
00000060: 3d85 593e d7d5 2639 31f2 0eb9 6c28 a5b8
00000070: 35f0 4b39 31f5 1a39 d868 3f38 7c35 08b8
00000080: d663 19b9 b031 aab7 2075 bab6 dcd1 7738
00000090: 92ef b8b8 896f 26b9 a142 5039 eef8 bd38
000000a0: e0be 69b9 6e6d 3d3e 4abb e03e d83e e7be
000000b0: 9e7d f238 f88e fcb8 d425 5938 2f35 2cb9
000000c0: 7083 37b8 7d27 46b9 2635 3f3d 0f40 1439
000000d0: 28bb 6237 aaee 0239 1d56 89b9 b813 b1b7
000000e0: e396 663e 96f2 12b8 0628 5eb9 7c29 32b8
000000f0: d13e 023f 8d9a 5b3f 9aa5 80b9 35d9 3339
00000100: 68f1 3938 021f 8c38 9215 fbb8 893f 2a39
00000110: 19bc 3fb9 8937 4a39 8117 0239 1277 c438
00000120: 1810 79b8 3151 51b9 89cb 37b9 8927 0e39
00000130: 0201 a1b8 89b7 2239 124f bc38 023f f8b8
00000140: bd6d 15c0 6f9c 06c0 c9f4 f6bf a647 773f
00000150: 7d86 0cbd 57ec d43e 0cfd e9be 2284 7dba
00000160: ccc8 3b39 3932 a9be a51f a8be 39cd 0c3f
00000170: 445b 7338 c2df 553f ad0d 1d3f d5ca 583f
00000180: 841b b7b9 038c 673e 599a 323a 8401 e33e
00000190: 388d b03f 5c82 193f fc07 b6ba cce9 53bf
000001a0: 594e 86be bee2 b2b8 899d 38b9 02a7 d4b8
000001b0: 90fa 2d37 29aa 27b9 894b 4eb9 89c7 1a39
000001c0: 6256 9bb8 845a 1738 5d77 3039 0270 abb8
000001d0: f94f 4439 f2eb 8db8 b8a2 d737 107c 91b7
000001e0: 4771 87bf fa3c 5abf 42e4 95bf feb2 b6bf
000001f0: 997b 94bf 0f7b 833d 3d58 1bbf e2cd c13e
00000200: 0449 283b c1c0 4cba 427b 843d 8570 243f
00000210: 9097 703e 70ea 33b8 7938 dabe 7419 a639
00000220: 4c6e 133f d813 02bb 4a15 843f 6e33 93ba
00000230: ad7c e33e 544e d23f 342c e33c 9eb0 13be
00000240: f8e1 d3be bcfe b438 4085 c536 cfa0 26b9
00000250: 04d4 64b8 89a3 1fb9 00d1 8f35 bed2 c738
00000260: 2038 5cb7 91d1 4cb9 57fe 2039 d140 31b9
00000270: 240e 50b8 0003 bd35 31ec 4739 894b 2bb9
00000280: 643b f7be b1bf 67bf 3d6a 3cbf 8637 e93f
00000290: d6a8 fc3f f41f d9ba 3f4c e43e 0371 9ebc
000002a0: a5e4 d73e a05f 2c3d 6bb6 da3e 675b c6b9
000002b0: 468a 0b39 54a3 16bf 729c 41ba d33b 253f
000002c0: 5577 cebe a264 20bf 9bf0 1cbe 928a 8fbe
000002d0: 9f2d 403f 9a32 033f b0a1 bdb9 9faa c6be
000002e0: 68bb c438 20f8 7937 f945 08b9 240e 60b8
000002f0: cf66 3039 572a 1739 f207 a438 028f a038
00000300: a82f 19b8 1255 9338 978b 19b9 25dd 3ab9
00000310: a407 5338 283e 0638 124f e0b8 28ee 14b8
-0.26824093 -0.024478653 -0.42932838 0.025631683 0.0010658683 0.25469506 -0.4333459 0.42834654
0.009688664 0.5492203 -0.3099198 0.0007074367 0.24151829 -0.017451944 -0.19646327 0.0031446286
0.4860772 0.878352 0.67821807 -0.33939132 -0.5660683 -0.13074194 0.06740222 0.14993188
0.21242233 0.00015910655 -0.00013632399 -7.875342e-05 0.00019449073 0.00014777925 4.5635592e-05 -3.2474738e-05
-0.00014628409 -2.0288717e-05 -5.556867e-06 5.9084836e-05 -8.818427e-05 -0.00015872544 0.00019861247 9.058589e-05
-0.00022291718 0.18498775 0.4389289 -0.45165133 0.00011562857 -0.000120429264 5.1772062e-05 -0.0001642301
-4.375301e-05 -0.00018897462 0.046681546 0.00014138244 1.3514225e-05 0.00012486675 -0.00026194836 -2.1109227e-05
0.22518496 -3.503504e-05 -0.0002118648 -4.2477142e-05 0.508771 0.857827 -0.00024537445 0.00017151686
4.4332264e-05 6.681496e-05 -0.000119726305 0.00016236132 -0.00018285251 0.0001928491 0.00012406522 9.368187e-05
-5.9381215e-05 -0.0001996204 -0.00017528063 0.00013556903 -7.677266e-05 0.00015517896 8.9792666e-05 -0.00011837298
-2.334823 -2.103298 -1.9293453 0.965937 -0.034307946 0.41586563 -0.45700872 -0.00096708734
0.00017908512 -0.3304613 -0.32836643 0.55000645 5.8020712e-05 0.8354455 0.6134899 0.846845
-0.0003492498 0.22612004 0.0006813161 0.44337094 1.3793097 0.5996454 -0.0013887878 -0.8277862
-0.2623165 -8.5299354e-05 -0.00017606294 -0.000101400554 1.0369942e-05 -0.0001598975 -0.0001967383 0.00014760917
-7.407066e-05 3.6085505e-05 0.00016829134 -8.1747785e-05 0.00018721809 -6.767352e-05 2.5705769e-05 -1.7343118e-05
-1.0581445 -0.8524929 -1.1710284 -1.4273374 -1.1600219 0.06419956 -0.60681516 0.3785239
0.0025678286 -0.0007810705 0.06468822 0.6423419 0.23495317 -4.2895263e-05 -0.4262121 0.0003168095
0.57590175 -0.0019848254 1.0318997 -0.0011230537 0.44431058 1.6430154 0.027731039 -0.14422843
-0.41383338 8.630517e-05 5.88657e-06 -0.000158909 -5.455689e-05 -0.00015224343 1.0715157e-06 9.528313e-05
-1.31260895e-05 -0.00019533026 0.00015353538 -0.00016904181 -4.9604234e-05 1.408247e-06 0.00019066107 -0.0001633597
-0.482875 -0.9052687 -0.73599607 1.822007 1.9739025 -0.0016565309 0.4458942 -0.019340998
0.4216663 0.042083383 0.427173 -0.00037833603 0.00013307584 -0.5884297 -0.0007385678 0.6454441
-0.40325418 -0.62653553 -0.15326159 -0.28035408 0.7506961 0.51249087 -0.00036169356 -0.3880205
9.3809154e-05 1.4899328e-05 -0.00012996038 -5.341893e-05 0.00016822967 0.00014416255 7.821609e-05 7.656032e-05
-3.6522426e-05 7.025352e-05 -0.00014643218 -0.00017820725 5.0313436e-05 3.2005977e-05 -0.0001069588 -3.550775e-05

bias f4 [5]
00000000: d112 7dbd c40d ac3f c6b1 503f eb92 d73f
00000010: 9b10 833f
-0.061785523 1.3441701 0.8152126 1.6841711 1.0239443

weight f4 [20, 5]
00000000: 8de4 aa3e dffa 69bf 35b6 4140 daf1 b3ba
00000010: 2361 0dbf cbd4 c13c b310 93be 6f1d 0040
00000020: 2642 21be d39a e7be af7d d53c 48a4 30ba
00000030: e20a 0340 7481 8c3a e050 72bf f55a 90bf
00000040: 4a39 21bf 528e ebbf 4ab5 1e40 846e 86bf
00000050: c438 f4bf 3c23 b4bb b802 a3bf dfac a43f
00000060: f9da 08c0 839f 083f 6865 8d3b 88cd 35ba
00000070: 44cc 9cbf 59ae de3f 9c9a 383a ba38 0c3f
00000080: 35a3 57be 72f2 b9bf 2758 883f 3874 e538
00000090: 8730 143b 8b03 cabe 8af7 bcbf 8fee 6e3f
000000a0: 4847 bf3a dbf8 973e 8e60 083e ca4b 293f
000000b0: 07a8 373e 5f0a 283f 14e3 edb9 3813 aabb
000000c0: 40e1 d63e dade 483e 3894 b5bc 5a0d 763a
000000d0: c4a2 57be 1336 c53b 08e4 423f 3bf4 f339
000000e0: 2adf 1cba 60be 33b8 d48e 823e c07a 0f38
000000f0: 8055 75b7 bfca 22bb 653c 013f 2ad9 b0b9
00000100: ba4a e0b9 12ea 69b9 f32d 13ba 0b41 643c
00000110: 21cf b63e 03de c9ba 281f 43bf 3e7f 8db9
00000120: 3625 8e3a fecd 8f3a c1cd a13e 554f 533f
00000130: eabb d4b9 bc07 7e3e a03a 863e 5629 cab9
00000140: ffef 75be 1a03 94bb 3d7a 82bb f8eb 4b3f
00000150: 5240 2cbb 0eb2 46be 58e1 6a3b 3996 33bd
00000160: d040 1a3f 9a55 fa3a a65a 3cb9 300a 21bb
00000170: 9ad8 2dbe d600 6d3e c0e0 d13e 0460 8ebf
00000180: f227 e9ba aaf9 74bb d060 de3e 1c9e e1ba
0.33377495 -0.91398424 3.026746 -0.0013728694 -0.55226344 0.023661038 -0.28723678 2.0017965
-0.1574789 -0.4523531 0.026060907 -0.0006738347 2.0475392 0.0010719732 -0.94654655 -1.1277758
-0.6297804 -1.8402808 2.479815 -1.0502477 -1.9079823 -0.0054973643 -1.2735205 1.2865256
-2.138365 0.53368396 0.004315067 -0.00069352286 -1.2249837 1.7396957 0.00070420816 0.5477406
-0.21058352 -1.4527113 1.0651902 0.00010941218 0.0022611932 -0.39455828 -1.4763043 0.9333276
0.0014593387 0.2968205 0.13318083 0.6613127 0.17935191 0.65640825 -0.0004537335 -0.0051902793
0.41968727 0.19616261 -0.022165403 0.0009386145 -0.21058184 0.006018409 0.761292 0.00046530538
-0.0005984182 -4.2854226e-05 0.25499594 3.4208177e-05 -1.4623045e-05 -0.0024840084 0.5048278 -0.00033731136
-0.00042780285 -0.0002230781 -0.0005614452 0.013931523 0.35704902 -0.0015401248 -0.76219416 -0.00026988419
0.001084483 0.0010971425 0.3160229 0.82542926 -0.00040575798 0.24807638 0.26216602 -0.0003855924
-0.24017332 -0.0045169713 -0.003981857 0.79656935 -0.0026283455 -0.1940386 0.0035839882 -0.043844435
0.60255146 0.0019098998 -0.00017962846 -0.0024572723 -0.16977158 0.2314485 0.40991783 -1.1123052
-0.0017788394 -0.0037380257 0.43433237 -0.0017213258

bias f4 [20]
00000000: a6d5 383f 69ef 903f 195c 893f 3c75 013f
00000010: e209 c63f 5384 823e f2a4 9e3e b3d9 543f
00000020: edf9 5dbf 56ba 76be 83fd 1dbf ab18 a1ba
00000030: ff65 c0bd 1d44 0bba fb6b c4be 5423 2aba
00000040: 9031 e5be 3a33 1cbf 2b10 88be fc10 47bf
0.72201 1.1323062 1.0731231 0.5056951 1.5471766 0.2549158 0.30985218 0.8314468
-0.8670948 -0.24094519 -0.61714953 -0.0012290677 -0.09394454 -0.0005312579 -0.38363633 -0.00064902497
-0.44764376 -0.61015666 -0.26574835 -0.7776029
