Models/simulations/I-a/T_4_R_13_model.pt (torch, 3223 bytes, 4 tensors)

weight f4 [5, 30]
0	0xbb8600b9	-0.0040894416
1	0x3ef47b1a	0.4775017
2	0x3e557ee3	0.20849185
3	0x3f5bb805	0.85827667
4	0x3f544d7f	0.8293075
5	0xbcb63322	-0.022241179
6	0x3d86c522	0.06580569
7	0x3d9ce761	0.076613195
8	0xbcba9f54	-0.022781052
9	0xbbe07f76	-0.006851132
10	0xbd481821	-0.048851136
11	0xba6f7888	-0.0009135087
12	0x3b979b5d	0.004626675
13	0x3afb4f58	0.0019173427
14	0x3ae9a75a	0.0017826364
15	0x3e073348	0.13203156
16	0xb97760cd	-0.00023591817
17	0x3885ff9c	6.389545e-05
18	0xb807cfe8	-3.2380136e-05
19	0x390e6681	0.00013580361
20	0x393b0aa1	0.0001783767
21	0xb92e6f65	-0.00016635431
22	0x394e175d	0.00019654394
23	0x38feaf92	0.00012144366
24	0xb91f77f9	-0.00015208115
25	0x37e59010	2.7366012e-05
26	0xb949b55d	-0.00019236417
27	0x38f2a0ae	0.00011569388
28	0xb78e6170	-1.6973092e-05
29	0xb9103afe	-0.00013754886
30	0x3f45fd3d	0.77339536
31	0x3ff67a52	1.9256079
32	0x3f4d1531	0.8011046
33	0xbda67b8d	-0.08129034
34	0xbdeca1dc	-0.1155431
35	0x3da96350	0.082708955
36	0xbd9f4d60	-0.0777843
37	0xbccc2f60	-0.024924934
38	0xbb44f74f	-0.0030054634
39	0x3cfd7a4e	0.030942108
40	0x3bb12a1f	0.0054066326
41	0x3c2fa4f9	0.010720485
42	0x3cb23860	0.021755397
43	0xbd92d500	-0.07169533
44	0x3b1bc60f	0.0023769175
45	0x39d3fb1e	0.00040432153
46	0xb8672570	-5.5109558e-05
47	0x384f5604	4.9432754e-05
48	0xb8221818	-3.864625e-05
49	0x38a7a00c	7.9929916e-05
50	0xb8a7bb9c	-7.9981255e-05
51	0xb93e9257	-0.00018174328
52	0xb50ba200	-5.2017276e-07
53	0xb8e9b862	-0.0001114465
54	0x390d1bd1	0.0001345717
55	0xb6669680	-3.4360273e-06
56	0x3920fa06	0.0001535193
57	0xb83f2284	-4.5570094e-05
58	0x3889fd42	6.579842e-05
59	0x38d0c792	9.955386e-05
60	0x3b46651d	0.003027267
61	0xb819a698	-3.6633195e-05
62	0xbb93210c	-0.0044900235
63	0x3cba68f8	0.022755131
64	0xbb02ad1a	-0.0019939602
65	0x38c0c942	9.1927606e-05
66	0xb8802768	-6.1108556e-05
67	0xbd2c5c48	-0.042080194
68	0x39e17371	0.00043001355
69	0xb87eb9f8	-6.0731516e-05
70	0xb99708d1	-0.00028807533
71	0x3dc8a913	0.09797873
72	0xbefdfdaf	-0.49607608
73	0xb8130488	-3.505175e-05
74	0x3984c430	0.00025323173
75	0x38146390	3.5378675e-05
76	0xb7f382e8	-2.9028815e-05
77	0xb91728d1	-0.00014415687
78	0x38976abc	7.220122e-05
79	0xb8de8132	-0.000106098494
80	0xb8b7c19c	-8.7621826e-05
81	0xb8dc8602	-0.000105153784
82	0x3944ba31	0.00018761378
83	0xb945b029	-0.00018853009
84	0xb916b657	-0.00014373042
85	0x38ba6cae	8.889414e-05
86	0x37e88150	2.7716771e-05
87	0xb9268257	-0.00015879549
88	0x38fd9592	0.0001209184
89	0x38b80b02	8.775854e-05
90	0xbe6a2eba	-0.22869387
91	0x3f0825c0	0.531826
92	0x3f81dbb7	1.0145177
93	0x3f4fce54	0.81174207
94	0xbed9ff21	-0.4257746
95	0xbc12ac2c	-0.008952182
96	0x3e2e0aa2	0.16996244
97	0xbdba62fc	-0.09100911
98	0x3d0b5ee5	0.034026045
99	0xbd326149	-0.04354981
100	0x3dba7062	0.091034666
101	0xbe17c47d	-0.14821048
102	0xbd8b7b32	-0.06810607
103	0x397dee88	0.0002421682
104	0x3e8ca8b5	0.27472463
105	0xba16d19e	-0.00057532813
106	0x3943a070	0.00018656417
107	0xb8000284	-3.051992e-05
108	0xb8c36142	-9.31644e-05
109	0x3938ca35	0.00017622935
110	0xb75d35e0	-1.318517e-05
111	0x371abd60	9.223208e-06
112	0x3942e8a1	0.00018587943
113	0xb9186e31	-0.00014536899
114	0xb907f981	-0.0001296755
115	0xb8a0146c	-7.6331984e-05
116	0x387a88d8	5.973209e-05
117	0xb9073f5f	-0.00012898211
118	0xb8da9942	-0.000104235965
119	0x3920f431	0.00015349757
120	0xbebe33e4	-0.37148964
121	0xbda035da	-0.07822771
122	0xbf701481	-0.93781286
123	0xbf4e9a29	-0.8070398
124	0xb7f47600	-2.9142015e-05
125	0x36a19c80	4.816393e-06
126	0x39138fc4	0.0001407257
127	0x37a444e0	1.9582396e-05
128	0x38ec175e	0.000112577094
129	0xb7872370	-1.6109756e-05
130	0xb7c5a1d8	-2.3559594e-05
131	0xbea46a88	-0.32112527
132	0xbe31a68e	-0.17348692
133	0xb8ff4770	-0.00012172654
134	0x392f6572	0.00016727092
135	0xb81d012c	-3.743281e-05
136	0x359e6600	1.1801603e-06
137	0x389080ae	6.8904235e-05
138	0xb92c8a57	-0.00016454734
139	0xb934e591	-0.00017251658
140	0xb91010a1	-0.00013739105
141	0x393e6ffd	0.00018161531
142	0x388cbc52	6.7107976e-05
143	0x38d81592	0.000103037004
144	0xb8738dd8	-5.8067817e-05
145	0xb89ed92e	-7.57448e-05
146	0x394bede9	0.00019448217
147	0xb9188b89	-0.0001454783
148	0x383db824	4.5232606e-05
149	0x38298918	4.042042e-05

bias f4 [5]
0	0xbef4cbdf	-0.4781179
1	0xbf3d6cff	-0.7399444
2	0x3f54e727	0.8316521
3	0xbf260a87	-0.64859813
4	0xc08613ae	-4.1899023

weight f4 [10, 5]
0	0x3a25d5c7	0.0006326106
1	0x3efa0ba6	0.48837012
2	0x3f1953de	0.59893596
3	0x4020ffc0	2.5156097
4	0xbd947e8d	-0.072507
5	0xbeefb5a2	-0.46818262
6	0x40605121	3.5049517
7	0x3e650a9b	0.22367327
8	0xbd44001a	-0.04785166
9	0xbeafc2ec	-0.343284
10	0x400c2c3a	2.1901994
11	0x3f118c63	0.5685484
12	0xbd40d63c	-0.04707931
13	0xb98f06f4	-0.00027280266
14	0xbbecb629	-0.0072238636
15	0x3d11d6c4	0.035605207
16	0x3f31e3a8	0.69488
17	0xbbd7da92	-0.006587335
18	0x401b20f3	2.423886
19	0xbd7999ec	-0.060937807
20	0x3fcbae0f	1.5912493
21	0xbf7ac470	-0.9795599
22	0x3be3e11c	0.0069543254
23	0x38d30fb0	0.00010064186
24	0xbb0374e8	-0.0020058695
25	0xbf948737	-1.1603764
26	0xbed3a5ab	-0.41337332
27	0xbd9fc45c	-0.078011245
28	0xbe2b7c05	-0.16746528
29	0x3a266748	0.00063477876
30	0xbfb58137	-1.4180058
31	0x3b673fab	0.0035285752
32	0xbe79cb98	-0.24394071
33	0x3cab3280	0.020898104
34	0x3b251292	0.002518807
35	0xbf494a2c	-0.786288
36	0xbe9dcf7e	-0.30822366
37	0x3aeb566e	0.0017954835
38	0xbd9a1577	-0.07523625
39	0x3c775795	0.015096565
40	0xbfcf95b3	-1.621756
41	0xbdf62b55	-0.12019984
42	0xbd5ac320	-0.053408742
43	0x3b39eed2	0.0028371108
44	0x3c255a85	0.010092382
45	0xbf6b4636	-0.9190401
46	0xbe8f9137	-0.28040478
47	0x3b829e8a	0.0039861845
48	0xbc02a7dd	-0.007974592
49	0x3d32172c	0.04347913

bias f4 [10]
0	0x3f8094c6	1.0045402
1	0x3fa79dea	1.3095067
2	0x3f9840ea	1.189481
3	0x3fc2147b	1.51625
4	0x3b12c322	0.002239414
5	0xbf93c0a9	-1.154317
6	0xbf5fe48a	-0.874581
7	0xbf81dbe2	-1.0145228
8	0xbf7d8708	-0.99034166
9	0xbf531ee3	-0.82469004
